ir_version: 11
producer_name: "mobius"
producer_version: "0.1.0"
graph {
  node {
    input: "pre_fc_norm_embedding.weight"
    input: "const_1.0_f32"
    output: "v_pre_fc_norm_embedding.Add_0"
    name: "pre_fc_norm_embedding/Add_node_0"
    op_type: "Add"
    metadata_props {
      key: "namespace"
      value: ": Qwen35MtpModel/pre_fc_norm_embedding: OffsetRMSNorm"
    }
    metadata_props {
      key: "pkg.onnxscript.class_hierarchy"
      value: "[\'Qwen35MtpModel\', \'OffsetRMSNorm\']"
    }
    metadata_props {
      key: "pkg.onnxscript.name_scopes"
      value: "[\'\', \'pre_fc_norm_embedding\']"
    }
  }
  node {
    input: "inputs_embeds"
    input: "v_pre_fc_norm_embedding.Add_0"
    output: "v_pre_fc_norm_embedding.RMSNormalization_1"
    name: "pre_fc_norm_embedding/RMSNormalization_node_1"
    op_type: "RMSNormalization"
    attribute {
      name: "epsilon"
      f: 1e-06
      type: FLOAT
    }
    attribute {
      name: "axis"
      i: -1
      type: INT
    }
    metadata_props {
      key: "namespace"
      value: ": Qwen35MtpModel/pre_fc_norm_embedding: OffsetRMSNorm"
    }
    metadata_props {
      key: "pkg.onnxscript.class_hierarchy"
      value: "[\'Qwen35MtpModel\', \'OffsetRMSNorm\']"
    }
    metadata_props {
      key: "pkg.onnxscript.name_scopes"
      value: "[\'\', \'pre_fc_norm_embedding\']"
    }
  }
  node {
    input: "pre_fc_norm_hidden.weight"
    input: "const_1.0_f32"
    output: "v_pre_fc_norm_hidden.Add_2"
    name: "pre_fc_norm_hidden/Add_node_2"
    op_type: "Add"
    metadata_props {
      key: "namespace"
      value: ": Qwen35MtpModel/pre_fc_norm_hidden: OffsetRMSNorm"
    }
    metadata_props {
      key: "pkg.onnxscript.class_hierarchy"
      value: "[\'Qwen35MtpModel\', \'OffsetRMSNorm\']"
    }
    metadata_props {
      key: "pkg.onnxscript.name_scopes"
      value: "[\'\', \'pre_fc_norm_hidden\']"
    }
  }
  node {
    input: "hidden_states"
    input: "v_pre_fc_norm_hidden.Add_2"
    output: "v_pre_fc_norm_hidden.RMSNormalization_3"
    name: "pre_fc_norm_hidden/RMSNormalization_node_3"
    op_type: "RMSNormalization"
    attribute {
      name: "epsilon"
      f: 1e-06
      type: FLOAT
    }
    attribute {
      name: "axis"
      i: -1
      type: INT
    }
    metadata_props {
      key: "namespace"
      value: ": Qwen35MtpModel/pre_fc_norm_hidden: OffsetRMSNorm"
    }
    metadata_props {
      key: "pkg.onnxscript.class_hierarchy"
      value: "[\'Qwen35MtpModel\', \'OffsetRMSNorm\']"
    }
    metadata_props {
      key: "pkg.onnxscript.name_scopes"
      value: "[\'\', \'pre_fc_norm_hidden\']"
    }
  }
  node {
    input: "v_pre_fc_norm_embedding.RMSNormalization_1"
    input: "v_pre_fc_norm_hidden.RMSNormalization_3"
    output: "v_Concat_4"
    name: "Concat_node_4"
    op_type: "Concat"
    attribute {
      name: "axis"
      i: -1
      type: INT
    }
    metadata_props {
      key: "namespace"
      value: ": Qwen35MtpModel"
    }
    metadata_props {
      key: "pkg.onnxscript.class_hierarchy"
      value: "[\'Qwen35MtpModel\']"
    }
    metadata_props {
      key: "pkg.onnxscript.name_scopes"
      value: "[\'\']"
    }
  }
  node {
    input: "v_Concat_4"
    input: "fc.weight_t"
    output: "v_fc.MatMul_6"
    name: "fc/MatMul_node_6"
    op_type: "MatMul"
    metadata_props {
      key: "namespace"
      value: ": Qwen35MtpModel/fc: Linear"
    }
    metadata_props {
      key: "pkg.onnxscript.class_hierarchy"
      value: "[\'Qwen35MtpModel\', \'Linear\']"
    }
    metadata_props {
      key: "pkg.onnxscript.name_scopes"
      value: "[\'\', \'fc\']"
    }
  }
  node {
    input: "rotary_emb.cos_cache"
    input: "position_ids"
    output: "v_rotary_emb.Gather_7"
    name: "rotary_emb/Gather_node_7"
    op_type: "Gather"
    metadata_props {
      key: "namespace"
      value: ": Qwen35MtpModel/rotary_emb: DefaultRope"
    }
    metadata_props {
      key: "pkg.onnxscript.class_hierarchy"
      value: "[\'Qwen35MtpModel\', \'DefaultRope\']"
    }
    metadata_props {
      key: "pkg.onnxscript.name_scopes"
      value: "[\'\', \'rotary_emb\']"
    }
  }
  node {
    input: "rotary_emb.sin_cache"
    input: "position_ids"
    output: "v_rotary_emb.Gather_8"
    name: "rotary_emb/Gather_node_8"
    op_type: "Gather"
    metadata_props {
      key: "namespace"
      value: ": Qwen35MtpModel/rotary_emb: DefaultRope"
    }
    metadata_props {
      key: "pkg.onnxscript.class_hierarchy"
      value: "[\'Qwen35MtpModel\', \'DefaultRope\']"
    }
    metadata_props {
      key: "pkg.onnxscript.name_scopes"
      value: "[\'\', \'rotary_emb\']"
    }
  }
  node {
    input: "attention_mask"
    input: "const_1_i64"
    output: "v_CumSum_9"
    name: "CumSum_node_9"
    op_type: "CumSum"
    metadata_props {
      key: "namespace"
      value: ": Qwen35MtpModel"
    }
    metadata_props {
      key: "pkg.onnxscript.class_hierarchy"
      value: "[\'Qwen35MtpModel\']"
    }
    metadata_props {
      key: "pkg.onnxscript.name_scopes"
      value: "[\'\']"
    }
  }
  node {
    input: "v_CumSum_9"
    input: "const_1d_2"
    output: "v_Unsqueeze_10"
    name: "Unsqueeze_node_10"
    op_type: "Unsqueeze"
    metadata_props {
      key: "namespace"
      value: ": Qwen35MtpModel"
    }
    metadata_props {
      key: "pkg.onnxscript.class_hierarchy"
      value: "[\'Qwen35MtpModel\']"
    }
    metadata_props {
      key: "pkg.onnxscript.name_scopes"
      value: "[\'\']"
    }
  }
  node {
    input: "inputs_embeds"
    output: "v_Shape_11"
    name: "Shape_node_11"
    op_type: "Shape"
    attribute {
      name: "end"
      i: 2
      type: INT
    }
    attribute {
      name: "start"
      i: 1
      type: INT
    }
    metadata_props {
      key: "namespace"
      value: ": Qwen35MtpModel"
    }
    metadata_props {
      key: "pkg.onnxscript.class_hierarchy"
      value: "[\'Qwen35MtpModel\']"
    }
    metadata_props {
      key: "pkg.onnxscript.name_scopes"
      value: "[\'\']"
    }
  }
  node {
    input: "attention_mask"
    output: "v_Shape_12"
    name: "Shape_node_12"
    op_type: "Shape"
    attribute {
      name: "end"
      i: 2
      type: INT
    }
    attribute {
      name: "start"
      i: 1
      type: INT
    }
    metadata_props {
      key: "namespace"
      value: ": Qwen35MtpModel"
    }
    metadata_props {
      key: "pkg.onnxscript.class_hierarchy"
      value: "[\'Qwen35MtpModel\']"
    }
    metadata_props {
      key: "pkg.onnxscript.name_scopes"
      value: "[\'\']"
    }
  }
  node {
    input: "v_Shape_12"
    input: "v_Shape_11"
    output: "v_Sub_13"
    name: "Sub_node_13"
    op_type: "Sub"
    metadata_props {
      key: "namespace"
      value: ": Qwen35MtpModel"
    }
    metadata_props {
      key: "pkg.onnxscript.class_hierarchy"
      value: "[\'Qwen35MtpModel\']"
    }
    metadata_props {
      key: "pkg.onnxscript.name_scopes"
      value: "[\'\']"
    }
  }
  node {
    input: "v_CumSum_9"
    input: "v_Sub_13"
    input: "v_Shape_12"
    input: "const_1d_2"
    output: "v_Slice_14"
    name: "Slice_node_14"
    op_type: "Slice"
    metadata_props {
      key: "namespace"
      value: ": Qwen35MtpModel"
    }
    metadata_props {
      key: "pkg.onnxscript.class_hierarchy"
      value: "[\'Qwen35MtpModel\']"
    }
    metadata_props {
      key: "pkg.onnxscript.name_scopes"
      value: "[\'\']"
    }
  }
  node {
    input: "v_Slice_14"
    input: "const_1d_3"
    output: "v_Unsqueeze_15"
    name: "Unsqueeze_node_15"
    op_type: "Unsqueeze"
    metadata_props {
      key: "namespace"
      value: ": Qwen35MtpModel"
    }
    metadata_props {
      key: "pkg.onnxscript.class_hierarchy"
      value: "[\'Qwen35MtpModel\']"
    }
    metadata_props {
      key: "pkg.onnxscript.name_scopes"
      value: "[\'\']"
    }
  }
  node {
    input: "v_Unsqueeze_15"
    input: "v_Unsqueeze_10"
    output: "v_GreaterOrEqual_16"
    name: "GreaterOrEqual_node_16"
    op_type: "GreaterOrEqual"
    metadata_props {
      key: "namespace"
      value: ": Qwen35MtpModel"
    }
    metadata_props {
      key: "pkg.onnxscript.class_hierarchy"
      value: "[\'Qwen35MtpModel\']"
    }
    metadata_props {
      key: "pkg.onnxscript.name_scopes"
      value: "[\'\']"
    }
  }
  node {
    input: "attention_mask"
    input: "const_1d_2"
    output: "v_Unsqueeze_17"
    name: "Unsqueeze_node_17"
    op_type: "Unsqueeze"
    metadata_props {
      key: "namespace"
      value: ": Qwen35MtpModel"
    }
    metadata_props {
      key: "pkg.onnxscript.class_hierarchy"
      value: "[\'Qwen35MtpModel\']"
    }
    metadata_props {
      key: "pkg.onnxscript.name_scopes"
      value: "[\'\']"
    }
  }
  node {
    input: "v_Unsqueeze_17"
    output: "v_Cast_18"
    name: "Cast_node_18"
    op_type: "Cast"
    attribute {
      name: "to"
      i: 9
      type: INT
    }
    metadata_props {
      key: "namespace"
      value: ": Qwen35MtpModel"
    }
    metadata_props {
      key: "pkg.onnxscript.class_hierarchy"
      value: "[\'Qwen35MtpModel\']"
    }
    metadata_props {
      key: "pkg.onnxscript.name_scopes"
      value: "[\'\']"
    }
  }
  node {
    input: "v_Cast_18"
    input: "v_GreaterOrEqual_16"
    output: "v_And_19"
    name: "And_node_19"
    op_type: "And"
    metadata_props {
      key: "namespace"
      value: ": Qwen35MtpModel"
    }
    metadata_props {
      key: "pkg.onnxscript.class_hierarchy"
      value: "[\'Qwen35MtpModel\']"
    }
    metadata_props {
      key: "pkg.onnxscript.name_scopes"
      value: "[\'\']"
    }
  }
  node {
    input: "v_And_19"
    input: "const_0.0_f32"
    input: "const_-3.4028234663852886e+38_f32"
    output: "v_Where_20"
    name: "Where_node_20"
    op_type: "Where"
    metadata_props {
      key: "namespace"
      value: ": Qwen35MtpModel"
    }
    metadata_props {
      key: "pkg.onnxscript.class_hierarchy"
      value: "[\'Qwen35MtpModel\']"
    }
    metadata_props {
      key: "pkg.onnxscript.name_scopes"
      value: "[\'\']"
    }
  }
  node {
    input: "v_Where_20"
    input: "const_1d_2"
    output: "v_Unsqueeze_22"
    name: "Unsqueeze_node_22"
    op_type: "Unsqueeze"
    metadata_props {
      key: "namespace"
      value: ": Qwen35MtpModel"
    }
    metadata_props {
      key: "pkg.onnxscript.class_hierarchy"
      value: "[\'Qwen35MtpModel\']"
    }
    metadata_props {
      key: "pkg.onnxscript.name_scopes"
      value: "[\'\']"
    }
  }
  node {
    input: "layers.0.input_layernorm.weight"
    input: "const_1.0_f32"
    output: "v_layers.0.input_layernorm.Add_23"
    name: "layers.0/input_layernorm/Add_node_23"
    op_type: "Add"
    metadata_props {
      key: "namespace"
      value: ": Qwen35MtpModel/layers.0: Qwen35DecoderLayer/input_layernorm: OffsetRMSNorm"
    }
    metadata_props {
      key: "pkg.onnxscript.class_hierarchy"
      value: "[\'Qwen35MtpModel\', \'Qwen35DecoderLayer\', \'OffsetRMSNorm\']"
    }
    metadata_props {
      key: "pkg.onnxscript.name_scopes"
      value: "[\'\', \'layers.0\', \'input_layernorm\']"
    }
  }
  node {
    input: "v_fc.MatMul_6"
    input: "v_layers.0.input_layernorm.Add_23"
    output: "v_layers.0.input_layernorm.RMSNormalization_24"
    name: "layers.0/input_layernorm/RMSNormalization_node_24"
    op_type: "RMSNormalization"
    attribute {
      name: "epsilon"
      f: 1e-06
      type: FLOAT
    }
    attribute {
      name: "axis"
      i: -1
      type: INT
    }
    metadata_props {
      key: "namespace"
      value: ": Qwen35MtpModel/layers.0: Qwen35DecoderLayer/input_layernorm: OffsetRMSNorm"
    }
    metadata_props {
      key: "pkg.onnxscript.class_hierarchy"
      value: "[\'Qwen35MtpModel\', \'Qwen35DecoderLayer\', \'OffsetRMSNorm\']"
    }
    metadata_props {
      key: "pkg.onnxscript.name_scopes"
      value: "[\'\', \'layers.0\', \'input_layernorm\']"
    }
  }
  node {
    input: "v_layers.0.input_layernorm.RMSNormalization_24"
    input: "layers.0.self_attn.q_proj.weight_t"
    output: "v_layers.0.self_attn.q_proj.MatMul_26"
    name: "layers.0/self_attn/q_proj/MatMul_node_26"
    op_type: "MatMul"
    metadata_props {
      key: "namespace"
      value: ": Qwen35MtpModel/layers.0: Qwen35DecoderLayer/self_attn: Qwen35Attention/q_proj: Linear"
    }
    metadata_props {
      key: "pkg.onnxscript.class_hierarchy"
      value: "[\'Qwen35MtpModel\', \'Qwen35DecoderLayer\', \'Qwen35Attention\', \'Linear\']"
    }
    metadata_props {
      key: "pkg.onnxscript.name_scopes"
      value: "[\'\', \'layers.0\', \'self_attn\', \'q_proj\']"
    }
  }
  node {
    input: "v_layers.0.self_attn.q_proj.MatMul_26"
    input: "const_1d_6_layers.0/self_attn/Reshape_node_27_materialized"
    output: "v_layers.0.self_attn.Reshape_27"
    name: "layers.0/self_attn/Reshape_node_27"
    op_type: "Reshape"
    metadata_props {
      key: "namespace"
      value: ": Qwen35MtpModel/layers.0: Qwen35DecoderLayer/self_attn: Qwen35Attention"
    }
    metadata_props {
      key: "pkg.onnxscript.class_hierarchy"
      value: "[\'Qwen35MtpModel\', \'Qwen35DecoderLayer\', \'Qwen35Attention\']"
    }
    metadata_props {
      key: "pkg.onnxscript.name_scopes"
      value: "[\'\', \'layers.0\', \'self_attn\']"
    }
  }
  node {
    input: "v_layers.0.self_attn.Reshape_27"
    output: "v_layers.0.self_attn.Split_28_0"
    output: "v_layers.0.self_attn.Split_28_1"
    name: "layers.0/self_attn/Split_node_28"
    op_type: "Split"
    attribute {
      name: "num_outputs"
      i: 2
      type: INT
    }
    attribute {
      name: "axis"
      i: -1
      type: INT
    }
    metadata_props {
      key: "namespace"
      value: ": Qwen35MtpModel/layers.0: Qwen35DecoderLayer/self_attn: Qwen35Attention"
    }
    metadata_props {
      key: "pkg.onnxscript.class_hierarchy"
      value: "[\'Qwen35MtpModel\', \'Qwen35DecoderLayer\', \'Qwen35Attention\']"
    }
    metadata_props {
      key: "pkg.onnxscript.name_scopes"
      value: "[\'\', \'layers.0\', \'self_attn\']"
    }
  }
  node {
    input: "v_layers.0.self_attn.Split_28_1"
    input: "const_1d_7_layers.0/self_attn/Reshape_node_29_materialized"
    output: "v_layers.0.self_attn.Reshape_29"
    name: "layers.0/self_attn/Reshape_node_29"
    op_type: "Reshape"
    metadata_props {
      key: "namespace"
      value: ": Qwen35MtpModel/layers.0: Qwen35DecoderLayer/self_attn: Qwen35Attention"
    }
    metadata_props {
      key: "pkg.onnxscript.class_hierarchy"
      value: "[\'Qwen35MtpModel\', \'Qwen35DecoderLayer\', \'Qwen35Attention\']"
    }
    metadata_props {
      key: "pkg.onnxscript.name_scopes"
      value: "[\'\', \'layers.0\', \'self_attn\']"
    }
  }
  node {
    input: "v_layers.0.input_layernorm.RMSNormalization_24"
    input: "layers.0.self_attn.k_proj.weight_t"
    output: "v_layers.0.self_attn.k_proj.MatMul_31"
    name: "layers.0/self_attn/k_proj/MatMul_node_31"
    op_type: "MatMul"
    metadata_props {
      key: "namespace"
      value: ": Qwen35MtpModel/layers.0: Qwen35DecoderLayer/self_attn: Qwen35Attention/k_proj: Linear"
    }
    metadata_props {
      key: "pkg.onnxscript.class_hierarchy"
      value: "[\'Qwen35MtpModel\', \'Qwen35DecoderLayer\', \'Qwen35Attention\', \'Linear\']"
    }
    metadata_props {
      key: "pkg.onnxscript.name_scopes"
      value: "[\'\', \'layers.0\', \'self_attn\', \'k_proj\']"
    }
  }
  node {
    input: "v_layers.0.input_layernorm.RMSNormalization_24"
    input: "layers.0.self_attn.v_proj.weight_t"
    output: "v_layers.0.self_attn.v_proj.MatMul_33"
    name: "layers.0/self_attn/v_proj/MatMul_node_33"
    op_type: "MatMul"
    metadata_props {
      key: "namespace"
      value: ": Qwen35MtpModel/layers.0: Qwen35DecoderLayer/self_attn: Qwen35Attention/v_proj: Linear"
    }
    metadata_props {
      key: "pkg.onnxscript.class_hierarchy"
      value: "[\'Qwen35MtpModel\', \'Qwen35DecoderLayer\', \'Qwen35Attention\', \'Linear\']"
    }
    metadata_props {
      key: "pkg.onnxscript.name_scopes"
      value: "[\'\', \'layers.0\', \'self_attn\', \'v_proj\']"
    }
  }
  node {
    input: "v_layers.0.self_attn.k_proj.MatMul_31"
    input: "const_1d_8_layers.0/self_attn/Reshape_node_34_materialized"
    output: "v_layers.0.self_attn.Reshape_34"
    name: "layers.0/self_attn/Reshape_node_34"
    op_type: "Reshape"
    metadata_props {
      key: "namespace"
      value: ": Qwen35MtpModel/layers.0: Qwen35DecoderLayer/self_attn: Qwen35Attention"
    }
    metadata_props {
      key: "pkg.onnxscript.class_hierarchy"
      value: "[\'Qwen35MtpModel\', \'Qwen35DecoderLayer\', \'Qwen35Attention\']"
    }
    metadata_props {
      key: "pkg.onnxscript.name_scopes"
      value: "[\'\', \'layers.0\', \'self_attn\']"
    }
  }
  node {
    input: "layers.0.self_attn.q_norm.weight"
    input: "const_1.0_f32"
    output: "v_layers.0.self_attn.q_norm.Add_35"
    name: "layers.0/self_attn/q_norm/Add_node_35"
    op_type: "Add"
    metadata_props {
      key: "namespace"
      value: ": Qwen35MtpModel/layers.0: Qwen35DecoderLayer/self_attn: Qwen35Attention/q_norm: OffsetRMSNorm"
    }
    metadata_props {
      key: "pkg.onnxscript.class_hierarchy"
      value: "[\'Qwen35MtpModel\', \'Qwen35DecoderLayer\', \'Qwen35Attention\', \'OffsetRMSNorm\']"
    }
    metadata_props {
      key: "pkg.onnxscript.name_scopes"
      value: "[\'\', \'layers.0\', \'self_attn\', \'q_norm\']"
    }
  }
  node {
    input: "v_layers.0.self_attn.Split_28_0"
    input: "v_layers.0.self_attn.q_norm.Add_35"
    output: "v_layers.0.self_attn.q_norm.RMSNormalization_36"
    name: "layers.0/self_attn/q_norm/RMSNormalization_node_36"
    op_type: "RMSNormalization"
    attribute {
      name: "epsilon"
      f: 1e-06
      type: FLOAT
    }
    attribute {
      name: "axis"
      i: -1
      type: INT
    }
    metadata_props {
      key: "namespace"
      value: ": Qwen35MtpModel/layers.0: Qwen35DecoderLayer/self_attn: Qwen35Attention/q_norm: OffsetRMSNorm"
    }
    metadata_props {
      key: "pkg.onnxscript.class_hierarchy"
      value: "[\'Qwen35MtpModel\', \'Qwen35DecoderLayer\', \'Qwen35Attention\', \'OffsetRMSNorm\']"
    }
    metadata_props {
      key: "pkg.onnxscript.name_scopes"
      value: "[\'\', \'layers.0\', \'self_attn\', \'q_norm\']"
    }
  }
  node {
    input: "layers.0.self_attn.k_norm.weight"
    input: "const_1.0_f32"
    output: "v_layers.0.self_attn.k_norm.Add_37"
    name: "layers.0/self_attn/k_norm/Add_node_37"
    op_type: "Add"
    metadata_props {
      key: "namespace"
      value: ": Qwen35MtpModel/layers.0: Qwen35DecoderLayer/self_attn: Qwen35Attention/k_norm: OffsetRMSNorm"
    }
    metadata_props {
      key: "pkg.onnxscript.class_hierarchy"
      value: "[\'Qwen35MtpModel\', \'Qwen35DecoderLayer\', \'Qwen35Attention\', \'OffsetRMSNorm\']"
    }
    metadata_props {
      key: "pkg.onnxscript.name_scopes"
      value: "[\'\', \'layers.0\', \'self_attn\', \'k_norm\']"
    }
  }
  node {
    input: "v_layers.0.self_attn.Reshape_34"
    input: "v_layers.0.self_attn.k_norm.Add_37"
    output: "v_layers.0.self_attn.k_norm.RMSNormalization_38"
    name: "layers.0/self_attn/k_norm/RMSNormalization_node_38"
    op_type: "RMSNormalization"
    attribute {
      name: "epsilon"
      f: 1e-06
      type: FLOAT
    }
    attribute {
      name: "axis"
      i: -1
      type: INT
    }
    metadata_props {
      key: "namespace"
      value: ": Qwen35MtpModel/layers.0: Qwen35DecoderLayer/self_attn: Qwen35Attention/k_norm: OffsetRMSNorm"
    }
    metadata_props {
      key: "pkg.onnxscript.class_hierarchy"
      value: "[\'Qwen35MtpModel\', \'Qwen35DecoderLayer\', \'Qwen35Attention\', \'OffsetRMSNorm\']"
    }
    metadata_props {
      key: "pkg.onnxscript.name_scopes"
      value: "[\'\', \'layers.0\', \'self_attn\', \'k_norm\']"
    }
  }
  node {
    input: "v_layers.0.self_attn.q_norm.RMSNormalization_36"
    input: "const_1d_7_layers.0/self_attn/Reshape_node_39_materialized"
    output: "v_layers.0.self_attn.Reshape_39"
    name: "layers.0/self_attn/Reshape_node_39"
    op_type: "Reshape"
    metadata_props {
      key: "namespace"
      value: ": Qwen35MtpModel/layers.0: Qwen35DecoderLayer/self_attn: Qwen35Attention"
    }
    metadata_props {
      key: "pkg.onnxscript.class_hierarchy"
      value: "[\'Qwen35MtpModel\', \'Qwen35DecoderLayer\', \'Qwen35Attention\']"
    }
    metadata_props {
      key: "pkg.onnxscript.name_scopes"
      value: "[\'\', \'layers.0\', \'self_attn\']"
    }
  }
  node {
    input: "v_layers.0.self_attn.k_norm.RMSNormalization_38"
    input: "const_1d_7_layers.0/self_attn/Reshape_node_40_materialized"
    output: "v_layers.0.self_attn.Reshape_40"
    name: "layers.0/self_attn/Reshape_node_40"
    op_type: "Reshape"
    metadata_props {
      key: "namespace"
      value: ": Qwen35MtpModel/layers.0: Qwen35DecoderLayer/self_attn: Qwen35Attention"
    }
    metadata_props {
      key: "pkg.onnxscript.class_hierarchy"
      value: "[\'Qwen35MtpModel\', \'Qwen35DecoderLayer\', \'Qwen35Attention\']"
    }
    metadata_props {
      key: "pkg.onnxscript.name_scopes"
      value: "[\'\', \'layers.0\', \'self_attn\']"
    }
  }
  node {
    input: "v_layers.0.self_attn.Reshape_39"
    input: "v_rotary_emb.Gather_7"
    input: "v_rotary_emb.Gather_8"
    output: "v_layers.0.self_attn.RotaryEmbedding_41"
    name: "layers.0/self_attn/RotaryEmbedding_node_41"
    op_type: "RotaryEmbedding"
    attribute {
      name: "num_heads"
      i: 2
      type: INT
    }
    attribute {
      name: "rotary_embedding_dim"
      i: 4
      type: INT
    }
    attribute {
      name: "interleaved"
      i: 0
      type: INT
    }
    metadata_props {
      key: "namespace"
      value: ": Qwen35MtpModel/layers.0: Qwen35DecoderLayer/self_attn: Qwen35Attention"
    }
    metadata_props {
      key: "pkg.onnxscript.class_hierarchy"
      value: "[\'Qwen35MtpModel\', \'Qwen35DecoderLayer\', \'Qwen35Attention\']"
    }
    metadata_props {
      key: "pkg.onnxscript.name_scopes"
      value: "[\'\', \'layers.0\', \'self_attn\']"
    }
  }
  node {
    input: "v_layers.0.self_attn.Reshape_40"
    input: "v_rotary_emb.Gather_7"
    input: "v_rotary_emb.Gather_8"
    output: "v_layers.0.self_attn.RotaryEmbedding_42"
    name: "layers.0/self_attn/RotaryEmbedding_node_42"
    op_type: "RotaryEmbedding"
    attribute {
      name: "num_heads"
      i: 1
      type: INT
    }
    attribute {
      name: "rotary_embedding_dim"
      i: 4
      type: INT
    }
    attribute {
      name: "interleaved"
      i: 0
      type: INT
    }
    metadata_props {
      key: "namespace"
      value: ": Qwen35MtpModel/layers.0: Qwen35DecoderLayer/self_attn: Qwen35Attention"
    }
    metadata_props {
      key: "pkg.onnxscript.class_hierarchy"
      value: "[\'Qwen35MtpModel\', \'Qwen35DecoderLayer\', \'Qwen35Attention\']"
    }
    metadata_props {
      key: "pkg.onnxscript.name_scopes"
      value: "[\'\', \'layers.0\', \'self_attn\']"
    }
  }
  node {
    input: "v_layers.0.self_attn.RotaryEmbedding_41"
    input: "v_layers.0.self_attn.RotaryEmbedding_42"
    input: "v_layers.0.self_attn.v_proj.MatMul_33"
    input: "v_Unsqueeze_22"
    input: "past_key_values.0.key"
    input: "past_key_values.0.value"
    output: "v_layers.0.self_attn.Attention_43_0"
    output: "present.0.key"
    output: "present.0.value"
    name: "layers.0/self_attn/Attention_node_43"
    op_type: "Attention"
    attribute {
      name: "is_causal"
      i: 1
      type: INT
    }
    attribute {
      name: "kv_num_heads"
      i: 1
      type: INT
    }
    attribute {
      name: "q_num_heads"
      i: 2
      type: INT
    }
    attribute {
      name: "softcap"
      f: 0.0
      type: FLOAT
    }
    attribute {
      name: "scale"
      f: 0.35355338
      type: FLOAT
    }
    metadata_props {
      key: "namespace"
      value: ": Qwen35MtpModel/layers.0: Qwen35DecoderLayer/self_attn: Qwen35Attention"
    }
    metadata_props {
      key: "pkg.onnxscript.class_hierarchy"
      value: "[\'Qwen35MtpModel\', \'Qwen35DecoderLayer\', \'Qwen35Attention\']"
    }
    metadata_props {
      key: "pkg.onnxscript.name_scopes"
      value: "[\'\', \'layers.0\', \'self_attn\']"
    }
  }
  node {
    input: "v_layers.0.self_attn.Reshape_29"
    output: "v_layers.0.self_attn.Sigmoid_44"
    name: "layers.0/self_attn/Sigmoid_node_44"
    op_type: "Sigmoid"
    metadata_props {
      key: "namespace"
      value: ": Qwen35MtpModel/layers.0: Qwen35DecoderLayer/self_attn: Qwen35Attention"
    }
    metadata_props {
      key: "pkg.onnxscript.class_hierarchy"
      value: "[\'Qwen35MtpModel\', \'Qwen35DecoderLayer\', \'Qwen35Attention\']"
    }
    metadata_props {
      key: "pkg.onnxscript.name_scopes"
      value: "[\'\', \'layers.0\', \'self_attn\']"
    }
  }
  node {
    input: "v_layers.0.self_attn.Attention_43_0"
    input: "v_layers.0.self_attn.Sigmoid_44"
    output: "v_layers.0.self_attn.Mul_45"
    name: "layers.0/self_attn/Mul_node_45"
    op_type: "Mul"
    metadata_props {
      key: "namespace"
      value: ": Qwen35MtpModel/layers.0: Qwen35DecoderLayer/self_attn: Qwen35Attention"
    }
    metadata_props {
      key: "pkg.onnxscript.class_hierarchy"
      value: "[\'Qwen35MtpModel\', \'Qwen35DecoderLayer\', \'Qwen35Attention\']"
    }
    metadata_props {
      key: "pkg.onnxscript.name_scopes"
      value: "[\'\', \'layers.0\', \'self_attn\']"
    }
  }
  node {
    input: "v_layers.0.self_attn.Mul_45"
    input: "layers.0.self_attn.o_proj.weight_t"
    output: "v_layers.0.self_attn.o_proj.MatMul_47"
    name: "layers.0/self_attn/o_proj/MatMul_node_47"
    op_type: "MatMul"
    metadata_props {
      key: "namespace"
      value: ": Qwen35MtpModel/layers.0: Qwen35DecoderLayer/self_attn: Qwen35Attention/o_proj: Linear"
    }
    metadata_props {
      key: "pkg.onnxscript.class_hierarchy"
      value: "[\'Qwen35MtpModel\', \'Qwen35DecoderLayer\', \'Qwen35Attention\', \'Linear\']"
    }
    metadata_props {
      key: "pkg.onnxscript.name_scopes"
      value: "[\'\', \'layers.0\', \'self_attn\', \'o_proj\']"
    }
  }
  node {
    input: "layers.0.post_attention_layernorm.weight"
    input: "const_1.0_f32"
    output: "v_layers.0.post_attention_layernorm.Add_49"
    name: "layers.0/post_attention_layernorm/Add_node_49"
    op_type: "Add"
    metadata_props {
      key: "namespace"
      value: ": Qwen35MtpModel/layers.0: Qwen35DecoderLayer/post_attention_layernorm: OffsetRMSNorm"
    }
    metadata_props {
      key: "pkg.onnxscript.class_hierarchy"
      value: "[\'Qwen35MtpModel\', \'Qwen35DecoderLayer\', \'OffsetRMSNorm\']"
    }
    metadata_props {
      key: "pkg.onnxscript.name_scopes"
      value: "[\'\', \'layers.0\', \'post_attention_layernorm\']"
    }
  }
  node {
    input: "v_fc.MatMul_6"
    input: "v_layers.0.self_attn.o_proj.MatMul_47"
    input: "v_layers.0.post_attention_layernorm.Add_49"
    output: "v_layers.0.post_attention_layernorm.RMSNormalization_50"
    output: "val_0"
    output: "val_1"
    output: "val_2"
    name: "node_SkipSimplifiedLayerNormalization_1"
    op_type: "SkipSimplifiedLayerNormalization"
    attribute {
      name: "epsilon"
      f: 1e-06
      type: FLOAT
    }
    domain: "com.microsoft"
    metadata_props {
      key: "namespace"
      value: ": Qwen35MtpModel/layers.0: Qwen35DecoderLayer/post_attention_layernorm: OffsetRMSNorm"
    }
    metadata_props {
      key: "pkg.onnxscript.class_hierarchy"
      value: "[\'Qwen35MtpModel\', \'Qwen35DecoderLayer\', \'OffsetRMSNorm\']"
    }
    metadata_props {
      key: "pkg.onnxscript.name_scopes"
      value: "[\'\', \'layers.0\', \'post_attention_layernorm\']"
    }
    metadata_props {
      key: "pkg.onnxscript.rewriter.rule_name"
      value: "AddRMSNormToSkipNorm"
    }
  }
  node {
    input: "v_layers.0.post_attention_layernorm.RMSNormalization_50"
    input: "layers.0.mlp.gate_proj.weight_t"
    output: "v_layers.0.mlp.gate_proj.MatMul_52"
    name: "layers.0/mlp/gate_proj/MatMul_node_52"
    op_type: "MatMul"
    metadata_props {
      key: "namespace"
      value: ": Qwen35MtpModel/layers.0: Qwen35DecoderLayer/mlp: MLP/gate_proj: Linear"
    }
    metadata_props {
      key: "pkg.onnxscript.class_hierarchy"
      value: "[\'Qwen35MtpModel\', \'Qwen35DecoderLayer\', \'MLP\', \'Linear\']"
    }
    metadata_props {
      key: "pkg.onnxscript.name_scopes"
      value: "[\'\', \'layers.0\', \'mlp\', \'gate_proj\']"
    }
  }
  node {
    input: "v_layers.0.mlp.gate_proj.MatMul_52"
    output: "v_layers.0.mlp.Sigmoid_53"
    name: "layers.0/mlp/Sigmoid_node_53"
    op_type: "Sigmoid"
    metadata_props {
      key: "namespace"
      value: ": Qwen35MtpModel/layers.0: Qwen35DecoderLayer/mlp: MLP"
    }
    metadata_props {
      key: "pkg.onnxscript.class_hierarchy"
      value: "[\'Qwen35MtpModel\', \'Qwen35DecoderLayer\', \'MLP\']"
    }
    metadata_props {
      key: "pkg.onnxscript.name_scopes"
      value: "[\'\', \'layers.0\', \'mlp\']"
    }
  }
  node {
    input: "v_layers.0.mlp.gate_proj.MatMul_52"
    input: "v_layers.0.mlp.Sigmoid_53"
    output: "v_layers.0.mlp.Mul_54"
    name: "layers.0/mlp/Mul_node_54"
    op_type: "Mul"
    metadata_props {
      key: "namespace"
      value: ": Qwen35MtpModel/layers.0: Qwen35DecoderLayer/mlp: MLP"
    }
    metadata_props {
      key: "pkg.onnxscript.class_hierarchy"
      value: "[\'Qwen35MtpModel\', \'Qwen35DecoderLayer\', \'MLP\']"
    }
    metadata_props {
      key: "pkg.onnxscript.name_scopes"
      value: "[\'\', \'layers.0\', \'mlp\']"
    }
  }
  node {
    input: "v_layers.0.post_attention_layernorm.RMSNormalization_50"
    input: "layers.0.mlp.up_proj.weight_t"
    output: "v_layers.0.mlp.up_proj.MatMul_56"
    name: "layers.0/mlp/up_proj/MatMul_node_56"
    op_type: "MatMul"
    metadata_props {
      key: "namespace"
      value: ": Qwen35MtpModel/layers.0: Qwen35DecoderLayer/mlp: MLP/up_proj: Linear"
    }
    metadata_props {
      key: "pkg.onnxscript.class_hierarchy"
      value: "[\'Qwen35MtpModel\', \'Qwen35DecoderLayer\', \'MLP\', \'Linear\']"
    }
    metadata_props {
      key: "pkg.onnxscript.name_scopes"
      value: "[\'\', \'layers.0\', \'mlp\', \'up_proj\']"
    }
  }
  node {
    input: "v_layers.0.mlp.Mul_54"
    input: "v_layers.0.mlp.up_proj.MatMul_56"
    output: "v_layers.0.mlp.Mul_57"
    name: "layers.0/mlp/Mul_node_57"
    op_type: "Mul"
    metadata_props {
      key: "namespace"
      value: ": Qwen35MtpModel/layers.0: Qwen35DecoderLayer/mlp: MLP"
    }
    metadata_props {
      key: "pkg.onnxscript.class_hierarchy"
      value: "[\'Qwen35MtpModel\', \'Qwen35DecoderLayer\', \'MLP\']"
    }
    metadata_props {
      key: "pkg.onnxscript.name_scopes"
      value: "[\'\', \'layers.0\', \'mlp\']"
    }
  }
  node {
    input: "v_layers.0.mlp.Mul_57"
    input: "layers.0.mlp.down_proj.weight_t"
    output: "v_layers.0.mlp.down_proj.MatMul_59"
    name: "layers.0/mlp/down_proj/MatMul_node_59"
    op_type: "MatMul"
    metadata_props {
      key: "namespace"
      value: ": Qwen35MtpModel/layers.0: Qwen35DecoderLayer/mlp: MLP/down_proj: Linear"
    }
    metadata_props {
      key: "pkg.onnxscript.class_hierarchy"
      value: "[\'Qwen35MtpModel\', \'Qwen35DecoderLayer\', \'MLP\', \'Linear\']"
    }
    metadata_props {
      key: "pkg.onnxscript.name_scopes"
      value: "[\'\', \'layers.0\', \'mlp\', \'down_proj\']"
    }
  }
  node {
    input: "norm.weight"
    input: "const_1.0_f32"
    output: "v_norm.Add_61"
    name: "norm/Add_node_61"
    op_type: "Add"
    metadata_props {
      key: "namespace"
      value: ": Qwen35MtpModel/norm: OffsetRMSNorm"
    }
    metadata_props {
      key: "pkg.onnxscript.class_hierarchy"
      value: "[\'Qwen35MtpModel\', \'OffsetRMSNorm\']"
    }
    metadata_props {
      key: "pkg.onnxscript.name_scopes"
      value: "[\'\', \'norm\']"
    }
  }
  node {
    input: "val_2"
    input: "v_layers.0.mlp.down_proj.MatMul_59"
    input: "v_norm.Add_61"
    output: "mtp_hidden"
    output: "val_3"
    output: "val_4"
    output: "val_5"
    name: "node_SkipSimplifiedLayerNormalization_2"
    op_type: "SkipSimplifiedLayerNormalization"
    attribute {
      name: "epsilon"
      f: 1e-06
      type: FLOAT
    }
    domain: "com.microsoft"
    metadata_props {
      key: "namespace"
      value: ": Qwen35MtpModel/norm: OffsetRMSNorm"
    }
    metadata_props {
      key: "pkg.onnxscript.class_hierarchy"
      value: "[\'Qwen35MtpModel\', \'OffsetRMSNorm\']"
    }
    metadata_props {
      key: "pkg.onnxscript.name_scopes"
      value: "[\'\', \'norm\']"
    }
    metadata_props {
      key: "pkg.onnxscript.rewriter.rule_name"
      value: "AddRMSNormToSkipNorm"
    }
  }
  name: "main_graph"
  initializer {
    dims: 16
    data_type: 1
    name: "pre_fc_norm_embedding.weight"
    raw_data: "…"
  }
  initializer {
    data_type: 1
    name: "const_1.0_f32"
    raw_data: "I\325K<"
  }
  initializer {
    dims: 16
    data_type: 1
    name: "pre_fc_norm_hidden.weight"
    raw_data: "…"
  }
  initializer {
    dims: 16
    dims: 2
    data_type: 1
    name: "rotary_emb.cos_cache"
    raw_data: "…"
  }
  initializer {
    dims: 16
    dims: 2
    data_type: 1
    name: "rotary_emb.sin_cache"
    raw_data: "…"
  }
  initializer {
    data_type: 7
    name: "const_1_i64"
    raw_data: "\000\000\000\000\000\000\000\000"
  }
  initializer {
    dims: 1
    data_type: 7
    name: "const_1d_2"
    raw_data: "\000\000\000\000\000\000\000\000"
  }
  initializer {
    dims: 1
    data_type: 7
    name: "const_1d_3"
    raw_data: "\000\000\000\000\000\000\000\000"
  }
  initializer {
    data_type: 1
    name: "const_0.0_f32"
    raw_data: "\010H\020\275"
  }
  initializer {
    data_type: 1
    name: "const_-3.4028234663852886e+38_f32"
    raw_data: "~}\256<"
  }
  initializer {
    dims: 16
    data_type: 1
    name: "layers.0.input_layernorm.weight"
    raw_data: "…"
  }
  initializer {
    dims: 4
    data_type: 7
    name: "const_1d_6"
    raw_data: "…"
  }
  initializer {
    dims: 3
    data_type: 7
    name: "const_1d_7"
    raw_data: "\000\000\000\000\000\000\000\000\000\000\000\000\000\000\000\000\000\000\000\000\000\000\000\000"
  }
  initializer {
    dims: 4
    data_type: 7
    name: "const_1d_8"
    raw_data: "…"
  }
  initializer {
    dims: 8
    data_type: 1
    name: "layers.0.self_attn.q_norm.weight"
    raw_data: "…"
  }
  initializer {
    dims: 8
    data_type: 1
    name: "layers.0.self_attn.k_norm.weight"
    raw_data: "…"
  }
  initializer {
    dims: 16
    data_type: 1
    name: "layers.0.post_attention_layernorm.weight"
    raw_data: "…"
  }
  initializer {
    dims: 16
    data_type: 1
    name: "norm.weight"
    raw_data: "…"
  }
  initializer {
    dims: 32
    dims: 16
    data_type: 1
    name: "fc.weight_t"
    raw_data: "…"
  }
  initializer {
    dims: 16
    dims: 32
    data_type: 1
    name: "layers.0.self_attn.q_proj.weight_t"
    raw_data: "…"
  }
  initializer {
    dims: 16
    dims: 8
    data_type: 1
    name: "layers.0.self_attn.k_proj.weight_t"
    raw_data: "…"
  }
  initializer {
    dims: 16
    dims: 8
    data_type: 1
    name: "layers.0.self_attn.v_proj.weight_t"
    raw_data: "…"
  }
  initializer {
    dims: 16
    dims: 16
    data_type: 1
    name: "layers.0.self_attn.o_proj.weight_t"
    raw_data: "…"
  }
  initializer {
    dims: 16
    dims: 32
    data_type: 1
    name: "layers.0.mlp.gate_proj.weight_t"
    raw_data: "…"
  }
  initializer {
    dims: 16
    dims: 32
    data_type: 1
    name: "layers.0.mlp.up_proj.weight_t"
    raw_data: "…"
  }
  initializer {
    dims: 32
    dims: 16
    data_type: 1
    name: "layers.0.mlp.down_proj.weight_t"
    raw_data: "…"
  }
  initializer {
    dims: 4
    data_type: 7
    name: "const_1d_6_layers.0/self_attn/Reshape_node_27_materialized"
    raw_data: "…"
  }
  initializer {
    dims: 3
    data_type: 7
    name: "const_1d_7_layers.0/self_attn/Reshape_node_29_materialized"
    raw_data: "\000\000\000\000\000\000\000\000\000\000\000\000\000\000\000\000\020\000\000\000\000\000\000\000"
  }
  initializer {
    dims: 4
    data_type: 7
    name: "const_1d_8_layers.0/self_attn/Reshape_node_34_materialized"
    raw_data: "…"
  }
  initializer {
    dims: 3
    data_type: 7
    name: "const_1d_7_layers.0/self_attn/Reshape_node_39_materialized"
    raw_data: "\000\000\000\000\000\000\000\000\000\000\000\000\000\000\000\000\020\000\000\000\000\000\000\000"
  }
  initializer {
    dims: 3
    data_type: 7
    name: "const_1d_7_layers.0/self_attn/Reshape_node_40_materialized"
    raw_data: "\000\000\000\000\000\000\000\000\000\000\000\000\000\000\000\000\010\000\000\000\000\000\000\000"
  }
  input {
    name: "inputs_embeds"
    type {
      tensor_type {
        elem_type: 1
        shape {
          dim {
            dim_param: "batch"
          }
          dim {
            dim_param: "sequence_len"
          }
          dim {
            dim_value: 16
          }
        }
      }
    }
  }
  input {
    name: "hidden_states"
    type {
      tensor_type {
        elem_type: 1
        shape {
          dim {
            dim_param: "batch"
          }
          dim {
            dim_param: "sequence_len"
          }
          dim {
            dim_value: 16
          }
        }
      }
    }
  }
  input {
    name: "attention_mask"
    type {
      tensor_type {
        elem_type: 7
        shape {
          dim {
            dim_param: "batch"
          }
          dim {
            dim_param: "past_seq_len + seq_len"
          }
        }
      }
    }
  }
  input {
    name: "position_ids"
    type {
      tensor_type {
        elem_type: 7
        shape {
          dim {
            dim_param: "batch"
          }
          dim {
            dim_param: "sequence_len"
          }
        }
      }
    }
  }
  input {
    name: "past_key_values.0.key"
    type {
      tensor_type {
        elem_type: 1
        shape {
          dim {
            dim_param: "batch"
          }
          dim {
            dim_value: 1
          }
          dim {
            dim_param: "past_sequence_len"
          }
          dim {
            dim_value: 8
          }
        }
      }
    }
  }
  input {
    name: "past_key_values.0.value"
    type {
      tensor_type {
        elem_type: 1
        shape {
          dim {
            dim_param: "batch"
          }
          dim {
            dim_value: 1
          }
          dim {
            dim_param: "past_sequence_len"
          }
          dim {
            dim_value: 8
          }
        }
      }
    }
  }
  output {
    name: "mtp_hidden"
    type {
      tensor_type {
        elem_type: 1
        shape {
          dim {
            dim_param: "batch"
          }
          dim {
            dim_param: "sequence_len"
          }
          dim {
            dim_value: 16
          }
        }
      }
    }
  }
  output {
    name: "present.0.key"
    type {
      tensor_type {
        elem_type: 1
        shape {
          dim {
            dim_param: "batch"
          }
          dim {
            dim_value: 1
          }
          dim {
            dim_param: "past_sequence_len + sequence_len"
          }
          dim {
            dim_value: 8
          }
        }
      }
    }
  }
  output {
    name: "present.0.value"
    type {
      tensor_type {
        elem_type: 1
        shape {
          dim {
            dim_param: "batch"
          }
          dim {
            dim_value: 1
          }
          dim {
            dim_param: "past_sequence_len + sequence_len"
          }
          dim {
            dim_value: 8
          }
        }
      }
    }
  }
  value_info {
    name: "pre_fc_norm_embedding.weight"
    type {
      tensor_type {
        elem_type: 1
        shape {
          dim {
            dim_value: 16
          }
        }
      }
    }
  }
  value_info {
    name: "const_1.0_f32"
    type {
      tensor_type {
        elem_type: 1
        shape {
        }
      }
    }
  }
  value_info {
    name: "pre_fc_norm_hidden.weight"
    type {
      tensor_type {
        elem_type: 1
        shape {
          dim {
            dim_value: 16
          }
        }
      }
    }
  }
  value_info {
    name: "rotary_emb.cos_cache"
    type {
      tensor_type {
        elem_type: 1
        shape {
          dim {
            dim_value: 16
          }
          dim {
            dim_value: 2
          }
        }
      }
    }
  }
  value_info {
    name: "rotary_emb.sin_cache"
    type {
      tensor_type {
        elem_type: 1
        shape {
          dim {
            dim_value: 16
          }
          dim {
            dim_value: 2
          }
        }
      }
    }
  }
  value_info {
    name: "const_1_i64"
    type {
      tensor_type {
        elem_type: 7
        shape {
        }
      }
    }
  }
  value_info {
    name: "const_1d_2"
    type {
      tensor_type {
        elem_type: 7
        shape {
          dim {
            dim_value: 1
          }
        }
      }
    }
  }
  value_info {
    name: "const_1d_3"
    type {
      tensor_type {
        elem_type: 7
        shape {
          dim {
            dim_value: 1
          }
        }
      }
    }
  }
  value_info {
    name: "const_0.0_f32"
    type {
      tensor_type {
        elem_type: 1
        shape {
        }
      }
    }
  }
  value_info {
    name: "const_-3.4028234663852886e+38_f32"
    type {
      tensor_type {
        elem_type: 1
        shape {
        }
      }
    }
  }
  value_info {
    name: "layers.0.input_layernorm.weight"
    type {
      tensor_type {
        elem_type: 1
        shape {
          dim {
            dim_value: 16
          }
        }
      }
    }
  }
  value_info {
    name: "const_1d_6"
    type {
      tensor_type {
        elem_type: 7
        shape {
          dim {
            dim_value: 4
          }
        }
      }
    }
  }
  value_info {
    name: "const_1d_7"
    type {
      tensor_type {
        elem_type: 7
        shape {
          dim {
            dim_value: 3
          }
        }
      }
    }
  }
  value_info {
    name: "const_1d_8"
    type {
      tensor_type {
        elem_type: 7
        shape {
          dim {
            dim_value: 4
          }
        }
      }
    }
  }
  value_info {
    name: "layers.0.self_attn.q_norm.weight"
    type {
      tensor_type {
        elem_type: 1
        shape {
          dim {
            dim_value: 8
          }
        }
      }
    }
  }
  value_info {
    name: "layers.0.self_attn.k_norm.weight"
    type {
      tensor_type {
        elem_type: 1
        shape {
          dim {
            dim_value: 8
          }
        }
      }
    }
  }
  value_info {
    name: "layers.0.post_attention_layernorm.weight"
    type {
      tensor_type {
        elem_type: 1
        shape {
          dim {
            dim_value: 16
          }
        }
      }
    }
  }
  value_info {
    name: "norm.weight"
    type {
      tensor_type {
        elem_type: 1
        shape {
          dim {
            dim_value: 16
          }
        }
      }
    }
  }
  value_info {
    name: "fc.weight_t"
    type {
      tensor_type {
        elem_type: 1
        shape {
          dim {
            dim_value: 32
          }
          dim {
            dim_value: 16
          }
        }
      }
    }
  }
  value_info {
    name: "layers.0.self_attn.q_proj.weight_t"
    type {
      tensor_type {
        elem_type: 1
        shape {
          dim {
            dim_value: 16
          }
          dim {
            dim_value: 32
          }
        }
      }
    }
  }
  value_info {
    name: "layers.0.self_attn.k_proj.weight_t"
    type {
      tensor_type {
        elem_type: 1
        shape {
          dim {
            dim_value: 16
          }
          dim {
            dim_value: 8
          }
        }
      }
    }
  }
  value_info {
    name: "layers.0.self_attn.v_proj.weight_t"
    type {
      tensor_type {
        elem_type: 1
        shape {
          dim {
            dim_value: 16
          }
          dim {
            dim_value: 8
          }
        }
      }
    }
  }
  value_info {
    name: "layers.0.self_attn.o_proj.weight_t"
    type {
      tensor_type {
        elem_type: 1
        shape {
          dim {
            dim_value: 16
          }
          dim {
            dim_value: 16
          }
        }
      }
    }
  }
  value_info {
    name: "layers.0.mlp.gate_proj.weight_t"
    type {
      tensor_type {
        elem_type: 1
        shape {
          dim {
            dim_value: 16
          }
          dim {
            dim_value: 32
          }
        }
      }
    }
  }
  value_info {
    name: "layers.0.mlp.up_proj.weight_t"
    type {
      tensor_type {
        elem_type: 1
        shape {
          dim {
            dim_value: 16
          }
          dim {
            dim_value: 32
          }
        }
      }
    }
  }
  value_info {
    name: "layers.0.mlp.down_proj.weight_t"
    type {
      tensor_type {
        elem_type: 1
        shape {
          dim {
            dim_value: 32
          }
          dim {
            dim_value: 16
          }
        }
      }
    }
  }
  value_info {
    name: "const_1d_6_layers.0/self_attn/Reshape_node_27_materialized"
    type {
      tensor_type {
        elem_type: 7
        shape {
          dim {
            dim_value: 4
          }
        }
      }
    }
  }
  value_info {
    name: "const_1d_7_layers.0/self_attn/Reshape_node_29_materialized"
    type {
      tensor_type {
        elem_type: 7
        shape {
          dim {
            dim_value: 3
          }
        }
      }
    }
  }
  value_info {
    name: "const_1d_8_layers.0/self_attn/Reshape_node_34_materialized"
    type {
      tensor_type {
        elem_type: 7
        shape {
          dim {
            dim_value: 4
          }
        }
      }
    }
  }
  value_info {
    name: "const_1d_7_layers.0/self_attn/Reshape_node_39_materialized"
    type {
      tensor_type {
        elem_type: 7
        shape {
          dim {
            dim_value: 3
          }
        }
      }
    }
  }
  value_info {
    name: "const_1d_7_layers.0/self_attn/Reshape_node_40_materialized"
    type {
      tensor_type {
        elem_type: 7
        shape {
          dim {
            dim_value: 3
          }
        }
      }
    }
  }
  value_info {
    name: "v_pre_fc_norm_embedding.Add_0"
    type {
      tensor_type {
        elem_type: 1
        shape {
          dim {
            dim_value: 16
          }
        }
      }
    }
  }
  value_info {
    name: "v_pre_fc_norm_embedding.RMSNormalization_1"
    type {
      tensor_type {
        elem_type: 1
        shape {
          dim {
            dim_param: "batch"
          }
          dim {
            dim_param: "sequence_len"
          }
          dim {
            dim_value: 16
          }
        }
      }
    }
  }
  value_info {
    name: "v_pre_fc_norm_hidden.Add_2"
    type {
      tensor_type {
        elem_type: 1
        shape {
          dim {
            dim_value: 16
          }
        }
      }
    }
  }
  value_info {
    name: "v_pre_fc_norm_hidden.RMSNormalization_3"
    type {
      tensor_type {
        elem_type: 1
        shape {
          dim {
            dim_param: "batch"
          }
          dim {
            dim_param: "sequence_len"
          }
          dim {
            dim_value: 16
          }
        }
      }
    }
  }
  value_info {
    name: "v_Concat_4"
    type {
      tensor_type {
        elem_type: 1
        shape {
          dim {
            dim_param: "batch"
          }
          dim {
            dim_param: "sequence_len"
          }
          dim {
            dim_value: 32
          }
        }
      }
    }
  }
  value_info {
    name: "v_fc.MatMul_6"
    type {
      tensor_type {
        elem_type: 1
        shape {
          dim {
            dim_param: "batch"
          }
          dim {
            dim_param: "sequence_len"
          }
          dim {
            dim_value: 16
          }
        }
      }
    }
  }
  value_info {
    name: "v_rotary_emb.Gather_7"
    type {
      tensor_type {
        elem_type: 1
        shape {
          dim {
            dim_param: "batch"
          }
          dim {
            dim_param: "sequence_len"
          }
          dim {
            dim_value: 2
          }
        }
      }
    }
  }
  value_info {
    name: "v_rotary_emb.Gather_8"
    type {
      tensor_type {
        elem_type: 1
        shape {
          dim {
            dim_param: "batch"
          }
          dim {
            dim_param: "sequence_len"
          }
          dim {
            dim_value: 2
          }
        }
      }
    }
  }
  value_info {
    name: "v_CumSum_9"
    type {
      tensor_type {
        elem_type: 7
        shape {
          dim {
            dim_param: "batch"
          }
          dim {
            dim_param: "past_seq_len + seq_len"
          }
        }
      }
    }
  }
  value_info {
    name: "v_Unsqueeze_10"
    type {
      tensor_type {
        elem_type: 7
        shape {
          dim {
            dim_param: "batch"
          }
          dim {
            dim_value: 1
          }
          dim {
            dim_param: "past_seq_len + seq_len"
          }
        }
      }
    }
  }
  value_info {
    name: "v_Shape_11"
    type {
      tensor_type {
        elem_type: 7
        shape {
          dim {
            dim_value: 1
          }
        }
      }
    }
    metadata_props {
      key: "pkg.onnx_shape_inference.sym_data"
      value: "[\"sequence_len\"]"
    }
  }
  value_info {
    name: "v_Shape_12"
    type {
      tensor_type {
        elem_type: 7
        shape {
          dim {
            dim_value: 1
          }
        }
      }
    }
    metadata_props {
      key: "pkg.onnx_shape_inference.sym_data"
      value: "[\"past_seq_len + seq_len\"]"
    }
  }
  value_info {
    name: "v_Sub_13"
    type {
      tensor_type {
        elem_type: 7
        shape {
          dim {
            dim_value: 1
          }
        }
      }
    }
    metadata_props {
      key: "pkg.onnx_shape_inference.sym_data"
      value: "[\"past_seq_len + seq_len - sequence_len\"]"
    }
  }
  value_info {
    name: "v_Slice_14"
    type {
      tensor_type {
        elem_type: 7
        shape {
          dim {
            dim_param: "_d0"
          }
          dim {
            dim_param: "_d1"
          }
        }
      }
    }
  }
  value_info {
    name: "v_Unsqueeze_15"
    type {
      tensor_type {
        elem_type: 7
        shape {
          dim {
            dim_param: "_d0"
          }
          dim {
            dim_param: "_d1"
          }
          dim {
            dim_value: 1
          }
        }
      }
    }
  }
  value_info {
    name: "v_GreaterOrEqual_16"
    type {
      tensor_type {
        elem_type: 9
        shape {
          dim {
            dim_param: "_d0"
          }
          dim {
            dim_param: "_d1"
          }
          dim {
            dim_param: "past_seq_len + seq_len"
          }
        }
      }
    }
  }
  value_info {
    name: "v_Unsqueeze_17"
    type {
      tensor_type {
        elem_type: 7
        shape {
          dim {
            dim_param: "batch"
          }
          dim {
            dim_value: 1
          }
          dim {
            dim_param: "past_seq_len + seq_len"
          }
        }
      }
    }
  }
  value_info {
    name: "v_Cast_18"
    type {
      tensor_type {
        elem_type: 9
        shape {
          dim {
            dim_param: "batch"
          }
          dim {
            dim_value: 1
          }
          dim {
            dim_param: "past_seq_len + seq_len"
          }
        }
      }
    }
  }
  value_info {
    name: "v_And_19"
    type {
      tensor_type {
        elem_type: 9
        shape {
          dim {
            dim_param: "batch"
          }
          dim {
            dim_param: "_d1"
          }
          dim {
            dim_param: "past_seq_len + seq_len"
          }
        }
      }
    }
  }
  value_info {
    name: "v_Where_20"
    type {
      tensor_type {
        elem_type: 1
        shape {
          dim {
            dim_param: "batch"
          }
          dim {
            dim_param: "_d1"
          }
          dim {
            dim_param: "past_seq_len + seq_len"
          }
        }
      }
    }
  }
  value_info {
    name: "v_Unsqueeze_22"
    type {
      tensor_type {
        elem_type: 1
        shape {
          dim {
            dim_param: "batch"
          }
          dim {
            dim_value: 1
          }
          dim {
            dim_param: "_d1"
          }
          dim {
            dim_param: "past_seq_len + seq_len"
          }
        }
      }
    }
  }
  value_info {
    name: "v_layers.0.input_layernorm.Add_23"
    type {
      tensor_type {
        elem_type: 1
        shape {
          dim {
            dim_value: 16
          }
        }
      }
    }
  }
  value_info {
    name: "v_layers.0.input_layernorm.RMSNormalization_24"
    type {
      tensor_type {
        elem_type: 1
        shape {
          dim {
            dim_param: "batch"
          }
          dim {
            dim_param: "sequence_len"
          }
          dim {
            dim_value: 16
          }
        }
      }
    }
  }
  value_info {
    name: "v_layers.0.self_attn.q_proj.MatMul_26"
    type {
      tensor_type {
        elem_type: 1
        shape {
          dim {
            dim_param: "batch"
          }
          dim {
            dim_param: "sequence_len"
          }
          dim {
            dim_value: 32
          }
        }
      }
    }
  }
  value_info {
    name: "v_layers.0.self_attn.Reshape_27"
    type {
      tensor_type {
        elem_type: 1
        shape {
          dim {
            dim_param: "batch"
          }
          dim {
            dim_param: "sequence_len"
          }
          dim {
            dim_value: 2
          }
          dim {
            dim_value: 16
          }
        }
      }
    }
  }
  value_info {
    name: "v_layers.0.self_attn.Split_28_0"
    type {
      tensor_type {
        elem_type: 1
        shape {
          dim {
            dim_param: "batch"
          }
          dim {
            dim_param: "sequence_len"
          }
          dim {
            dim_value: 2
          }
          dim {
            dim_value: 8
          }
        }
      }
    }
  }
  value_info {
    name: "v_layers.0.self_attn.Split_28_1"
    type {
      tensor_type {
        elem_type: 1
        shape {
          dim {
            dim_param: "batch"
          }
          dim {
            dim_param: "sequence_len"
          }
          dim {
            dim_value: 2
          }
          dim {
            dim_value: 8
          }
        }
      }
    }
  }
  value_info {
    name: "v_layers.0.self_attn.Reshape_29"
    type {
      tensor_type {
        elem_type: 1
        shape {
          dim {
            dim_param: "batch"
          }
          dim {
            dim_param: "sequence_len"
          }
          dim {
            dim_value: 16
          }
        }
      }
    }
  }
  value_info {
    name: "v_layers.0.self_attn.k_proj.MatMul_31"
    type {
      tensor_type {
        elem_type: 1
        shape {
          dim {
            dim_param: "batch"
          }
          dim {
            dim_param: "sequence_len"
          }
          dim {
            dim_value: 8
          }
        }
      }
    }
  }
  value_info {
    name: "v_layers.0.self_attn.v_proj.MatMul_33"
    type {
      tensor_type {
        elem_type: 1
        shape {
          dim {
            dim_param: "batch"
          }
          dim {
            dim_param: "sequence_len"
          }
          dim {
            dim_value: 8
          }
        }
      }
    }
  }
  value_info {
    name: "v_layers.0.self_attn.Reshape_34"
    type {
      tensor_type {
        elem_type: 1
        shape {
          dim {
            dim_param: "batch"
          }
          dim {
            dim_param: "sequence_len"
          }
          dim {
            dim_value: 1
          }
          dim {
            dim_value: 8
          }
        }
      }
    }
  }
  value_info {
    name: "v_layers.0.self_attn.q_norm.Add_35"
    type {
      tensor_type {
        elem_type: 1
        shape {
          dim {
            dim_value: 8
          }
        }
      }
    }
  }
  value_info {
    name: "v_layers.0.self_attn.q_norm.RMSNormalization_36"
    type {
      tensor_type {
        elem_type: 1
        shape {
          dim {
            dim_param: "batch"
          }
          dim {
            dim_param: "sequence_len"
          }
          dim {
            dim_value: 2
          }
          dim {
            dim_value: 8
          }
        }
      }
    }
  }
  value_info {
    name: "v_layers.0.self_attn.k_norm.Add_37"
    type {
      tensor_type {
        elem_type: 1
        shape {
          dim {
            dim_value: 8
          }
        }
      }
    }
  }
  value_info {
    name: "v_layers.0.self_attn.k_norm.RMSNormalization_38"
    type {
      tensor_type {
        elem_type: 1
        shape {
          dim {
            dim_param: "batch"
          }
          dim {
            dim_param: "sequence_len"
          }
          dim {
            dim_value: 1
          }
          dim {
            dim_value: 8
          }
        }
      }
    }
  }
  value_info {
    name: "v_layers.0.self_attn.Reshape_39"
    type {
      tensor_type {
        elem_type: 1
        shape {
          dim {
            dim_param: "batch"
          }
          dim {
            dim_param: "sequence_len"
          }
          dim {
            dim_value: 16
          }
        }
      }
    }
  }
  value_info {
    name: "v_layers.0.self_attn.Reshape_40"
    type {
      tensor_type {
        elem_type: 1
        shape {
          dim {
            dim_param: "batch"
          }
          dim {
            dim_param: "sequence_len"
          }
          dim {
            dim_value: 8
          }
        }
      }
    }
  }
  value_info {
    name: "v_layers.0.self_attn.RotaryEmbedding_41"
    type {
      tensor_type {
        elem_type: 1
        shape {
          dim {
            dim_param: "batch"
          }
          dim {
            dim_param: "sequence_len"
          }
          dim {
            dim_value: 16
          }
        }
      }
    }
  }
  value_info {
    name: "v_layers.0.self_attn.RotaryEmbedding_42"
    type {
      tensor_type {
        elem_type: 1
        shape {
          dim {
            dim_param: "batch"
          }
          dim {
            dim_param: "sequence_len"
          }
          dim {
            dim_value: 8
          }
        }
      }
    }
  }
  value_info {
    name: "v_layers.0.self_attn.Attention_43_0"
    type {
      tensor_type {
        elem_type: 1
        shape {
          dim {
            dim_param: "batch"
          }
          dim {
            dim_param: "sequence_len"
          }
          dim {
            dim_value: 16
          }
        }
      }
    }
  }
  value_info {
    name: "v_layers.0.self_attn.Sigmoid_44"
    type {
      tensor_type {
        elem_type: 1
        shape {
          dim {
            dim_param: "batch"
          }
          dim {
            dim_param: "sequence_len"
          }
          dim {
            dim_value: 16
          }
        }
      }
    }
  }
  value_info {
    name: "v_layers.0.self_attn.Mul_45"
    type {
      tensor_type {
        elem_type: 1
        shape {
          dim {
            dim_param: "batch"
          }
          dim {
            dim_param: "sequence_len"
          }
          dim {
            dim_value: 16
          }
        }
      }
    }
  }
  value_info {
    name: "v_layers.0.self_attn.o_proj.MatMul_47"
    type {
      tensor_type {
        elem_type: 1
        shape {
          dim {
            dim_param: "batch"
          }
          dim {
            dim_param: "sequence_len"
          }
          dim {
            dim_value: 16
          }
        }
      }
    }
  }
  value_info {
    name: "v_layers.0.post_attention_layernorm.Add_49"
    type {
      tensor_type {
        elem_type: 1
        shape {
          dim {
            dim_value: 16
          }
        }
      }
    }
  }
  value_info {
    name: "v_layers.0.post_attention_layernorm.RMSNormalization_50"
    type {
      tensor_type {
        elem_type: 1
        shape {
          dim {
            dim_param: "batch"
          }
          dim {
            dim_param: "sequence_len"
          }
          dim {
            dim_value: 16
          }
        }
      }
    }
  }
  value_info {
    name: "v_layers.0.mlp.gate_proj.MatMul_52"
    type {
      tensor_type {
        elem_type: 1
        shape {
          dim {
            dim_param: "batch"
          }
          dim {
            dim_param: "sequence_len"
          }
          dim {
            dim_value: 32
          }
        }
      }
    }
  }
  value_info {
    name: "v_layers.0.mlp.Sigmoid_53"
    type {
      tensor_type {
        elem_type: 1
        shape {
          dim {
            dim_param: "batch"
          }
          dim {
            dim_param: "sequence_len"
          }
          dim {
            dim_value: 32
          }
        }
      }
    }
  }
  value_info {
    name: "v_layers.0.mlp.Mul_54"
    type {
      tensor_type {
        elem_type: 1
        shape {
          dim {
            dim_param: "batch"
          }
          dim {
            dim_param: "sequence_len"
          }
          dim {
            dim_value: 32
          }
        }
      }
    }
  }
  value_info {
    name: "v_layers.0.mlp.up_proj.MatMul_56"
    type {
      tensor_type {
        elem_type: 1
        shape {
          dim {
            dim_param: "batch"
          }
          dim {
            dim_param: "sequence_len"
          }
          dim {
            dim_value: 32
          }
        }
      }
    }
  }
  value_info {
    name: "v_layers.0.mlp.Mul_57"
    type {
      tensor_type {
        elem_type: 1
        shape {
          dim {
            dim_param: "batch"
          }
          dim {
            dim_param: "sequence_len"
          }
          dim {
            dim_value: 32
          }
        }
      }
    }
  }
  value_info {
    name: "v_layers.0.mlp.down_proj.MatMul_59"
    type {
      tensor_type {
        elem_type: 1
        shape {
          dim {
            dim_param: "batch"
          }
          dim {
            dim_param: "sequence_len"
          }
          dim {
            dim_value: 16
          }
        }
      }
    }
  }
  value_info {
    name: "v_norm.Add_61"
    type {
      tensor_type {
        elem_type: 1
        shape {
          dim {
            dim_value: 16
          }
        }
      }
    }
  }
}
opset_import {
  domain: ""
  version: 24
}
opset_import {
  domain: "com.microsoft"
  version: 1
}
functions {
  name: "SkipSimplifiedLayerNormalization"
  input: "input"
  input: "skip"
  input: "weight"
  output: "norm_out"
  output: "mean"
  output: "inv_std_var"
  output: "add_out"
  node {
    input: "input"
    input: "skip"
    output: "add_out"
    name: "Add_node_0"
    op_type: "Add"
    metadata_props {
      key: "namespace"
      value: ""
    }
    metadata_props {
      key: "pkg.onnxscript.class_hierarchy"
      value: "[]"
    }
    metadata_props {
      key: "pkg.onnxscript.name_scopes"
      value: "[]"
    }
    metadata_props {
      key: "pkg.onnxscript.shape_inference_error"
      value: "Type of input 0 value input of node Add_node_0 not known"
    }
  }
  node {
    input: "add_out"
    input: "weight"
    output: "norm_out"
    name: "RMSNormalization_node_1"
    op_type: "RMSNormalization"
    attribute {
      name: "epsilon"
      type: FLOAT
      ref_attr_name: "epsilon"
    }
    metadata_props {
      key: "namespace"
      value: ""
    }
    metadata_props {
      key: "pkg.onnxscript.class_hierarchy"
      value: "[]"
    }
    metadata_props {
      key: "pkg.onnxscript.name_scopes"
      value: "[]"
    }
    metadata_props {
      key: "pkg.onnxscript.shape_inference_error"
      value: "Type of input 0 value v_Add_0 of node RMSNormalization_node_1 not known"
    }
  }
  node {
    output: "mean"
    name: "Constant_node_2"
    op_type: "Constant"
    attribute {
      name: "value_floats"
      floats: 0.0
      type: FLOATS
    }
    metadata_props {
      key: "namespace"
      value: ""
    }
    metadata_props {
      key: "pkg.onnxscript.class_hierarchy"
      value: "[]"
    }
    metadata_props {
      key: "pkg.onnxscript.name_scopes"
      value: "[]"
    }
  }
  node {
    output: "inv_std_var"
    name: "Constant_node_3"
    op_type: "Constant"
    attribute {
      name: "value_floats"
      floats: 0.0
      type: FLOATS
    }
    metadata_props {
      key: "namespace"
      value: ""
    }
    metadata_props {
      key: "pkg.onnxscript.class_hierarchy"
      value: "[]"
    }
    metadata_props {
      key: "pkg.onnxscript.name_scopes"
      value: "[]"
    }
  }
  opset_import {
    domain: ""
    version: 24
  }
  domain: "com.microsoft"
  attribute_proto {
    name: "epsilon"
    f: 1e-05
    type: FLOAT
  }
  value_info {
    name: "mean"
    type {
      tensor_type {
        elem_type: 1
        shape {
          dim {
            dim_value: 1
          }
        }
      }
    }
  }
  value_info {
    name: "inv_std_var"
    type {
      tensor_type {
        elem_type: 1
        shape {
          dim {
            dim_value: 1
          }
        }
      }
    }
  }
}
