ir_version: 11
producer_name: "mobius"
producer_version: "0.1.0"
graph {
  node {
    input: "sample"
    input: "pos_embed.proj.weight"
    input: "pos_embed.proj.bias"
    output: "v_pos_embed.proj.Conv_0"
    name: "pos_embed/proj/Conv_node_0"
    op_type: "Conv"
    attribute {
      name: "group"
      i: 1
      type: INT
    }
    attribute {
      name: "pads"
      ints: 0
      ints: 0
      ints: 0
      ints: 0
      type: INTS
    }
    attribute {
      name: "kernel_shape"
      ints: 2
      ints: 2
      type: INTS
    }
    attribute {
      name: "strides"
      ints: 2
      ints: 2
      type: INTS
    }
    metadata_props {
      key: "namespace"
      value: ": DiTTransformer2DModel/pos_embed: PatchEmbed/proj: Conv2d"
    }
    metadata_props {
      key: "pkg.onnxscript.class_hierarchy"
      value: "[\'DiTTransformer2DModel\', \'PatchEmbed\', \'Conv2d\']"
    }
    metadata_props {
      key: "pkg.onnxscript.name_scopes"
      value: "[\'\', \'pos_embed\', \'proj\']"
    }
  }
  node {
    input: "v_pos_embed.proj.Conv_0"
    output: "v_pos_embed.Shape_1"
    name: "pos_embed/Shape_node_1"
    op_type: "Shape"
    attribute {
      name: "end"
      i: 1
      type: INT
    }
    attribute {
      name: "start"
      i: 0
      type: INT
    }
    metadata_props {
      key: "namespace"
      value: ": DiTTransformer2DModel/pos_embed: PatchEmbed"
    }
    metadata_props {
      key: "pkg.onnxscript.class_hierarchy"
      value: "[\'DiTTransformer2DModel\', \'PatchEmbed\']"
    }
    metadata_props {
      key: "pkg.onnxscript.name_scopes"
      value: "[\'\', \'pos_embed\']"
    }
  }
  node {
    output: "v_pos_embed.Shape_2"
    name: "node_Constant_0"
    op_type: "Constant"
    attribute {
      name: "value_ints"
      ints: 32
      type: INTS
    }
  }
  node {
    input: "v_pos_embed.proj.Conv_0"
    output: "v_pos_embed.Shape_3"
    name: "pos_embed/Shape_node_3"
    op_type: "Shape"
    attribute {
      name: "end"
      i: 3
      type: INT
    }
    attribute {
      name: "start"
      i: 2
      type: INT
    }
    metadata_props {
      key: "namespace"
      value: ": DiTTransformer2DModel/pos_embed: PatchEmbed"
    }
    metadata_props {
      key: "pkg.onnxscript.class_hierarchy"
      value: "[\'DiTTransformer2DModel\', \'PatchEmbed\']"
    }
    metadata_props {
      key: "pkg.onnxscript.name_scopes"
      value: "[\'\', \'pos_embed\']"
    }
  }
  node {
    input: "v_pos_embed.proj.Conv_0"
    output: "v_pos_embed.Shape_4"
    name: "pos_embed/Shape_node_4"
    op_type: "Shape"
    attribute {
      name: "end"
      i: 4
      type: INT
    }
    attribute {
      name: "start"
      i: 3
      type: INT
    }
    metadata_props {
      key: "namespace"
      value: ": DiTTransformer2DModel/pos_embed: PatchEmbed"
    }
    metadata_props {
      key: "pkg.onnxscript.class_hierarchy"
      value: "[\'DiTTransformer2DModel\', \'PatchEmbed\']"
    }
    metadata_props {
      key: "pkg.onnxscript.name_scopes"
      value: "[\'\', \'pos_embed\']"
    }
  }
  node {
    input: "v_pos_embed.Shape_3"
    input: "v_pos_embed.Shape_4"
    output: "v_pos_embed.Mul_5"
    name: "pos_embed/Mul_node_5"
    op_type: "Mul"
    metadata_props {
      key: "namespace"
      value: ": DiTTransformer2DModel/pos_embed: PatchEmbed"
    }
    metadata_props {
      key: "pkg.onnxscript.class_hierarchy"
      value: "[\'DiTTransformer2DModel\', \'PatchEmbed\']"
    }
    metadata_props {
      key: "pkg.onnxscript.name_scopes"
      value: "[\'\', \'pos_embed\']"
    }
  }
  node {
    input: "v_pos_embed.Shape_1"
    input: "v_pos_embed.Shape_2"
    input: "v_pos_embed.Mul_5"
    output: "v_pos_embed.Concat_6"
    name: "pos_embed/Concat_node_6"
    op_type: "Concat"
    attribute {
      name: "axis"
      i: 0
      type: INT
    }
    metadata_props {
      key: "namespace"
      value: ": DiTTransformer2DModel/pos_embed: PatchEmbed"
    }
    metadata_props {
      key: "pkg.onnxscript.class_hierarchy"
      value: "[\'DiTTransformer2DModel\', \'PatchEmbed\']"
    }
    metadata_props {
      key: "pkg.onnxscript.name_scopes"
      value: "[\'\', \'pos_embed\']"
    }
  }
  node {
    input: "v_pos_embed.proj.Conv_0"
    input: "v_pos_embed.Concat_6"
    output: "v_pos_embed.Reshape_7"
    name: "pos_embed/Reshape_node_7"
    op_type: "Reshape"
    metadata_props {
      key: "namespace"
      value: ": DiTTransformer2DModel/pos_embed: PatchEmbed"
    }
    metadata_props {
      key: "pkg.onnxscript.class_hierarchy"
      value: "[\'DiTTransformer2DModel\', \'PatchEmbed\']"
    }
    metadata_props {
      key: "pkg.onnxscript.name_scopes"
      value: "[\'\', \'pos_embed\']"
    }
  }
  node {
    input: "v_pos_embed.Reshape_7"
    output: "v_pos_embed.Transpose_8"
    name: "pos_embed/Transpose_node_8"
    op_type: "Transpose"
    attribute {
      name: "perm"
      ints: 0
      ints: 2
      ints: 1
      type: INTS
    }
    metadata_props {
      key: "namespace"
      value: ": DiTTransformer2DModel/pos_embed: PatchEmbed"
    }
    metadata_props {
      key: "pkg.onnxscript.class_hierarchy"
      value: "[\'DiTTransformer2DModel\', \'PatchEmbed\']"
    }
    metadata_props {
      key: "pkg.onnxscript.name_scopes"
      value: "[\'\', \'pos_embed\']"
    }
  }
  node {
    input: "timestep"
    output: "v_Cast_10"
    name: "Cast_node_10"
    op_type: "Cast"
    attribute {
      name: "to"
      i: 1
      type: INT
    }
    metadata_props {
      key: "namespace"
      value: ": DiTTransformer2DModel"
    }
    metadata_props {
      key: "pkg.onnxscript.class_hierarchy"
      value: "[\'DiTTransformer2DModel\']"
    }
    metadata_props {
      key: "pkg.onnxscript.name_scopes"
      value: "[\'\']"
    }
  }
  node {
    input: "v_Cast_10"
    input: "const_1d_0"
    output: "v_Unsqueeze_11"
    name: "Unsqueeze_node_11"
    op_type: "Unsqueeze"
    metadata_props {
      key: "namespace"
      value: ": DiTTransformer2DModel"
    }
    metadata_props {
      key: "pkg.onnxscript.class_hierarchy"
      value: "[\'DiTTransformer2DModel\']"
    }
    metadata_props {
      key: "pkg.onnxscript.name_scopes"
      value: "[\'\']"
    }
  }
  node {
    input: "v_Unsqueeze_11"
    input: "v_Unsqueeze_12"
    output: "v_Mul_13"
    name: "Mul_node_13"
    op_type: "Mul"
    metadata_props {
      key: "namespace"
      value: ": DiTTransformer2DModel"
    }
    metadata_props {
      key: "pkg.onnxscript.class_hierarchy"
      value: "[\'DiTTransformer2DModel\']"
    }
    metadata_props {
      key: "pkg.onnxscript.name_scopes"
      value: "[\'\']"
    }
  }
  node {
    input: "v_Mul_13"
    output: "v_Cos_14"
    name: "Cos_node_14"
    op_type: "Cos"
    metadata_props {
      key: "namespace"
      value: ": DiTTransformer2DModel"
    }
    metadata_props {
      key: "pkg.onnxscript.class_hierarchy"
      value: "[\'DiTTransformer2DModel\']"
    }
    metadata_props {
      key: "pkg.onnxscript.name_scopes"
      value: "[\'\']"
    }
  }
  node {
    input: "v_Mul_13"
    output: "v_Sin_15"
    name: "Sin_node_15"
    op_type: "Sin"
    metadata_props {
      key: "namespace"
      value: ": DiTTransformer2DModel"
    }
    metadata_props {
      key: "pkg.onnxscript.class_hierarchy"
      value: "[\'DiTTransformer2DModel\']"
    }
    metadata_props {
      key: "pkg.onnxscript.name_scopes"
      value: "[\'\']"
    }
  }
  node {
    input: "v_Cos_14"
    input: "v_Sin_15"
    output: "v_Concat_16"
    name: "Concat_node_16"
    op_type: "Concat"
    attribute {
      name: "axis"
      i: -1
      type: INT
    }
    metadata_props {
      key: "namespace"
      value: ": DiTTransformer2DModel"
    }
    metadata_props {
      key: "pkg.onnxscript.class_hierarchy"
      value: "[\'DiTTransformer2DModel\']"
    }
    metadata_props {
      key: "pkg.onnxscript.name_scopes"
      value: "[\'\']"
    }
  }
  node {
    input: "adaln_single.linear_1.weight"
    output: "v_adaln_single.linear_1.Transpose_17"
    name: "adaln_single/linear_1/Transpose_node_17"
    op_type: "Transpose"
    attribute {
      name: "perm"
      ints: 1
      ints: 0
      type: INTS
    }
    metadata_props {
      key: "namespace"
      value: ": DiTTransformer2DModel/adaln_single: TimestepEmbedding/linear_1: Linear"
    }
    metadata_props {
      key: "pkg.onnxscript.class_hierarchy"
      value: "[\'DiTTransformer2DModel\', \'TimestepEmbedding\', \'Linear\']"
    }
    metadata_props {
      key: "pkg.onnxscript.name_scopes"
      value: "[\'\', \'adaln_single\', \'linear_1\']"
    }
  }
  node {
    input: "v_Concat_16"
    input: "v_adaln_single.linear_1.Transpose_17"
    output: "v_adaln_single.linear_1.MatMul_18"
    name: "adaln_single/linear_1/MatMul_node_18"
    op_type: "MatMul"
    metadata_props {
      key: "namespace"
      value: ": DiTTransformer2DModel/adaln_single: TimestepEmbedding/linear_1: Linear"
    }
    metadata_props {
      key: "pkg.onnxscript.class_hierarchy"
      value: "[\'DiTTransformer2DModel\', \'TimestepEmbedding\', \'Linear\']"
    }
    metadata_props {
      key: "pkg.onnxscript.name_scopes"
      value: "[\'\', \'adaln_single\', \'linear_1\']"
    }
  }
  node {
    input: "v_adaln_single.linear_1.MatMul_18"
    input: "adaln_single.linear_1.bias"
    output: "v_adaln_single.linear_1.Add_19"
    name: "adaln_single/linear_1/Add_node_19"
    op_type: "Add"
    metadata_props {
      key: "namespace"
      value: ": DiTTransformer2DModel/adaln_single: TimestepEmbedding/linear_1: Linear"
    }
    metadata_props {
      key: "pkg.onnxscript.class_hierarchy"
      value: "[\'DiTTransformer2DModel\', \'TimestepEmbedding\', \'Linear\']"
    }
    metadata_props {
      key: "pkg.onnxscript.name_scopes"
      value: "[\'\', \'adaln_single\', \'linear_1\']"
    }
  }
  node {
    input: "v_adaln_single.linear_1.Add_19"
    output: "v_adaln_single._silu.Sigmoid_20"
    name: "adaln_single/_silu/Sigmoid_node_20"
    op_type: "Sigmoid"
    metadata_props {
      key: "namespace"
      value: ": DiTTransformer2DModel/adaln_single: TimestepEmbedding/_silu: SiLU"
    }
    metadata_props {
      key: "pkg.onnxscript.class_hierarchy"
      value: "[\'DiTTransformer2DModel\', \'TimestepEmbedding\', \'SiLU\']"
    }
    metadata_props {
      key: "pkg.onnxscript.name_scopes"
      value: "[\'\', \'adaln_single\', \'_silu\']"
    }
  }
  node {
    input: "v_adaln_single.linear_1.Add_19"
    input: "v_adaln_single._silu.Sigmoid_20"
    output: "v_adaln_single._silu.Mul_21"
    name: "adaln_single/_silu/Mul_node_21"
    op_type: "Mul"
    metadata_props {
      key: "namespace"
      value: ": DiTTransformer2DModel/adaln_single: TimestepEmbedding/_silu: SiLU"
    }
    metadata_props {
      key: "pkg.onnxscript.class_hierarchy"
      value: "[\'DiTTransformer2DModel\', \'TimestepEmbedding\', \'SiLU\']"
    }
    metadata_props {
      key: "pkg.onnxscript.name_scopes"
      value: "[\'\', \'adaln_single\', \'_silu\']"
    }
  }
  node {
    input: "adaln_single.linear_2.weight"
    output: "v_adaln_single.linear_2.Transpose_22"
    name: "adaln_single/linear_2/Transpose_node_22"
    op_type: "Transpose"
    attribute {
      name: "perm"
      ints: 1
      ints: 0
      type: INTS
    }
    metadata_props {
      key: "namespace"
      value: ": DiTTransformer2DModel/adaln_single: TimestepEmbedding/linear_2: Linear"
    }
    metadata_props {
      key: "pkg.onnxscript.class_hierarchy"
      value: "[\'DiTTransformer2DModel\', \'TimestepEmbedding\', \'Linear\']"
    }
    metadata_props {
      key: "pkg.onnxscript.name_scopes"
      value: "[\'\', \'adaln_single\', \'linear_2\']"
    }
  }
  node {
    input: "v_adaln_single._silu.Mul_21"
    input: "v_adaln_single.linear_2.Transpose_22"
    output: "v_adaln_single.linear_2.MatMul_23"
    name: "adaln_single/linear_2/MatMul_node_23"
    op_type: "MatMul"
    metadata_props {
      key: "namespace"
      value: ": DiTTransformer2DModel/adaln_single: TimestepEmbedding/linear_2: Linear"
    }
    metadata_props {
      key: "pkg.onnxscript.class_hierarchy"
      value: "[\'DiTTransformer2DModel\', \'TimestepEmbedding\', \'Linear\']"
    }
    metadata_props {
      key: "pkg.onnxscript.name_scopes"
      value: "[\'\', \'adaln_single\', \'linear_2\']"
    }
  }
  node {
    input: "v_adaln_single.linear_2.MatMul_23"
    input: "adaln_single.linear_2.bias"
    output: "v_adaln_single.linear_2.Add_24"
    name: "adaln_single/linear_2/Add_node_24"
    op_type: "Add"
    metadata_props {
      key: "namespace"
      value: ": DiTTransformer2DModel/adaln_single: TimestepEmbedding/linear_2: Linear"
    }
    metadata_props {
      key: "pkg.onnxscript.class_hierarchy"
      value: "[\'DiTTransformer2DModel\', \'TimestepEmbedding\', \'Linear\']"
    }
    metadata_props {
      key: "pkg.onnxscript.name_scopes"
      value: "[\'\', \'adaln_single\', \'linear_2\']"
    }
  }
  node {
    input: "caption_projection.weight"
    output: "v_caption_projection.Transpose_25"
    name: "caption_projection/Transpose_node_25"
    op_type: "Transpose"
    attribute {
      name: "perm"
      ints: 1
      ints: 0
      type: INTS
    }
    metadata_props {
      key: "namespace"
      value: ": DiTTransformer2DModel/caption_projection: Linear"
    }
    metadata_props {
      key: "pkg.onnxscript.class_hierarchy"
      value: "[\'DiTTransformer2DModel\', \'Linear\']"
    }
    metadata_props {
      key: "pkg.onnxscript.name_scopes"
      value: "[\'\', \'caption_projection\']"
    }
  }
  node {
    input: "encoder_hidden_states"
    input: "v_caption_projection.Transpose_25"
    output: "v_caption_projection.MatMul_26"
    name: "caption_projection/MatMul_node_26"
    op_type: "MatMul"
    metadata_props {
      key: "namespace"
      value: ": DiTTransformer2DModel/caption_projection: Linear"
    }
    metadata_props {
      key: "pkg.onnxscript.class_hierarchy"
      value: "[\'DiTTransformer2DModel\', \'Linear\']"
    }
    metadata_props {
      key: "pkg.onnxscript.name_scopes"
      value: "[\'\', \'caption_projection\']"
    }
  }
  node {
    input: "v_caption_projection.MatMul_26"
    input: "caption_projection.bias"
    output: "v_caption_projection.Add_27"
    name: "caption_projection/Add_node_27"
    op_type: "Add"
    metadata_props {
      key: "namespace"
      value: ": DiTTransformer2DModel/caption_projection: Linear"
    }
    metadata_props {
      key: "pkg.onnxscript.class_hierarchy"
      value: "[\'DiTTransformer2DModel\', \'Linear\']"
    }
    metadata_props {
      key: "pkg.onnxscript.name_scopes"
      value: "[\'\', \'caption_projection\']"
    }
  }
  node {
    input: "v_adaln_single.linear_2.Add_24"
    output: "v_transformer_blocks.0.norm1._silu.Sigmoid_28"
    name: "transformer_blocks.0/norm1/_silu/Sigmoid_node_28"
    op_type: "Sigmoid"
    metadata_props {
      key: "namespace"
      value: ": DiTTransformer2DModel/transformer_blocks.0: _DiTBlock/norm1: AdaLayerNormZero/_silu: SiLU"
    }
    metadata_props {
      key: "pkg.onnxscript.class_hierarchy"
      value: "[\'DiTTransformer2DModel\', \'_DiTBlock\', \'AdaLayerNormZero\', \'SiLU\']"
    }
    metadata_props {
      key: "pkg.onnxscript.name_scopes"
      value: "[\'\', \'transformer_blocks.0\', \'norm1\', \'_silu\']"
    }
  }
  node {
    input: "v_adaln_single.linear_2.Add_24"
    input: "v_transformer_blocks.0.norm1._silu.Sigmoid_28"
    output: "v_transformer_blocks.0.norm1._silu.Mul_29"
    name: "transformer_blocks.0/norm1/_silu/Mul_node_29"
    op_type: "Mul"
    metadata_props {
      key: "namespace"
      value: ": DiTTransformer2DModel/transformer_blocks.0: _DiTBlock/norm1: AdaLayerNormZero/_silu: SiLU"
    }
    metadata_props {
      key: "pkg.onnxscript.class_hierarchy"
      value: "[\'DiTTransformer2DModel\', \'_DiTBlock\', \'AdaLayerNormZero\', \'SiLU\']"
    }
    metadata_props {
      key: "pkg.onnxscript.name_scopes"
      value: "[\'\', \'transformer_blocks.0\', \'norm1\', \'_silu\']"
    }
  }
  node {
    input: "transformer_blocks.0.norm1.linear.weight"
    output: "v_transformer_blocks.0.norm1.linear.Transpose_30"
    name: "transformer_blocks.0/norm1/linear/Transpose_node_30"
    op_type: "Transpose"
    attribute {
      name: "perm"
      ints: 1
      ints: 0
      type: INTS
    }
    metadata_props {
      key: "namespace"
      value: ": DiTTransformer2DModel/transformer_blocks.0: _DiTBlock/norm1: AdaLayerNormZero/linear: Linear"
    }
    metadata_props {
      key: "pkg.onnxscript.class_hierarchy"
      value: "[\'DiTTransformer2DModel\', \'_DiTBlock\', \'AdaLayerNormZero\', \'Linear\']"
    }
    metadata_props {
      key: "pkg.onnxscript.name_scopes"
      value: "[\'\', \'transformer_blocks.0\', \'norm1\', \'linear\']"
    }
  }
  node {
    input: "v_transformer_blocks.0.norm1._silu.Mul_29"
    input: "v_transformer_blocks.0.norm1.linear.Transpose_30"
    output: "v_transformer_blocks.0.norm1.linear.MatMul_31"
    name: "transformer_blocks.0/norm1/linear/MatMul_node_31"
    op_type: "MatMul"
    metadata_props {
      key: "namespace"
      value: ": DiTTransformer2DModel/transformer_blocks.0: _DiTBlock/norm1: AdaLayerNormZero/linear: Linear"
    }
    metadata_props {
      key: "pkg.onnxscript.class_hierarchy"
      value: "[\'DiTTransformer2DModel\', \'_DiTBlock\', \'AdaLayerNormZero\', \'Linear\']"
    }
    metadata_props {
      key: "pkg.onnxscript.name_scopes"
      value: "[\'\', \'transformer_blocks.0\', \'norm1\', \'linear\']"
    }
  }
  node {
    input: "v_transformer_blocks.0.norm1.linear.MatMul_31"
    input: "transformer_blocks.0.norm1.linear.bias"
    output: "v_transformer_blocks.0.norm1.linear.Add_32"
    name: "transformer_blocks.0/norm1/linear/Add_node_32"
    op_type: "Add"
    metadata_props {
      key: "namespace"
      value: ": DiTTransformer2DModel/transformer_blocks.0: _DiTBlock/norm1: AdaLayerNormZero/linear: Linear"
    }
    metadata_props {
      key: "pkg.onnxscript.class_hierarchy"
      value: "[\'DiTTransformer2DModel\', \'_DiTBlock\', \'AdaLayerNormZero\', \'Linear\']"
    }
    metadata_props {
      key: "pkg.onnxscript.name_scopes"
      value: "[\'\', \'transformer_blocks.0\', \'norm1\', \'linear\']"
    }
  }
  node {
    input: "v_transformer_blocks.0.norm1.linear.Add_32"
    output: "v_transformer_blocks.0.norm1.Split_33_0"
    output: "v_transformer_blocks.0.norm1.Split_33_1"
    output: "v_transformer_blocks.0.norm1.Split_33_2"
    output: "v_transformer_blocks.0.norm1.Split_33_3"
    output: "v_transformer_blocks.0.norm1.Split_33_4"
    output: "v_transformer_blocks.0.norm1.Split_33_5"
    name: "transformer_blocks.0/norm1/Split_node_33"
    op_type: "Split"
    attribute {
      name: "num_outputs"
      i: 6
      type: INT
    }
    attribute {
      name: "axis"
      i: -1
      type: INT
    }
    metadata_props {
      key: "namespace"
      value: ": DiTTransformer2DModel/transformer_blocks.0: _DiTBlock/norm1: AdaLayerNormZero"
    }
    metadata_props {
      key: "pkg.onnxscript.class_hierarchy"
      value: "[\'DiTTransformer2DModel\', \'_DiTBlock\', \'AdaLayerNormZero\']"
    }
    metadata_props {
      key: "pkg.onnxscript.name_scopes"
      value: "[\'\', \'transformer_blocks.0\', \'norm1\']"
    }
  }
  node {
    input: "v_pos_embed.Transpose_8"
    input: "transformer_blocks.0.norm1.norm.weight"
    input: "transformer_blocks.0.norm1.norm.bias"
    output: "v_transformer_blocks.0.norm1.norm.LayerNormalization_34"
    name: "transformer_blocks.0/norm1/norm/LayerNormalization_node_34"
    op_type: "LayerNormalization"
    attribute {
      name: "epsilon"
      f: 1e-06
      type: FLOAT
    }
    attribute {
      name: "axis"
      i: -1
      type: INT
    }
    metadata_props {
      key: "namespace"
      value: ": DiTTransformer2DModel/transformer_blocks.0: _DiTBlock/norm1: AdaLayerNormZero/norm: LayerNorm"
    }
    metadata_props {
      key: "pkg.onnxscript.class_hierarchy"
      value: "[\'DiTTransformer2DModel\', \'_DiTBlock\', \'AdaLayerNormZero\', \'LayerNorm\']"
    }
    metadata_props {
      key: "pkg.onnxscript.name_scopes"
      value: "[\'\', \'transformer_blocks.0\', \'norm1\', \'norm\']"
    }
  }
  node {
    input: "v_transformer_blocks.0.norm1.Split_33_1"
    input: "const_1d_0"
    output: "v_transformer_blocks.0.Unsqueeze_35"
    name: "transformer_blocks.0/Unsqueeze_node_35"
    op_type: "Unsqueeze"
    metadata_props {
      key: "namespace"
      value: ": DiTTransformer2DModel/transformer_blocks.0: _DiTBlock"
    }
    metadata_props {
      key: "pkg.onnxscript.class_hierarchy"
      value: "[\'DiTTransformer2DModel\', \'_DiTBlock\']"
    }
    metadata_props {
      key: "pkg.onnxscript.name_scopes"
      value: "[\'\', \'transformer_blocks.0\']"
    }
  }
  node {
    input: "const_1.0_f32"
    input: "v_transformer_blocks.0.Unsqueeze_35"
    output: "v_transformer_blocks.0.Add_36"
    name: "transformer_blocks.0/Add_node_36"
    op_type: "Add"
    metadata_props {
      key: "namespace"
      value: ": DiTTransformer2DModel/transformer_blocks.0: _DiTBlock"
    }
    metadata_props {
      key: "pkg.onnxscript.class_hierarchy"
      value: "[\'DiTTransformer2DModel\', \'_DiTBlock\']"
    }
    metadata_props {
      key: "pkg.onnxscript.name_scopes"
      value: "[\'\', \'transformer_blocks.0\']"
    }
  }
  node {
    input: "v_transformer_blocks.0.norm1.norm.LayerNormalization_34"
    input: "v_transformer_blocks.0.Add_36"
    output: "v_transformer_blocks.0.Mul_37"
    name: "transformer_blocks.0/Mul_node_37"
    op_type: "Mul"
    metadata_props {
      key: "namespace"
      value: ": DiTTransformer2DModel/transformer_blocks.0: _DiTBlock"
    }
    metadata_props {
      key: "pkg.onnxscript.class_hierarchy"
      value: "[\'DiTTransformer2DModel\', \'_DiTBlock\']"
    }
    metadata_props {
      key: "pkg.onnxscript.name_scopes"
      value: "[\'\', \'transformer_blocks.0\']"
    }
  }
  node {
    input: "v_transformer_blocks.0.norm1.Split_33_0"
    input: "const_1d_0"
    output: "v_transformer_blocks.0.Unsqueeze_38"
    name: "transformer_blocks.0/Unsqueeze_node_38"
    op_type: "Unsqueeze"
    metadata_props {
      key: "namespace"
      value: ": DiTTransformer2DModel/transformer_blocks.0: _DiTBlock"
    }
    metadata_props {
      key: "pkg.onnxscript.class_hierarchy"
      value: "[\'DiTTransformer2DModel\', \'_DiTBlock\']"
    }
    metadata_props {
      key: "pkg.onnxscript.name_scopes"
      value: "[\'\', \'transformer_blocks.0\']"
    }
  }
  node {
    input: "v_transformer_blocks.0.Mul_37"
    input: "v_transformer_blocks.0.Unsqueeze_38"
    output: "v_transformer_blocks.0.Add_39"
    name: "transformer_blocks.0/Add_node_39"
    op_type: "Add"
    metadata_props {
      key: "namespace"
      value: ": DiTTransformer2DModel/transformer_blocks.0: _DiTBlock"
    }
    metadata_props {
      key: "pkg.onnxscript.class_hierarchy"
      value: "[\'DiTTransformer2DModel\', \'_DiTBlock\']"
    }
    metadata_props {
      key: "pkg.onnxscript.name_scopes"
      value: "[\'\', \'transformer_blocks.0\']"
    }
  }
  node {
    input: "transformer_blocks.0.attn1.to_q.weight"
    output: "v_transformer_blocks.0.attn1.to_q.Transpose_40"
    name: "transformer_blocks.0/attn1/to_q/Transpose_node_40"
    op_type: "Transpose"
    attribute {
      name: "perm"
      ints: 1
      ints: 0
      type: INTS
    }
    metadata_props {
      key: "namespace"
      value: ": DiTTransformer2DModel/transformer_blocks.0: _DiTBlock/attn1: DiffusionSelfAttention/to_q: Linear"
    }
    metadata_props {
      key: "pkg.onnxscript.class_hierarchy"
      value: "[\'DiTTransformer2DModel\', \'_DiTBlock\', \'DiffusionSelfAttention\', \'Linear\']"
    }
    metadata_props {
      key: "pkg.onnxscript.name_scopes"
      value: "[\'\', \'transformer_blocks.0\', \'attn1\', \'to_q\']"
    }
  }
  node {
    input: "v_transformer_blocks.0.Add_39"
    input: "v_transformer_blocks.0.attn1.to_q.Transpose_40"
    output: "v_transformer_blocks.0.attn1.to_q.MatMul_41"
    name: "transformer_blocks.0/attn1/to_q/MatMul_node_41"
    op_type: "MatMul"
    metadata_props {
      key: "namespace"
      value: ": DiTTransformer2DModel/transformer_blocks.0: _DiTBlock/attn1: DiffusionSelfAttention/to_q: Linear"
    }
    metadata_props {
      key: "pkg.onnxscript.class_hierarchy"
      value: "[\'DiTTransformer2DModel\', \'_DiTBlock\', \'DiffusionSelfAttention\', \'Linear\']"
    }
    metadata_props {
      key: "pkg.onnxscript.name_scopes"
      value: "[\'\', \'transformer_blocks.0\', \'attn1\', \'to_q\']"
    }
  }
  node {
    input: "v_transformer_blocks.0.attn1.to_q.MatMul_41"
    input: "transformer_blocks.0.attn1.to_q.bias"
    output: "v_transformer_blocks.0.attn1.to_q.Add_42"
    name: "transformer_blocks.0/attn1/to_q/Add_node_42"
    op_type: "Add"
    metadata_props {
      key: "namespace"
      value: ": DiTTransformer2DModel/transformer_blocks.0: _DiTBlock/attn1: DiffusionSelfAttention/to_q: Linear"
    }
    metadata_props {
      key: "pkg.onnxscript.class_hierarchy"
      value: "[\'DiTTransformer2DModel\', \'_DiTBlock\', \'DiffusionSelfAttention\', \'Linear\']"
    }
    metadata_props {
      key: "pkg.onnxscript.name_scopes"
      value: "[\'\', \'transformer_blocks.0\', \'attn1\', \'to_q\']"
    }
  }
  node {
    input: "transformer_blocks.0.attn1.to_k.weight"
    output: "v_transformer_blocks.0.attn1.to_k.Transpose_43"
    name: "transformer_blocks.0/attn1/to_k/Transpose_node_43"
    op_type: "Transpose"
    attribute {
      name: "perm"
      ints: 1
      ints: 0
      type: INTS
    }
    metadata_props {
      key: "namespace"
      value: ": DiTTransformer2DModel/transformer_blocks.0: _DiTBlock/attn1: DiffusionSelfAttention/to_k: Linear"
    }
    metadata_props {
      key: "pkg.onnxscript.class_hierarchy"
      value: "[\'DiTTransformer2DModel\', \'_DiTBlock\', \'DiffusionSelfAttention\', \'Linear\']"
    }
    metadata_props {
      key: "pkg.onnxscript.name_scopes"
      value: "[\'\', \'transformer_blocks.0\', \'attn1\', \'to_k\']"
    }
  }
  node {
    input: "v_transformer_blocks.0.Add_39"
    input: "v_transformer_blocks.0.attn1.to_k.Transpose_43"
    output: "v_transformer_blocks.0.attn1.to_k.MatMul_44"
    name: "transformer_blocks.0/attn1/to_k/MatMul_node_44"
    op_type: "MatMul"
    metadata_props {
      key: "namespace"
      value: ": DiTTransformer2DModel/transformer_blocks.0: _DiTBlock/attn1: DiffusionSelfAttention/to_k: Linear"
    }
    metadata_props {
      key: "pkg.onnxscript.class_hierarchy"
      value: "[\'DiTTransformer2DModel\', \'_DiTBlock\', \'DiffusionSelfAttention\', \'Linear\']"
    }
    metadata_props {
      key: "pkg.onnxscript.name_scopes"
      value: "[\'\', \'transformer_blocks.0\', \'attn1\', \'to_k\']"
    }
  }
  node {
    input: "v_transformer_blocks.0.attn1.to_k.MatMul_44"
    input: "transformer_blocks.0.attn1.to_k.bias"
    output: "v_transformer_blocks.0.attn1.to_k.Add_45"
    name: "transformer_blocks.0/attn1/to_k/Add_node_45"
    op_type: "Add"
    metadata_props {
      key: "namespace"
      value: ": DiTTransformer2DModel/transformer_blocks.0: _DiTBlock/attn1: DiffusionSelfAttention/to_k: Linear"
    }
    metadata_props {
      key: "pkg.onnxscript.class_hierarchy"
      value: "[\'DiTTransformer2DModel\', \'_DiTBlock\', \'DiffusionSelfAttention\', \'Linear\']"
    }
    metadata_props {
      key: "pkg.onnxscript.name_scopes"
      value: "[\'\', \'transformer_blocks.0\', \'attn1\', \'to_k\']"
    }
  }
  node {
    input: "transformer_blocks.0.attn1.to_v.weight"
    output: "v_transformer_blocks.0.attn1.to_v.Transpose_46"
    name: "transformer_blocks.0/attn1/to_v/Transpose_node_46"
    op_type: "Transpose"
    attribute {
      name: "perm"
      ints: 1
      ints: 0
      type: INTS
    }
    metadata_props {
      key: "namespace"
      value: ": DiTTransformer2DModel/transformer_blocks.0: _DiTBlock/attn1: DiffusionSelfAttention/to_v: Linear"
    }
    metadata_props {
      key: "pkg.onnxscript.class_hierarchy"
      value: "[\'DiTTransformer2DModel\', \'_DiTBlock\', \'DiffusionSelfAttention\', \'Linear\']"
    }
    metadata_props {
      key: "pkg.onnxscript.name_scopes"
      value: "[\'\', \'transformer_blocks.0\', \'attn1\', \'to_v\']"
    }
  }
  node {
    input: "v_transformer_blocks.0.Add_39"
    input: "v_transformer_blocks.0.attn1.to_v.Transpose_46"
    output: "v_transformer_blocks.0.attn1.to_v.MatMul_47"
    name: "transformer_blocks.0/attn1/to_v/MatMul_node_47"
    op_type: "MatMul"
    metadata_props {
      key: "namespace"
      value: ": DiTTransformer2DModel/transformer_blocks.0: _DiTBlock/attn1: DiffusionSelfAttention/to_v: Linear"
    }
    metadata_props {
      key: "pkg.onnxscript.class_hierarchy"
      value: "[\'DiTTransformer2DModel\', \'_DiTBlock\', \'DiffusionSelfAttention\', \'Linear\']"
    }
    metadata_props {
      key: "pkg.onnxscript.name_scopes"
      value: "[\'\', \'transformer_blocks.0\', \'attn1\', \'to_v\']"
    }
  }
  node {
    input: "v_transformer_blocks.0.attn1.to_v.MatMul_47"
    input: "transformer_blocks.0.attn1.to_v.bias"
    output: "v_transformer_blocks.0.attn1.to_v.Add_48"
    name: "transformer_blocks.0/attn1/to_v/Add_node_48"
    op_type: "Add"
    metadata_props {
      key: "namespace"
      value: ": DiTTransformer2DModel/transformer_blocks.0: _DiTBlock/attn1: DiffusionSelfAttention/to_v: Linear"
    }
    metadata_props {
      key: "pkg.onnxscript.class_hierarchy"
      value: "[\'DiTTransformer2DModel\', \'_DiTBlock\', \'DiffusionSelfAttention\', \'Linear\']"
    }
    metadata_props {
      key: "pkg.onnxscript.name_scopes"
      value: "[\'\', \'transformer_blocks.0\', \'attn1\', \'to_v\']"
    }
  }
  node {
    input: "v_transformer_blocks.0.attn1.to_q.Add_42"
    input: "v_transformer_blocks.0.attn1.to_k.Add_45"
    input: "v_transformer_blocks.0.attn1.to_v.Add_48"
    output: "v_transformer_blocks.0.attn1.Attention_49"
    name: "transformer_blocks.0/attn1/Attention_node_49"
    op_type: "Attention"
    attribute {
      name: "is_causal"
      i: 0
      type: INT
    }
    attribute {
      name: "kv_num_heads"
      i: 2
      type: INT
    }
    attribute {
      name: "q_num_heads"
      i: 2
      type: INT
    }
    attribute {
      name: "scale"
      f: 0.25
      type: FLOAT
    }
    metadata_props {
      key: "namespace"
      value: ": DiTTransformer2DModel/transformer_blocks.0: _DiTBlock/attn1: DiffusionSelfAttention"
    }
    metadata_props {
      key: "pkg.onnxscript.class_hierarchy"
      value: "[\'DiTTransformer2DModel\', \'_DiTBlock\', \'DiffusionSelfAttention\']"
    }
    metadata_props {
      key: "pkg.onnxscript.name_scopes"
      value: "[\'\', \'transformer_blocks.0\', \'attn1\']"
    }
  }
  node {
    input: "transformer_blocks.0.attn1.to_out.0.weight"
    output: "v_transformer_blocks.0.attn1.to_out.0.Transpose_50"
    name: "transformer_blocks.0/attn1/to_out/0/Transpose_node_50"
    op_type: "Transpose"
    attribute {
      name: "perm"
      ints: 1
      ints: 0
      type: INTS
    }
    metadata_props {
      key: "namespace"
      value: ": DiTTransformer2DModel/transformer_blocks.0: _DiTBlock/attn1: DiffusionSelfAttention/to_out: Sequential/0: Linear"
    }
    metadata_props {
      key: "pkg.onnxscript.class_hierarchy"
      value: "[\'DiTTransformer2DModel\', \'_DiTBlock\', \'DiffusionSelfAttention\', \'Sequential\', \'Linear\']"
    }
    metadata_props {
      key: "pkg.onnxscript.name_scopes"
      value: "[\'\', \'transformer_blocks.0\', \'attn1\', \'to_out\', \'0\']"
    }
  }
  node {
    input: "v_transformer_blocks.0.attn1.Attention_49"
    input: "v_transformer_blocks.0.attn1.to_out.0.Transpose_50"
    output: "v_transformer_blocks.0.attn1.to_out.0.MatMul_51"
    name: "transformer_blocks.0/attn1/to_out/0/MatMul_node_51"
    op_type: "MatMul"
    metadata_props {
      key: "namespace"
      value: ": DiTTransformer2DModel/transformer_blocks.0: _DiTBlock/attn1: DiffusionSelfAttention/to_out: Sequential/0: Linear"
    }
    metadata_props {
      key: "pkg.onnxscript.class_hierarchy"
      value: "[\'DiTTransformer2DModel\', \'_DiTBlock\', \'DiffusionSelfAttention\', \'Sequential\', \'Linear\']"
    }
    metadata_props {
      key: "pkg.onnxscript.name_scopes"
      value: "[\'\', \'transformer_blocks.0\', \'attn1\', \'to_out\', \'0\']"
    }
  }
  node {
    input: "v_transformer_blocks.0.attn1.to_out.0.MatMul_51"
    input: "transformer_blocks.0.attn1.to_out.0.bias"
    output: "v_transformer_blocks.0.attn1.to_out.0.Add_52"
    name: "transformer_blocks.0/attn1/to_out/0/Add_node_52"
    op_type: "Add"
    metadata_props {
      key: "namespace"
      value: ": DiTTransformer2DModel/transformer_blocks.0: _DiTBlock/attn1: DiffusionSelfAttention/to_out: Sequential/0: Linear"
    }
    metadata_props {
      key: "pkg.onnxscript.class_hierarchy"
      value: "[\'DiTTransformer2DModel\', \'_DiTBlock\', \'DiffusionSelfAttention\', \'Sequential\', \'Linear\']"
    }
    metadata_props {
      key: "pkg.onnxscript.name_scopes"
      value: "[\'\', \'transformer_blocks.0\', \'attn1\', \'to_out\', \'0\']"
    }
  }
  node {
    input: "v_transformer_blocks.0.norm1.Split_33_2"
    input: "const_1d_0"
    output: "v_transformer_blocks.0.Unsqueeze_53"
    name: "transformer_blocks.0/Unsqueeze_node_53"
    op_type: "Unsqueeze"
    metadata_props {
      key: "namespace"
      value: ": DiTTransformer2DModel/transformer_blocks.0: _DiTBlock"
    }
    metadata_props {
      key: "pkg.onnxscript.class_hierarchy"
      value: "[\'DiTTransformer2DModel\', \'_DiTBlock\']"
    }
    metadata_props {
      key: "pkg.onnxscript.name_scopes"
      value: "[\'\', \'transformer_blocks.0\']"
    }
  }
  node {
    input: "v_transformer_blocks.0.attn1.to_out.0.Add_52"
    input: "v_transformer_blocks.0.Unsqueeze_53"
    output: "v_transformer_blocks.0.Mul_54"
    name: "transformer_blocks.0/Mul_node_54"
    op_type: "Mul"
    metadata_props {
      key: "namespace"
      value: ": DiTTransformer2DModel/transformer_blocks.0: _DiTBlock"
    }
    metadata_props {
      key: "pkg.onnxscript.class_hierarchy"
      value: "[\'DiTTransformer2DModel\', \'_DiTBlock\']"
    }
    metadata_props {
      key: "pkg.onnxscript.name_scopes"
      value: "[\'\', \'transformer_blocks.0\']"
    }
  }
  node {
    input: "v_pos_embed.Transpose_8"
    input: "v_transformer_blocks.0.Mul_54"
    input: "transformer_blocks.0.attn2.norm.weight"
    input: "transformer_blocks.0.attn2.norm.bias"
    output: "v_transformer_blocks.0.attn2.norm.LayerNormalization_56"
    output: "val_0"
    output: "val_1"
    output: "val_2"
    name: "node_SkipLayerNormalization_1"
    op_type: "SkipLayerNormalization"
    attribute {
      name: "epsilon"
      f: 1e-06
      type: FLOAT
    }
    domain: "com.microsoft"
    metadata_props {
      key: "namespace"
      value: ": DiTTransformer2DModel/transformer_blocks.0: _DiTBlock/attn2: _DiTCrossAttention/norm: LayerNorm"
    }
    metadata_props {
      key: "pkg.onnxscript.class_hierarchy"
      value: "[\'DiTTransformer2DModel\', \'_DiTBlock\', \'_DiTCrossAttention\', \'LayerNorm\']"
    }
    metadata_props {
      key: "pkg.onnxscript.name_scopes"
      value: "[\'\', \'transformer_blocks.0\', \'attn2\', \'norm\']"
    }
    metadata_props {
      key: "pkg.onnxscript.rewriter.rule_name"
      value: "AddLayerNormToSkipLayerNorm"
    }
  }
  node {
    input: "transformer_blocks.0.attn2.to_q.weight"
    output: "v_transformer_blocks.0.attn2.to_q.Transpose_57"
    name: "transformer_blocks.0/attn2/to_q/Transpose_node_57"
    op_type: "Transpose"
    attribute {
      name: "perm"
      ints: 1
      ints: 0
      type: INTS
    }
    metadata_props {
      key: "namespace"
      value: ": DiTTransformer2DModel/transformer_blocks.0: _DiTBlock/attn2: _DiTCrossAttention/to_q: Linear"
    }
    metadata_props {
      key: "pkg.onnxscript.class_hierarchy"
      value: "[\'DiTTransformer2DModel\', \'_DiTBlock\', \'_DiTCrossAttention\', \'Linear\']"
    }
    metadata_props {
      key: "pkg.onnxscript.name_scopes"
      value: "[\'\', \'transformer_blocks.0\', \'attn2\', \'to_q\']"
    }
  }
  node {
    input: "v_transformer_blocks.0.attn2.norm.LayerNormalization_56"
    input: "v_transformer_blocks.0.attn2.to_q.Transpose_57"
    output: "v_transformer_blocks.0.attn2.to_q.MatMul_58"
    name: "transformer_blocks.0/attn2/to_q/MatMul_node_58"
    op_type: "MatMul"
    metadata_props {
      key: "namespace"
      value: ": DiTTransformer2DModel/transformer_blocks.0: _DiTBlock/attn2: _DiTCrossAttention/to_q: Linear"
    }
    metadata_props {
      key: "pkg.onnxscript.class_hierarchy"
      value: "[\'DiTTransformer2DModel\', \'_DiTBlock\', \'_DiTCrossAttention\', \'Linear\']"
    }
    metadata_props {
      key: "pkg.onnxscript.name_scopes"
      value: "[\'\', \'transformer_blocks.0\', \'attn2\', \'to_q\']"
    }
  }
  node {
    input: "v_transformer_blocks.0.attn2.to_q.MatMul_58"
    input: "transformer_blocks.0.attn2.to_q.bias"
    output: "v_transformer_blocks.0.attn2.to_q.Add_59"
    name: "transformer_blocks.0/attn2/to_q/Add_node_59"
    op_type: "Add"
    metadata_props {
      key: "namespace"
      value: ": DiTTransformer2DModel/transformer_blocks.0: _DiTBlock/attn2: _DiTCrossAttention/to_q: Linear"
    }
    metadata_props {
      key: "pkg.onnxscript.class_hierarchy"
      value: "[\'DiTTransformer2DModel\', \'_DiTBlock\', \'_DiTCrossAttention\', \'Linear\']"
    }
    metadata_props {
      key: "pkg.onnxscript.name_scopes"
      value: "[\'\', \'transformer_blocks.0\', \'attn2\', \'to_q\']"
    }
  }
  node {
    input: "transformer_blocks.0.attn2.to_k.weight"
    output: "v_transformer_blocks.0.attn2.to_k.Transpose_60"
    name: "transformer_blocks.0/attn2/to_k/Transpose_node_60"
    op_type: "Transpose"
    attribute {
      name: "perm"
      ints: 1
      ints: 0
      type: INTS
    }
    metadata_props {
      key: "namespace"
      value: ": DiTTransformer2DModel/transformer_blocks.0: _DiTBlock/attn2: _DiTCrossAttention/to_k: Linear"
    }
    metadata_props {
      key: "pkg.onnxscript.class_hierarchy"
      value: "[\'DiTTransformer2DModel\', \'_DiTBlock\', \'_DiTCrossAttention\', \'Linear\']"
    }
    metadata_props {
      key: "pkg.onnxscript.name_scopes"
      value: "[\'\', \'transformer_blocks.0\', \'attn2\', \'to_k\']"
    }
  }
  node {
    input: "v_caption_projection.Add_27"
    input: "v_transformer_blocks.0.attn2.to_k.Transpose_60"
    output: "v_transformer_blocks.0.attn2.to_k.MatMul_61"
    name: "transformer_blocks.0/attn2/to_k/MatMul_node_61"
    op_type: "MatMul"
    metadata_props {
      key: "namespace"
      value: ": DiTTransformer2DModel/transformer_blocks.0: _DiTBlock/attn2: _DiTCrossAttention/to_k: Linear"
    }
    metadata_props {
      key: "pkg.onnxscript.class_hierarchy"
      value: "[\'DiTTransformer2DModel\', \'_DiTBlock\', \'_DiTCrossAttention\', \'Linear\']"
    }
    metadata_props {
      key: "pkg.onnxscript.name_scopes"
      value: "[\'\', \'transformer_blocks.0\', \'attn2\', \'to_k\']"
    }
  }
  node {
    input: "v_transformer_blocks.0.attn2.to_k.MatMul_61"
    input: "transformer_blocks.0.attn2.to_k.bias"
    output: "v_transformer_blocks.0.attn2.to_k.Add_62"
    name: "transformer_blocks.0/attn2/to_k/Add_node_62"
    op_type: "Add"
    metadata_props {
      key: "namespace"
      value: ": DiTTransformer2DModel/transformer_blocks.0: _DiTBlock/attn2: _DiTCrossAttention/to_k: Linear"
    }
    metadata_props {
      key: "pkg.onnxscript.class_hierarchy"
      value: "[\'DiTTransformer2DModel\', \'_DiTBlock\', \'_DiTCrossAttention\', \'Linear\']"
    }
    metadata_props {
      key: "pkg.onnxscript.name_scopes"
      value: "[\'\', \'transformer_blocks.0\', \'attn2\', \'to_k\']"
    }
  }
  node {
    input: "transformer_blocks.0.attn2.to_v.weight"
    output: "v_transformer_blocks.0.attn2.to_v.Transpose_63"
    name: "transformer_blocks.0/attn2/to_v/Transpose_node_63"
    op_type: "Transpose"
    attribute {
      name: "perm"
      ints: 1
      ints: 0
      type: INTS
    }
    metadata_props {
      key: "namespace"
      value: ": DiTTransformer2DModel/transformer_blocks.0: _DiTBlock/attn2: _DiTCrossAttention/to_v: Linear"
    }
    metadata_props {
      key: "pkg.onnxscript.class_hierarchy"
      value: "[\'DiTTransformer2DModel\', \'_DiTBlock\', \'_DiTCrossAttention\', \'Linear\']"
    }
    metadata_props {
      key: "pkg.onnxscript.name_scopes"
      value: "[\'\', \'transformer_blocks.0\', \'attn2\', \'to_v\']"
    }
  }
  node {
    input: "v_caption_projection.Add_27"
    input: "v_transformer_blocks.0.attn2.to_v.Transpose_63"
    output: "v_transformer_blocks.0.attn2.to_v.MatMul_64"
    name: "transformer_blocks.0/attn2/to_v/MatMul_node_64"
    op_type: "MatMul"
    metadata_props {
      key: "namespace"
      value: ": DiTTransformer2DModel/transformer_blocks.0: _DiTBlock/attn2: _DiTCrossAttention/to_v: Linear"
    }
    metadata_props {
      key: "pkg.onnxscript.class_hierarchy"
      value: "[\'DiTTransformer2DModel\', \'_DiTBlock\', \'_DiTCrossAttention\', \'Linear\']"
    }
    metadata_props {
      key: "pkg.onnxscript.name_scopes"
      value: "[\'\', \'transformer_blocks.0\', \'attn2\', \'to_v\']"
    }
  }
  node {
    input: "v_transformer_blocks.0.attn2.to_v.MatMul_64"
    input: "transformer_blocks.0.attn2.to_v.bias"
    output: "v_transformer_blocks.0.attn2.to_v.Add_65"
    name: "transformer_blocks.0/attn2/to_v/Add_node_65"
    op_type: "Add"
    metadata_props {
      key: "namespace"
      value: ": DiTTransformer2DModel/transformer_blocks.0: _DiTBlock/attn2: _DiTCrossAttention/to_v: Linear"
    }
    metadata_props {
      key: "pkg.onnxscript.class_hierarchy"
      value: "[\'DiTTransformer2DModel\', \'_DiTBlock\', \'_DiTCrossAttention\', \'Linear\']"
    }
    metadata_props {
      key: "pkg.onnxscript.name_scopes"
      value: "[\'\', \'transformer_blocks.0\', \'attn2\', \'to_v\']"
    }
  }
  node {
    input: "v_transformer_blocks.0.attn2.to_q.Add_59"
    input: "v_transformer_blocks.0.attn2.to_k.Add_62"
    input: "v_transformer_blocks.0.attn2.to_v.Add_65"
    output: "v_transformer_blocks.0.attn2.Attention_66"
    name: "transformer_blocks.0/attn2/Attention_node_66"
    op_type: "Attention"
    attribute {
      name: "is_causal"
      i: 0
      type: INT
    }
    attribute {
      name: "kv_num_heads"
      i: 2
      type: INT
    }
    attribute {
      name: "q_num_heads"
      i: 2
      type: INT
    }
    attribute {
      name: "scale"
      f: 0.25
      type: FLOAT
    }
    metadata_props {
      key: "namespace"
      value: ": DiTTransformer2DModel/transformer_blocks.0: _DiTBlock/attn2: _DiTCrossAttention"
    }
    metadata_props {
      key: "pkg.onnxscript.class_hierarchy"
      value: "[\'DiTTransformer2DModel\', \'_DiTBlock\', \'_DiTCrossAttention\']"
    }
    metadata_props {
      key: "pkg.onnxscript.name_scopes"
      value: "[\'\', \'transformer_blocks.0\', \'attn2\']"
    }
  }
  node {
    input: "transformer_blocks.0.attn2.to_out.0.weight"
    output: "v_transformer_blocks.0.attn2.to_out.0.Transpose_67"
    name: "transformer_blocks.0/attn2/to_out/0/Transpose_node_67"
    op_type: "Transpose"
    attribute {
      name: "perm"
      ints: 1
      ints: 0
      type: INTS
    }
    metadata_props {
      key: "namespace"
      value: ": DiTTransformer2DModel/transformer_blocks.0: _DiTBlock/attn2: _DiTCrossAttention/to_out: Sequential/0: Linear"
    }
    metadata_props {
      key: "pkg.onnxscript.class_hierarchy"
      value: "[\'DiTTransformer2DModel\', \'_DiTBlock\', \'_DiTCrossAttention\', \'Sequential\', \'Linear\']"
    }
    metadata_props {
      key: "pkg.onnxscript.name_scopes"
      value: "[\'\', \'transformer_blocks.0\', \'attn2\', \'to_out\', \'0\']"
    }
  }
  node {
    input: "v_transformer_blocks.0.attn2.Attention_66"
    input: "v_transformer_blocks.0.attn2.to_out.0.Transpose_67"
    output: "v_transformer_blocks.0.attn2.to_out.0.MatMul_68"
    name: "transformer_blocks.0/attn2/to_out/0/MatMul_node_68"
    op_type: "MatMul"
    metadata_props {
      key: "namespace"
      value: ": DiTTransformer2DModel/transformer_blocks.0: _DiTBlock/attn2: _DiTCrossAttention/to_out: Sequential/0: Linear"
    }
    metadata_props {
      key: "pkg.onnxscript.class_hierarchy"
      value: "[\'DiTTransformer2DModel\', \'_DiTBlock\', \'_DiTCrossAttention\', \'Sequential\', \'Linear\']"
    }
    metadata_props {
      key: "pkg.onnxscript.name_scopes"
      value: "[\'\', \'transformer_blocks.0\', \'attn2\', \'to_out\', \'0\']"
    }
  }
  node {
    input: "v_transformer_blocks.0.attn2.to_out.0.MatMul_68"
    input: "transformer_blocks.0.attn2.to_out.0.bias"
    output: "v_transformer_blocks.0.attn2.to_out.0.Add_69"
    name: "transformer_blocks.0/attn2/to_out/0/Add_node_69"
    op_type: "Add"
    metadata_props {
      key: "namespace"
      value: ": DiTTransformer2DModel/transformer_blocks.0: _DiTBlock/attn2: _DiTCrossAttention/to_out: Sequential/0: Linear"
    }
    metadata_props {
      key: "pkg.onnxscript.class_hierarchy"
      value: "[\'DiTTransformer2DModel\', \'_DiTBlock\', \'_DiTCrossAttention\', \'Sequential\', \'Linear\']"
    }
    metadata_props {
      key: "pkg.onnxscript.name_scopes"
      value: "[\'\', \'transformer_blocks.0\', \'attn2\', \'to_out\', \'0\']"
    }
  }
  node {
    input: "v_transformer_blocks.0.attn2.to_out.0.Add_69"
    input: "val_2"
    input: "transformer_blocks.0.norm1.norm.weight"
    input: "transformer_blocks.0.norm1.norm.bias"
    output: "v_transformer_blocks.0.LayerNormalization_71"
    output: "val_3"
    output: "val_4"
    output: "val_5"
    name: "node_SkipLayerNormalization_2"
    op_type: "SkipLayerNormalization"
    attribute {
      name: "epsilon"
      f: 1e-06
      type: FLOAT
    }
    domain: "com.microsoft"
    metadata_props {
      key: "namespace"
      value: ": DiTTransformer2DModel/transformer_blocks.0: _DiTBlock"
    }
    metadata_props {
      key: "pkg.onnxscript.class_hierarchy"
      value: "[\'DiTTransformer2DModel\', \'_DiTBlock\']"
    }
    metadata_props {
      key: "pkg.onnxscript.name_scopes"
      value: "[\'\', \'transformer_blocks.0\']"
    }
    metadata_props {
      key: "pkg.onnxscript.rewriter.rule_name"
      value: "AddLayerNormToSkipLayerNorm"
    }
  }
  node {
    input: "v_transformer_blocks.0.norm1.Split_33_4"
    input: "const_1d_0"
    output: "v_transformer_blocks.0.Unsqueeze_72"
    name: "transformer_blocks.0/Unsqueeze_node_72"
    op_type: "Unsqueeze"
    metadata_props {
      key: "namespace"
      value: ": DiTTransformer2DModel/transformer_blocks.0: _DiTBlock"
    }
    metadata_props {
      key: "pkg.onnxscript.class_hierarchy"
      value: "[\'DiTTransformer2DModel\', \'_DiTBlock\']"
    }
    metadata_props {
      key: "pkg.onnxscript.name_scopes"
      value: "[\'\', \'transformer_blocks.0\']"
    }
  }
  node {
    input: "const_1.0_f32"
    input: "v_transformer_blocks.0.Unsqueeze_72"
    output: "v_transformer_blocks.0.Add_73"
    name: "transformer_blocks.0/Add_node_73"
    op_type: "Add"
    metadata_props {
      key: "namespace"
      value: ": DiTTransformer2DModel/transformer_blocks.0: _DiTBlock"
    }
    metadata_props {
      key: "pkg.onnxscript.class_hierarchy"
      value: "[\'DiTTransformer2DModel\', \'_DiTBlock\']"
    }
    metadata_props {
      key: "pkg.onnxscript.name_scopes"
      value: "[\'\', \'transformer_blocks.0\']"
    }
  }
  node {
    input: "v_transformer_blocks.0.LayerNormalization_71"
    input: "v_transformer_blocks.0.Add_73"
    output: "v_transformer_blocks.0.Mul_74"
    name: "transformer_blocks.0/Mul_node_74"
    op_type: "Mul"
    metadata_props {
      key: "namespace"
      value: ": DiTTransformer2DModel/transformer_blocks.0: _DiTBlock"
    }
    metadata_props {
      key: "pkg.onnxscript.class_hierarchy"
      value: "[\'DiTTransformer2DModel\', \'_DiTBlock\']"
    }
    metadata_props {
      key: "pkg.onnxscript.name_scopes"
      value: "[\'\', \'transformer_blocks.0\']"
    }
  }
  node {
    input: "v_transformer_blocks.0.norm1.Split_33_3"
    input: "const_1d_0"
    output: "v_transformer_blocks.0.Unsqueeze_75"
    name: "transformer_blocks.0/Unsqueeze_node_75"
    op_type: "Unsqueeze"
    metadata_props {
      key: "namespace"
      value: ": DiTTransformer2DModel/transformer_blocks.0: _DiTBlock"
    }
    metadata_props {
      key: "pkg.onnxscript.class_hierarchy"
      value: "[\'DiTTransformer2DModel\', \'_DiTBlock\']"
    }
    metadata_props {
      key: "pkg.onnxscript.name_scopes"
      value: "[\'\', \'transformer_blocks.0\']"
    }
  }
  node {
    input: "v_transformer_blocks.0.Mul_74"
    input: "v_transformer_blocks.0.Unsqueeze_75"
    output: "v_transformer_blocks.0.Add_76"
    name: "transformer_blocks.0/Add_node_76"
    op_type: "Add"
    metadata_props {
      key: "namespace"
      value: ": DiTTransformer2DModel/transformer_blocks.0: _DiTBlock"
    }
    metadata_props {
      key: "pkg.onnxscript.class_hierarchy"
      value: "[\'DiTTransformer2DModel\', \'_DiTBlock\']"
    }
    metadata_props {
      key: "pkg.onnxscript.name_scopes"
      value: "[\'\', \'transformer_blocks.0\']"
    }
  }
  node {
    input: "transformer_blocks.0.ff.linear_1.weight"
    output: "v_transformer_blocks.0.ff.linear_1.Transpose_77"
    name: "transformer_blocks.0/ff/linear_1/Transpose_node_77"
    op_type: "Transpose"
    attribute {
      name: "perm"
      ints: 1
      ints: 0
      type: INTS
    }
    metadata_props {
      key: "namespace"
      value: ": DiTTransformer2DModel/transformer_blocks.0: _DiTBlock/ff: DiffusionFFN/linear_1: Linear"
    }
    metadata_props {
      key: "pkg.onnxscript.class_hierarchy"
      value: "[\'DiTTransformer2DModel\', \'_DiTBlock\', \'DiffusionFFN\', \'Linear\']"
    }
    metadata_props {
      key: "pkg.onnxscript.name_scopes"
      value: "[\'\', \'transformer_blocks.0\', \'ff\', \'linear_1\']"
    }
  }
  node {
    input: "v_transformer_blocks.0.Add_76"
    input: "v_transformer_blocks.0.ff.linear_1.Transpose_77"
    output: "v_transformer_blocks.0.ff.linear_1.MatMul_78"
    name: "transformer_blocks.0/ff/linear_1/MatMul_node_78"
    op_type: "MatMul"
    metadata_props {
      key: "namespace"
      value: ": DiTTransformer2DModel/transformer_blocks.0: _DiTBlock/ff: DiffusionFFN/linear_1: Linear"
    }
    metadata_props {
      key: "pkg.onnxscript.class_hierarchy"
      value: "[\'DiTTransformer2DModel\', \'_DiTBlock\', \'DiffusionFFN\', \'Linear\']"
    }
    metadata_props {
      key: "pkg.onnxscript.name_scopes"
      value: "[\'\', \'transformer_blocks.0\', \'ff\', \'linear_1\']"
    }
  }
  node {
    input: "v_transformer_blocks.0.ff.linear_1.MatMul_78"
    input: "transformer_blocks.0.ff.linear_1.bias"
    output: "v_transformer_blocks.0.ff.linear_1.Add_79"
    name: "transformer_blocks.0/ff/linear_1/Add_node_79"
    op_type: "Add"
    metadata_props {
      key: "namespace"
      value: ": DiTTransformer2DModel/transformer_blocks.0: _DiTBlock/ff: DiffusionFFN/linear_1: Linear"
    }
    metadata_props {
      key: "pkg.onnxscript.class_hierarchy"
      value: "[\'DiTTransformer2DModel\', \'_DiTBlock\', \'DiffusionFFN\', \'Linear\']"
    }
    metadata_props {
      key: "pkg.onnxscript.name_scopes"
      value: "[\'\', \'transformer_blocks.0\', \'ff\', \'linear_1\']"
    }
  }
  node {
    input: "v_transformer_blocks.0.ff.linear_1.Add_79"
    output: "v_transformer_blocks.0.ff.Gelu_80"
    name: "transformer_blocks.0/ff/Gelu_node_80"
    op_type: "Gelu"
    metadata_props {
      key: "namespace"
      value: ": DiTTransformer2DModel/transformer_blocks.0: _DiTBlock/ff: DiffusionFFN"
    }
    metadata_props {
      key: "pkg.onnxscript.class_hierarchy"
      value: "[\'DiTTransformer2DModel\', \'_DiTBlock\', \'DiffusionFFN\']"
    }
    metadata_props {
      key: "pkg.onnxscript.name_scopes"
      value: "[\'\', \'transformer_blocks.0\', \'ff\']"
    }
  }
  node {
    input: "transformer_blocks.0.ff.linear_2.weight"
    output: "v_transformer_blocks.0.ff.linear_2.Transpose_81"
    name: "transformer_blocks.0/ff/linear_2/Transpose_node_81"
    op_type: "Transpose"
    attribute {
      name: "perm"
      ints: 1
      ints: 0
      type: INTS
    }
    metadata_props {
      key: "namespace"
      value: ": DiTTransformer2DModel/transformer_blocks.0: _DiTBlock/ff: DiffusionFFN/linear_2: Linear"
    }
    metadata_props {
      key: "pkg.onnxscript.class_hierarchy"
      value: "[\'DiTTransformer2DModel\', \'_DiTBlock\', \'DiffusionFFN\', \'Linear\']"
    }
    metadata_props {
      key: "pkg.onnxscript.name_scopes"
      value: "[\'\', \'transformer_blocks.0\', \'ff\', \'linear_2\']"
    }
  }
  node {
    input: "v_transformer_blocks.0.ff.Gelu_80"
    input: "v_transformer_blocks.0.ff.linear_2.Transpose_81"
    output: "v_transformer_blocks.0.ff.linear_2.MatMul_82"
    name: "transformer_blocks.0/ff/linear_2/MatMul_node_82"
    op_type: "MatMul"
    metadata_props {
      key: "namespace"
      value: ": DiTTransformer2DModel/transformer_blocks.0: _DiTBlock/ff: DiffusionFFN/linear_2: Linear"
    }
    metadata_props {
      key: "pkg.onnxscript.class_hierarchy"
      value: "[\'DiTTransformer2DModel\', \'_DiTBlock\', \'DiffusionFFN\', \'Linear\']"
    }
    metadata_props {
      key: "pkg.onnxscript.name_scopes"
      value: "[\'\', \'transformer_blocks.0\', \'ff\', \'linear_2\']"
    }
  }
  node {
    input: "v_transformer_blocks.0.ff.linear_2.MatMul_82"
    input: "transformer_blocks.0.ff.linear_2.bias"
    output: "v_transformer_blocks.0.ff.linear_2.Add_83"
    name: "transformer_blocks.0/ff/linear_2/Add_node_83"
    op_type: "Add"
    metadata_props {
      key: "namespace"
      value: ": DiTTransformer2DModel/transformer_blocks.0: _DiTBlock/ff: DiffusionFFN/linear_2: Linear"
    }
    metadata_props {
      key: "pkg.onnxscript.class_hierarchy"
      value: "[\'DiTTransformer2DModel\', \'_DiTBlock\', \'DiffusionFFN\', \'Linear\']"
    }
    metadata_props {
      key: "pkg.onnxscript.name_scopes"
      value: "[\'\', \'transformer_blocks.0\', \'ff\', \'linear_2\']"
    }
  }
  node {
    input: "v_transformer_blocks.0.norm1.Split_33_5"
    input: "const_1d_0"
    output: "v_transformer_blocks.0.Unsqueeze_84"
    name: "transformer_blocks.0/Unsqueeze_node_84"
    op_type: "Unsqueeze"
    metadata_props {
      key: "namespace"
      value: ": DiTTransformer2DModel/transformer_blocks.0: _DiTBlock"
    }
    metadata_props {
      key: "pkg.onnxscript.class_hierarchy"
      value: "[\'DiTTransformer2DModel\', \'_DiTBlock\']"
    }
    metadata_props {
      key: "pkg.onnxscript.name_scopes"
      value: "[\'\', \'transformer_blocks.0\']"
    }
  }
  node {
    input: "v_transformer_blocks.0.ff.linear_2.Add_83"
    input: "v_transformer_blocks.0.Unsqueeze_84"
    output: "v_transformer_blocks.0.Mul_85"
    name: "transformer_blocks.0/Mul_node_85"
    op_type: "Mul"
    metadata_props {
      key: "namespace"
      value: ": DiTTransformer2DModel/transformer_blocks.0: _DiTBlock"
    }
    metadata_props {
      key: "pkg.onnxscript.class_hierarchy"
      value: "[\'DiTTransformer2DModel\', \'_DiTBlock\']"
    }
    metadata_props {
      key: "pkg.onnxscript.name_scopes"
      value: "[\'\', \'transformer_blocks.0\']"
    }
  }
  node {
    input: "norm_out.linear.weight"
    output: "v_norm_out.linear.Transpose_89"
    name: "norm_out/linear/Transpose_node_89"
    op_type: "Transpose"
    attribute {
      name: "perm"
      ints: 1
      ints: 0
      type: INTS
    }
    metadata_props {
      key: "namespace"
      value: ": DiTTransformer2DModel/norm_out: AdaLayerNormOutput/linear: Linear"
    }
    metadata_props {
      key: "pkg.onnxscript.class_hierarchy"
      value: "[\'DiTTransformer2DModel\', \'AdaLayerNormOutput\', \'Linear\']"
    }
    metadata_props {
      key: "pkg.onnxscript.name_scopes"
      value: "[\'\', \'norm_out\', \'linear\']"
    }
  }
  node {
    input: "v_transformer_blocks.0.norm1._silu.Mul_29"
    input: "v_norm_out.linear.Transpose_89"
    output: "v_norm_out.linear.MatMul_90"
    name: "norm_out/linear/MatMul_node_90"
    op_type: "MatMul"
    metadata_props {
      key: "namespace"
      value: ": DiTTransformer2DModel/norm_out: AdaLayerNormOutput/linear: Linear"
    }
    metadata_props {
      key: "pkg.onnxscript.class_hierarchy"
      value: "[\'DiTTransformer2DModel\', \'AdaLayerNormOutput\', \'Linear\']"
    }
    metadata_props {
      key: "pkg.onnxscript.name_scopes"
      value: "[\'\', \'norm_out\', \'linear\']"
    }
  }
  node {
    input: "v_norm_out.linear.MatMul_90"
    input: "norm_out.linear.bias"
    output: "v_norm_out.linear.Add_91"
    name: "norm_out/linear/Add_node_91"
    op_type: "Add"
    metadata_props {
      key: "namespace"
      value: ": DiTTransformer2DModel/norm_out: AdaLayerNormOutput/linear: Linear"
    }
    metadata_props {
      key: "pkg.onnxscript.class_hierarchy"
      value: "[\'DiTTransformer2DModel\', \'AdaLayerNormOutput\', \'Linear\']"
    }
    metadata_props {
      key: "pkg.onnxscript.name_scopes"
      value: "[\'\', \'norm_out\', \'linear\']"
    }
  }
  node {
    input: "v_norm_out.linear.Add_91"
    output: "v_norm_out.Split_92_0"
    output: "v_norm_out.Split_92_1"
    name: "norm_out/Split_node_92"
    op_type: "Split"
    attribute {
      name: "num_outputs"
      i: 2
      type: INT
    }
    attribute {
      name: "axis"
      i: -1
      type: INT
    }
    metadata_props {
      key: "namespace"
      value: ": DiTTransformer2DModel/norm_out: AdaLayerNormOutput"
    }
    metadata_props {
      key: "pkg.onnxscript.class_hierarchy"
      value: "[\'DiTTransformer2DModel\', \'AdaLayerNormOutput\']"
    }
    metadata_props {
      key: "pkg.onnxscript.name_scopes"
      value: "[\'\', \'norm_out\']"
    }
  }
  node {
    input: "val_5"
    input: "v_transformer_blocks.0.Mul_85"
    input: "norm_out.norm.weight"
    input: "norm_out.norm.bias"
    output: "v_norm_out.norm.LayerNormalization_93"
    output: "val_6"
    output: "val_7"
    output: "val_8"
    name: "node_SkipLayerNormalization_3"
    op_type: "SkipLayerNormalization"
    attribute {
      name: "epsilon"
      f: 1e-06
      type: FLOAT
    }
    domain: "com.microsoft"
    metadata_props {
      key: "namespace"
      value: ": DiTTransformer2DModel/norm_out: AdaLayerNormOutput/norm: LayerNorm"
    }
    metadata_props {
      key: "pkg.onnxscript.class_hierarchy"
      value: "[\'DiTTransformer2DModel\', \'AdaLayerNormOutput\', \'LayerNorm\']"
    }
    metadata_props {
      key: "pkg.onnxscript.name_scopes"
      value: "[\'\', \'norm_out\', \'norm\']"
    }
    metadata_props {
      key: "pkg.onnxscript.rewriter.rule_name"
      value: "AddLayerNormToSkipLayerNorm"
    }
  }
  node {
    input: "v_norm_out.Split_92_1"
    input: "const_1d_0"
    output: "v_norm_out.Unsqueeze_94"
    name: "norm_out/Unsqueeze_node_94"
    op_type: "Unsqueeze"
    metadata_props {
      key: "namespace"
      value: ": DiTTransformer2DModel/norm_out: AdaLayerNormOutput"
    }
    metadata_props {
      key: "pkg.onnxscript.class_hierarchy"
      value: "[\'DiTTransformer2DModel\', \'AdaLayerNormOutput\']"
    }
    metadata_props {
      key: "pkg.onnxscript.name_scopes"
      value: "[\'\', \'norm_out\']"
    }
  }
  node {
    input: "const_1.0_f32"
    input: "v_norm_out.Unsqueeze_94"
    output: "v_norm_out.Add_95"
    name: "norm_out/Add_node_95"
    op_type: "Add"
    metadata_props {
      key: "namespace"
      value: ": DiTTransformer2DModel/norm_out: AdaLayerNormOutput"
    }
    metadata_props {
      key: "pkg.onnxscript.class_hierarchy"
      value: "[\'DiTTransformer2DModel\', \'AdaLayerNormOutput\']"
    }
    metadata_props {
      key: "pkg.onnxscript.name_scopes"
      value: "[\'\', \'norm_out\']"
    }
  }
  node {
    input: "v_norm_out.norm.LayerNormalization_93"
    input: "v_norm_out.Add_95"
    output: "v_norm_out.Mul_96"
    name: "norm_out/Mul_node_96"
    op_type: "Mul"
    metadata_props {
      key: "namespace"
      value: ": DiTTransformer2DModel/norm_out: AdaLayerNormOutput"
    }
    metadata_props {
      key: "pkg.onnxscript.class_hierarchy"
      value: "[\'DiTTransformer2DModel\', \'AdaLayerNormOutput\']"
    }
    metadata_props {
      key: "pkg.onnxscript.name_scopes"
      value: "[\'\', \'norm_out\']"
    }
  }
  node {
    input: "v_norm_out.Split_92_0"
    input: "const_1d_0"
    output: "v_norm_out.Unsqueeze_97"
    name: "norm_out/Unsqueeze_node_97"
    op_type: "Unsqueeze"
    metadata_props {
      key: "namespace"
      value: ": DiTTransformer2DModel/norm_out: AdaLayerNormOutput"
    }
    metadata_props {
      key: "pkg.onnxscript.class_hierarchy"
      value: "[\'DiTTransformer2DModel\', \'AdaLayerNormOutput\']"
    }
    metadata_props {
      key: "pkg.onnxscript.name_scopes"
      value: "[\'\', \'norm_out\']"
    }
  }
  node {
    input: "v_norm_out.Mul_96"
    input: "v_norm_out.Unsqueeze_97"
    output: "v_norm_out.Add_98"
    name: "norm_out/Add_node_98"
    op_type: "Add"
    metadata_props {
      key: "namespace"
      value: ": DiTTransformer2DModel/norm_out: AdaLayerNormOutput"
    }
    metadata_props {
      key: "pkg.onnxscript.class_hierarchy"
      value: "[\'DiTTransformer2DModel\', \'AdaLayerNormOutput\']"
    }
    metadata_props {
      key: "pkg.onnxscript.name_scopes"
      value: "[\'\', \'norm_out\']"
    }
  }
  node {
    input: "proj_out.weight"
    output: "v_proj_out.Transpose_99"
    name: "proj_out/Transpose_node_99"
    op_type: "Transpose"
    attribute {
      name: "perm"
      ints: 1
      ints: 0
      type: INTS
    }
    metadata_props {
      key: "namespace"
      value: ": DiTTransformer2DModel/proj_out: Linear"
    }
    metadata_props {
      key: "pkg.onnxscript.class_hierarchy"
      value: "[\'DiTTransformer2DModel\', \'Linear\']"
    }
    metadata_props {
      key: "pkg.onnxscript.name_scopes"
      value: "[\'\', \'proj_out\']"
    }
  }
  node {
    input: "v_norm_out.Add_98"
    input: "v_proj_out.Transpose_99"
    output: "v_proj_out.MatMul_100"
    name: "proj_out/MatMul_node_100"
    op_type: "MatMul"
    metadata_props {
      key: "namespace"
      value: ": DiTTransformer2DModel/proj_out: Linear"
    }
    metadata_props {
      key: "pkg.onnxscript.class_hierarchy"
      value: "[\'DiTTransformer2DModel\', \'Linear\']"
    }
    metadata_props {
      key: "pkg.onnxscript.name_scopes"
      value: "[\'\', \'proj_out\']"
    }
  }
  node {
    input: "v_proj_out.MatMul_100"
    input: "proj_out.bias"
    output: "v_proj_out.Add_101"
    name: "proj_out/Add_node_101"
    op_type: "Add"
    metadata_props {
      key: "namespace"
      value: ": DiTTransformer2DModel/proj_out: Linear"
    }
    metadata_props {
      key: "pkg.onnxscript.class_hierarchy"
      value: "[\'DiTTransformer2DModel\', \'Linear\']"
    }
    metadata_props {
      key: "pkg.onnxscript.name_scopes"
      value: "[\'\', \'proj_out\']"
    }
  }
  node {
    input: "sample"
    output: "v_Shape_102"
    name: "Shape_node_102"
    op_type: "Shape"
    attribute {
      name: "end"
      i: 1
      type: INT
    }
    attribute {
      name: "start"
      i: 0
      type: INT
    }
    metadata_props {
      key: "namespace"
      value: ": DiTTransformer2DModel"
    }
    metadata_props {
      key: "pkg.onnxscript.class_hierarchy"
      value: "[\'DiTTransformer2DModel\']"
    }
    metadata_props {
      key: "pkg.onnxscript.name_scopes"
      value: "[\'\']"
    }
  }
  node {
    input: "sample"
    output: "v_Shape_103"
    name: "Shape_node_103"
    op_type: "Shape"
    attribute {
      name: "end"
      i: 3
      type: INT
    }
    attribute {
      name: "start"
      i: 2
      type: INT
    }
    metadata_props {
      key: "namespace"
      value: ": DiTTransformer2DModel"
    }
    metadata_props {
      key: "pkg.onnxscript.class_hierarchy"
      value: "[\'DiTTransformer2DModel\']"
    }
    metadata_props {
      key: "pkg.onnxscript.name_scopes"
      value: "[\'\']"
    }
  }
  node {
    input: "sample"
    output: "v_Shape_104"
    name: "Shape_node_104"
    op_type: "Shape"
    attribute {
      name: "end"
      i: 4
      type: INT
    }
    attribute {
      name: "start"
      i: 3
      type: INT
    }
    metadata_props {
      key: "namespace"
      value: ": DiTTransformer2DModel"
    }
    metadata_props {
      key: "pkg.onnxscript.class_hierarchy"
      value: "[\'DiTTransformer2DModel\']"
    }
    metadata_props {
      key: "pkg.onnxscript.name_scopes"
      value: "[\'\']"
    }
  }
  node {
    output: "v_Constant_105"
    name: "Constant_node_105"
    op_type: "Constant"
    attribute {
      name: "value_ints"
      ints: 2
      type: INTS
    }
    metadata_props {
      key: "namespace"
      value: ": DiTTransformer2DModel"
    }
    metadata_props {
      key: "pkg.onnxscript.class_hierarchy"
      value: "[\'DiTTransformer2DModel\']"
    }
    metadata_props {
      key: "pkg.onnxscript.name_scopes"
      value: "[\'\']"
    }
  }
  node {
    input: "v_Shape_103"
    input: "v_Constant_105"
    output: "v_Div_106"
    name: "Div_node_106"
    op_type: "Div"
    metadata_props {
      key: "namespace"
      value: ": DiTTransformer2DModel"
    }
    metadata_props {
      key: "pkg.onnxscript.class_hierarchy"
      value: "[\'DiTTransformer2DModel\']"
    }
    metadata_props {
      key: "pkg.onnxscript.name_scopes"
      value: "[\'\']"
    }
  }
  node {
    input: "v_Shape_104"
    input: "v_Constant_105"
    output: "v_Div_108"
    name: "Div_node_108"
    op_type: "Div"
    metadata_props {
      key: "namespace"
      value: ": DiTTransformer2DModel"
    }
    metadata_props {
      key: "pkg.onnxscript.class_hierarchy"
      value: "[\'DiTTransformer2DModel\']"
    }
    metadata_props {
      key: "pkg.onnxscript.name_scopes"
      value: "[\'\']"
    }
  }
  node {
    output: "v_Constant_109"
    name: "Constant_node_109"
    op_type: "Constant"
    attribute {
      name: "value_ints"
      ints: 2
      ints: 2
      ints: 4
      type: INTS
    }
    metadata_props {
      key: "namespace"
      value: ": DiTTransformer2DModel"
    }
    metadata_props {
      key: "pkg.onnxscript.class_hierarchy"
      value: "[\'DiTTransformer2DModel\']"
    }
    metadata_props {
      key: "pkg.onnxscript.name_scopes"
      value: "[\'\']"
    }
  }
  node {
    input: "v_Shape_102"
    input: "v_Div_106"
    input: "v_Div_108"
    input: "v_Constant_109"
    output: "v_Concat_110"
    name: "Concat_node_110"
    op_type: "Concat"
    attribute {
      name: "axis"
      i: 0
      type: INT
    }
    metadata_props {
      key: "namespace"
      value: ": DiTTransformer2DModel"
    }
    metadata_props {
      key: "pkg.onnxscript.class_hierarchy"
      value: "[\'DiTTransformer2DModel\']"
    }
    metadata_props {
      key: "pkg.onnxscript.name_scopes"
      value: "[\'\']"
    }
  }
  node {
    input: "v_proj_out.Add_101"
    input: "v_Concat_110"
    output: "v_Reshape_111"
    name: "Reshape_node_111"
    op_type: "Reshape"
    metadata_props {
      key: "namespace"
      value: ": DiTTransformer2DModel"
    }
    metadata_props {
      key: "pkg.onnxscript.class_hierarchy"
      value: "[\'DiTTransformer2DModel\']"
    }
    metadata_props {
      key: "pkg.onnxscript.name_scopes"
      value: "[\'\']"
    }
  }
  node {
    input: "v_Reshape_111"
    output: "v_Transpose_112"
    name: "Transpose_node_112"
    op_type: "Transpose"
    attribute {
      name: "perm"
      ints: 0
      ints: 5
      ints: 1
      ints: 3
      ints: 2
      ints: 4
      type: INTS
    }
    metadata_props {
      key: "namespace"
      value: ": DiTTransformer2DModel"
    }
    metadata_props {
      key: "pkg.onnxscript.class_hierarchy"
      value: "[\'DiTTransformer2DModel\']"
    }
    metadata_props {
      key: "pkg.onnxscript.name_scopes"
      value: "[\'\']"
    }
  }
  node {
    output: "v_Constant_113"
    name: "Constant_node_113"
    op_type: "Constant"
    attribute {
      name: "value_ints"
      ints: 4
      type: INTS
    }
    metadata_props {
      key: "namespace"
      value: ": DiTTransformer2DModel"
    }
    metadata_props {
      key: "pkg.onnxscript.class_hierarchy"
      value: "[\'DiTTransformer2DModel\']"
    }
    metadata_props {
      key: "pkg.onnxscript.name_scopes"
      value: "[\'\']"
    }
  }
  node {
    input: "v_Div_106"
    input: "v_Constant_105"
    output: "v_Mul_115"
    name: "Mul_node_115"
    op_type: "Mul"
    metadata_props {
      key: "namespace"
      value: ": DiTTransformer2DModel"
    }
    metadata_props {
      key: "pkg.onnxscript.class_hierarchy"
      value: "[\'DiTTransformer2DModel\']"
    }
    metadata_props {
      key: "pkg.onnxscript.name_scopes"
      value: "[\'\']"
    }
  }
  node {
    input: "v_Div_108"
    input: "v_Constant_105"
    output: "v_Mul_117"
    name: "Mul_node_117"
    op_type: "Mul"
    metadata_props {
      key: "namespace"
      value: ": DiTTransformer2DModel"
    }
    metadata_props {
      key: "pkg.onnxscript.class_hierarchy"
      value: "[\'DiTTransformer2DModel\']"
    }
    metadata_props {
      key: "pkg.onnxscript.name_scopes"
      value: "[\'\']"
    }
  }
  node {
    input: "v_Shape_102"
    input: "v_Constant_113"
    input: "v_Mul_115"
    input: "v_Mul_117"
    output: "v_Concat_118"
    name: "Concat_node_118"
    op_type: "Concat"
    attribute {
      name: "axis"
      i: 0
      type: INT
    }
    metadata_props {
      key: "namespace"
      value: ": DiTTransformer2DModel"
    }
    metadata_props {
      key: "pkg.onnxscript.class_hierarchy"
      value: "[\'DiTTransformer2DModel\']"
    }
    metadata_props {
      key: "pkg.onnxscript.name_scopes"
      value: "[\'\']"
    }
  }
  node {
    input: "v_Transpose_112"
    input: "v_Concat_118"
    output: "noise_pred"
    name: "Reshape_node_119"
    op_type: "Reshape"
    metadata_props {
      key: "namespace"
      value: ": DiTTransformer2DModel"
    }
    metadata_props {
      key: "pkg.onnxscript.class_hierarchy"
      value: "[\'DiTTransformer2DModel\']"
    }
    metadata_props {
      key: "pkg.onnxscript.name_scopes"
      value: "[\'\']"
    }
  }
  name: "main_graph"
  initializer {
    dims: 32
    dims: 4
    dims: 2
    dims: 2
    data_type: 1
    name: "pos_embed.proj.weight"
    raw_data: "…"
  }
  initializer {
    dims: 32
    data_type: 1
    name: "pos_embed.proj.bias"
    raw_data: "…"
  }
  initializer {
    dims: 1
    data_type: 7
    name: "const_1d_0"
    raw_data: "\001\000\000\000\000\000\000\000"
  }
  initializer {
    dims: 32
    dims: 32
    data_type: 1
    name: "adaln_single.linear_1.weight"
    raw_data: "…"
  }
  initializer {
    dims: 32
    data_type: 1
    name: "adaln_single.linear_1.bias"
    raw_data: "…"
  }
  initializer {
    dims: 32
    dims: 32
    data_type: 1
    name: "adaln_single.linear_2.weight"
    raw_data: "…"
  }
  initializer {
    dims: 32
    data_type: 1
    name: "adaln_single.linear_2.bias"
    raw_data: "…"
  }
  initializer {
    dims: 32
    dims: 16
    data_type: 1
    name: "caption_projection.weight"
    raw_data: "…"
  }
  initializer {
    dims: 32
    data_type: 1
    name: "caption_projection.bias"
    raw_data: "…"
  }
  initializer {
    dims: 192
    dims: 32
    data_type: 1
    name: "transformer_blocks.0.norm1.linear.weight"
    raw_data: "…"
  }
  initializer {
    dims: 192
    data_type: 1
    name: "transformer_blocks.0.norm1.linear.bias"
    raw_data: "…"
  }
  initializer {
    dims: 32
    data_type: 1
    name: "transformer_blocks.0.norm1.norm.weight"
    raw_data: "…"
  }
  initializer {
    dims: 32
    data_type: 1
    name: "transformer_blocks.0.norm1.norm.bias"
    raw_data: "…"
  }
  initializer {
    data_type: 1
    name: "const_1.0_f32"
    raw_data: "\000\000\200?"
  }
  initializer {
    dims: 32
    dims: 32
    data_type: 1
    name: "transformer_blocks.0.attn1.to_q.weight"
    raw_data: "…"
  }
  initializer {
    dims: 32
    data_type: 1
    name: "transformer_blocks.0.attn1.to_q.bias"
    raw_data: "…"
  }
  initializer {
    dims: 32
    dims: 32
    data_type: 1
    name: "transformer_blocks.0.attn1.to_k.weight"
    raw_data: "…"
  }
  initializer {
    dims: 32
    data_type: 1
    name: "transformer_blocks.0.attn1.to_k.bias"
    raw_data: "…"
  }
  initializer {
    dims: 32
    dims: 32
    data_type: 1
    name: "transformer_blocks.0.attn1.to_v.weight"
    raw_data: "…"
  }
  initializer {
    dims: 32
    data_type: 1
    name: "transformer_blocks.0.attn1.to_v.bias"
    raw_data: "…"
  }
  initializer {
    dims: 32
    dims: 32
    data_type: 1
    name: "transformer_blocks.0.attn1.to_out.0.weight"
    raw_data: "…"
  }
  initializer {
    dims: 32
    data_type: 1
    name: "transformer_blocks.0.attn1.to_out.0.bias"
    raw_data: "…"
  }
  initializer {
    dims: 32
    data_type: 1
    name: "transformer_blocks.0.attn2.norm.weight"
    raw_data: "…"
  }
  initializer {
    dims: 32
    data_type: 1
    name: "transformer_blocks.0.attn2.norm.bias"
    raw_data: "…"
  }
  initializer {
    dims: 32
    dims: 32
    data_type: 1
    name: "transformer_blocks.0.attn2.to_q.weight"
    raw_data: "…"
  }
  initializer {
    dims: 32
    data_type: 1
    name: "transformer_blocks.0.attn2.to_q.bias"
    raw_data: "…"
  }
  initializer {
    dims: 32
    dims: 32
    data_type: 1
    name: "transformer_blocks.0.attn2.to_k.weight"
    raw_data: "…"
  }
  initializer {
    dims: 32
    data_type: 1
    name: "transformer_blocks.0.attn2.to_k.bias"
    raw_data: "…"
  }
  initializer {
    dims: 32
    dims: 32
    data_type: 1
    name: "transformer_blocks.0.attn2.to_v.weight"
    raw_data: "…"
  }
  initializer {
    dims: 32
    data_type: 1
    name: "transformer_blocks.0.attn2.to_v.bias"
    raw_data: "…"
  }
  initializer {
    dims: 32
    dims: 32
    data_type: 1
    name: "transformer_blocks.0.attn2.to_out.0.weight"
    raw_data: "…"
  }
  initializer {
    dims: 32
    data_type: 1
    name: "transformer_blocks.0.attn2.to_out.0.bias"
    raw_data: "…"
  }
  initializer {
    dims: 128
    dims: 32
    data_type: 1
    name: "transformer_blocks.0.ff.linear_1.weight"
    raw_data: "…"
  }
  initializer {
    dims: 128
    data_type: 1
    name: "transformer_blocks.0.ff.linear_1.bias"
    raw_data: "…"
  }
  initializer {
    dims: 32
    dims: 128
    data_type: 1
    name: "transformer_blocks.0.ff.linear_2.weight"
    raw_data: "…"
  }
  initializer {
    dims: 32
    data_type: 1
    name: "transformer_blocks.0.ff.linear_2.bias"
    raw_data: "…"
  }
  initializer {
    dims: 64
    dims: 32
    data_type: 1
    name: "norm_out.linear.weight"
    raw_data: "…"
  }
  initializer {
    dims: 64
    data_type: 1
    name: "norm_out.linear.bias"
    raw_data: "…"
  }
  initializer {
    dims: 32
    data_type: 1
    name: "norm_out.norm.weight"
    raw_data: "…"
  }
  initializer {
    dims: 32
    data_type: 1
    name: "norm_out.norm.bias"
    raw_data: "…"
  }
  initializer {
    dims: 16
    dims: 32
    data_type: 1
    name: "proj_out.weight"
    raw_data: "…"
  }
  initializer {
    dims: 16
    data_type: 1
    name: "proj_out.bias"
    raw_data: "…"
  }
  initializer {
    dims: 1
    dims: 16
    data_type: 1
    name: "v_Unsqueeze_12"
    raw_data: "…"
  }
  input {
    name: "sample"
    type {
      tensor_type {
        elem_type: 1
        shape {
          dim {
            dim_param: "batch"
          }
          dim {
            dim_value: 4
          }
          dim {
            dim_param: "height"
          }
          dim {
            dim_param: "width"
          }
        }
      }
    }
  }
  input {
    name: "timestep"
    type {
      tensor_type {
        elem_type: 7
        shape {
          dim {
            dim_param: "batch"
          }
        }
      }
    }
  }
  input {
    name: "encoder_hidden_states"
    type {
      tensor_type {
        elem_type: 1
        shape {
          dim {
            dim_param: "batch"
          }
          dim {
            dim_param: "sequence_length"
          }
          dim {
            dim_value: 16
          }
        }
      }
    }
  }
  output {
    name: "noise_pred"
    type {
      tensor_type {
        elem_type: 1
        shape {
          dim {
            dim_param: "batch"
          }
          dim {
            dim_value: 4
          }
          dim {
            dim_param: "2*floor(height/2)"
          }
          dim {
            dim_param: "2*floor(width/2)"
          }
        }
      }
    }
  }
  value_info {
    name: "pos_embed.proj.weight"
    type {
      tensor_type {
        elem_type: 1
        shape {
          dim {
            dim_value: 32
          }
          dim {
            dim_value: 4
          }
          dim {
            dim_value: 2
          }
          dim {
            dim_value: 2
          }
        }
      }
    }
  }
  value_info {
    name: "pos_embed.proj.bias"
    type {
      tensor_type {
        elem_type: 1
        shape {
          dim {
            dim_value: 32
          }
        }
      }
    }
  }
  value_info {
    name: "const_1d_0"
    type {
      tensor_type {
        elem_type: 7
        shape {
          dim {
            dim_value: 1
          }
        }
      }
    }
  }
  value_info {
    name: "adaln_single.linear_1.weight"
    type {
      tensor_type {
        elem_type: 1
        shape {
          dim {
            dim_value: 32
          }
          dim {
            dim_value: 32
          }
        }
      }
    }
  }
  value_info {
    name: "adaln_single.linear_1.bias"
    type {
      tensor_type {
        elem_type: 1
        shape {
          dim {
            dim_value: 32
          }
        }
      }
    }
  }
  value_info {
    name: "adaln_single.linear_2.weight"
    type {
      tensor_type {
        elem_type: 1
        shape {
          dim {
            dim_value: 32
          }
          dim {
            dim_value: 32
          }
        }
      }
    }
  }
  value_info {
    name: "adaln_single.linear_2.bias"
    type {
      tensor_type {
        elem_type: 1
        shape {
          dim {
            dim_value: 32
          }
        }
      }
    }
  }
  value_info {
    name: "caption_projection.weight"
    type {
      tensor_type {
        elem_type: 1
        shape {
          dim {
            dim_value: 32
          }
          dim {
            dim_value: 16
          }
        }
      }
    }
  }
  value_info {
    name: "caption_projection.bias"
    type {
      tensor_type {
        elem_type: 1
        shape {
          dim {
            dim_value: 32
          }
        }
      }
    }
  }
  value_info {
    name: "transformer_blocks.0.norm1.linear.weight"
    type {
      tensor_type {
        elem_type: 1
        shape {
          dim {
            dim_value: 192
          }
          dim {
            dim_value: 32
          }
        }
      }
    }
  }
  value_info {
    name: "transformer_blocks.0.norm1.linear.bias"
    type {
      tensor_type {
        elem_type: 1
        shape {
          dim {
            dim_value: 192
          }
        }
      }
    }
  }
  value_info {
    name: "transformer_blocks.0.norm1.norm.weight"
    type {
      tensor_type {
        elem_type: 1
        shape {
          dim {
            dim_value: 32
          }
        }
      }
    }
  }
  value_info {
    name: "transformer_blocks.0.norm1.norm.bias"
    type {
      tensor_type {
        elem_type: 1
        shape {
          dim {
            dim_value: 32
          }
        }
      }
    }
  }
  value_info {
    name: "const_1.0_f32"
    type {
      tensor_type {
        elem_type: 1
        shape {
        }
      }
    }
  }
  value_info {
    name: "transformer_blocks.0.attn1.to_q.weight"
    type {
      tensor_type {
        elem_type: 1
        shape {
          dim {
            dim_value: 32
          }
          dim {
            dim_value: 32
          }
        }
      }
    }
  }
  value_info {
    name: "transformer_blocks.0.attn1.to_q.bias"
    type {
      tensor_type {
        elem_type: 1
        shape {
          dim {
            dim_value: 32
          }
        }
      }
    }
  }
  value_info {
    name: "transformer_blocks.0.attn1.to_k.weight"
    type {
      tensor_type {
        elem_type: 1
        shape {
          dim {
            dim_value: 32
          }
          dim {
            dim_value: 32
          }
        }
      }
    }
  }
  value_info {
    name: "transformer_blocks.0.attn1.to_k.bias"
    type {
      tensor_type {
        elem_type: 1
        shape {
          dim {
            dim_value: 32
          }
        }
      }
    }
  }
  value_info {
    name: "transformer_blocks.0.attn1.to_v.weight"
    type {
      tensor_type {
        elem_type: 1
        shape {
          dim {
            dim_value: 32
          }
          dim {
            dim_value: 32
          }
        }
      }
    }
  }
  value_info {
    name: "transformer_blocks.0.attn1.to_v.bias"
    type {
      tensor_type {
        elem_type: 1
        shape {
          dim {
            dim_value: 32
          }
        }
      }
    }
  }
  value_info {
    name: "transformer_blocks.0.attn1.to_out.0.weight"
    type {
      tensor_type {
        elem_type: 1
        shape {
          dim {
            dim_value: 32
          }
          dim {
            dim_value: 32
          }
        }
      }
    }
  }
  value_info {
    name: "transformer_blocks.0.attn1.to_out.0.bias"
    type {
      tensor_type {
        elem_type: 1
        shape {
          dim {
            dim_value: 32
          }
        }
      }
    }
  }
  value_info {
    name: "transformer_blocks.0.attn2.norm.weight"
    type {
      tensor_type {
        elem_type: 1
        shape {
          dim {
            dim_value: 32
          }
        }
      }
    }
  }
  value_info {
    name: "transformer_blocks.0.attn2.norm.bias"
    type {
      tensor_type {
        elem_type: 1
        shape {
          dim {
            dim_value: 32
          }
        }
      }
    }
  }
  value_info {
    name: "transformer_blocks.0.attn2.to_q.weight"
    type {
      tensor_type {
        elem_type: 1
        shape {
          dim {
            dim_value: 32
          }
          dim {
            dim_value: 32
          }
        }
      }
    }
  }
  value_info {
    name: "transformer_blocks.0.attn2.to_q.bias"
    type {
      tensor_type {
        elem_type: 1
        shape {
          dim {
            dim_value: 32
          }
        }
      }
    }
  }
  value_info {
    name: "transformer_blocks.0.attn2.to_k.weight"
    type {
      tensor_type {
        elem_type: 1
        shape {
          dim {
            dim_value: 32
          }
          dim {
            dim_value: 32
          }
        }
      }
    }
  }
  value_info {
    name: "transformer_blocks.0.attn2.to_k.bias"
    type {
      tensor_type {
        elem_type: 1
        shape {
          dim {
            dim_value: 32
          }
        }
      }
    }
  }
  value_info {
    name: "transformer_blocks.0.attn2.to_v.weight"
    type {
      tensor_type {
        elem_type: 1
        shape {
          dim {
            dim_value: 32
          }
          dim {
            dim_value: 32
          }
        }
      }
    }
  }
  value_info {
    name: "transformer_blocks.0.attn2.to_v.bias"
    type {
      tensor_type {
        elem_type: 1
        shape {
          dim {
            dim_value: 32
          }
        }
      }
    }
  }
  value_info {
    name: "transformer_blocks.0.attn2.to_out.0.weight"
    type {
      tensor_type {
        elem_type: 1
        shape {
          dim {
            dim_value: 32
          }
          dim {
            dim_value: 32
          }
        }
      }
    }
  }
  value_info {
    name: "transformer_blocks.0.attn2.to_out.0.bias"
    type {
      tensor_type {
        elem_type: 1
        shape {
          dim {
            dim_value: 32
          }
        }
      }
    }
  }
  value_info {
    name: "transformer_blocks.0.ff.linear_1.weight"
    type {
      tensor_type {
        elem_type: 1
        shape {
          dim {
            dim_value: 128
          }
          dim {
            dim_value: 32
          }
        }
      }
    }
  }
  value_info {
    name: "transformer_blocks.0.ff.linear_1.bias"
    type {
      tensor_type {
        elem_type: 1
        shape {
          dim {
            dim_value: 128
          }
        }
      }
    }
  }
  value_info {
    name: "transformer_blocks.0.ff.linear_2.weight"
    type {
      tensor_type {
        elem_type: 1
        shape {
          dim {
            dim_value: 32
          }
          dim {
            dim_value: 128
          }
        }
      }
    }
  }
  value_info {
    name: "transformer_blocks.0.ff.linear_2.bias"
    type {
      tensor_type {
        elem_type: 1
        shape {
          dim {
            dim_value: 32
          }
        }
      }
    }
  }
  value_info {
    name: "norm_out.linear.weight"
    type {
      tensor_type {
        elem_type: 1
        shape {
          dim {
            dim_value: 64
          }
          dim {
            dim_value: 32
          }
        }
      }
    }
  }
  value_info {
    name: "norm_out.linear.bias"
    type {
      tensor_type {
        elem_type: 1
        shape {
          dim {
            dim_value: 64
          }
        }
      }
    }
  }
  value_info {
    name: "norm_out.norm.weight"
    type {
      tensor_type {
        elem_type: 1
        shape {
          dim {
            dim_value: 32
          }
        }
      }
    }
  }
  value_info {
    name: "norm_out.norm.bias"
    type {
      tensor_type {
        elem_type: 1
        shape {
          dim {
            dim_value: 32
          }
        }
      }
    }
  }
  value_info {
    name: "proj_out.weight"
    type {
      tensor_type {
        elem_type: 1
        shape {
          dim {
            dim_value: 16
          }
          dim {
            dim_value: 32
          }
        }
      }
    }
  }
  value_info {
    name: "proj_out.bias"
    type {
      tensor_type {
        elem_type: 1
        shape {
          dim {
            dim_value: 16
          }
        }
      }
    }
  }
  value_info {
    name: "v_Unsqueeze_12"
    type {
      tensor_type {
        elem_type: 1
        shape {
          dim {
            dim_value: 1
          }
          dim {
            dim_value: 16
          }
        }
      }
    }
    metadata_props {
      key: "pkg.onnxscript.optimizer.folded_from"
      value: "[\'const_1d_1\', \'v_Constant_9\']"
    }
  }
  value_info {
    name: "v_pos_embed.proj.Conv_0"
    type {
      tensor_type {
        elem_type: 1
        shape {
          dim {
            dim_param: "batch"
          }
          dim {
            dim_value: 32
          }
          dim {
            dim_param: "floor(height/2)"
          }
          dim {
            dim_param: "floor(width/2)"
          }
        }
      }
    }
  }
  value_info {
    name: "v_pos_embed.Shape_1"
    type {
      tensor_type {
        elem_type: 7
        shape {
          dim {
            dim_value: 1
          }
        }
      }
    }
    metadata_props {
      key: "pkg.onnx_shape_inference.sym_data"
      value: "[\"batch\"]"
    }
  }
  value_info {
    name: "v_pos_embed.Shape_2"
    type {
      tensor_type {
        elem_type: 7
        shape {
          dim {
            dim_value: 1
          }
        }
      }
    }
    metadata_props {
      key: "pkg.onnxscript.optimizer.folded_from"
      value: "[\'v_pos_embed.proj.Conv_0\']"
    }
  }
  value_info {
    name: "v_pos_embed.Shape_3"
    type {
      tensor_type {
        elem_type: 7
        shape {
          dim {
            dim_value: 1
          }
        }
      }
    }
    metadata_props {
      key: "pkg.onnx_shape_inference.sym_data"
      value: "[\"floor(height/2)\"]"
    }
  }
  value_info {
    name: "v_pos_embed.Shape_4"
    type {
      tensor_type {
        elem_type: 7
        shape {
          dim {
            dim_value: 1
          }
        }
      }
    }
    metadata_props {
      key: "pkg.onnx_shape_inference.sym_data"
      value: "[\"floor(width/2)\"]"
    }
  }
  value_info {
    name: "v_pos_embed.Mul_5"
    type {
      tensor_type {
        elem_type: 7
        shape {
          dim {
            dim_value: 1
          }
        }
      }
    }
    metadata_props {
      key: "pkg.onnx_shape_inference.sym_data"
      value: "[\"floor(height/2)*floor(width/2)\"]"
    }
  }
  value_info {
    name: "v_pos_embed.Concat_6"
    type {
      tensor_type {
        elem_type: 7
        shape {
          dim {
            dim_value: 3
          }
        }
      }
    }
    metadata_props {
      key: "pkg.onnx_shape_inference.sym_data"
      value: "[\"batch\", 32, \"floor(height/2)*floor(width/2)\"]"
    }
  }
  value_info {
    name: "v_pos_embed.Reshape_7"
    type {
      tensor_type {
        elem_type: 1
        shape {
          dim {
            dim_param: "batch"
          }
          dim {
            dim_value: 32
          }
          dim {
            dim_param: "floor(height/2)*floor(width/2)"
          }
        }
      }
    }
  }
  value_info {
    name: "v_pos_embed.Transpose_8"
    type {
      tensor_type {
        elem_type: 1
        shape {
          dim {
            dim_param: "batch"
          }
          dim {
            dim_param: "floor(height/2)*floor(width/2)"
          }
          dim {
            dim_value: 32
          }
        }
      }
    }
  }
  value_info {
    name: "v_Cast_10"
    type {
      tensor_type {
        elem_type: 1
        shape {
          dim {
            dim_param: "batch"
          }
        }
      }
    }
  }
  value_info {
    name: "v_Unsqueeze_11"
    type {
      tensor_type {
        elem_type: 1
        shape {
          dim {
            dim_param: "batch"
          }
          dim {
            dim_value: 1
          }
        }
      }
    }
  }
  value_info {
    name: "v_Mul_13"
    type {
      tensor_type {
        elem_type: 1
        shape {
          dim {
            dim_param: "batch"
          }
          dim {
            dim_value: 16
          }
        }
      }
    }
  }
  value_info {
    name: "v_Cos_14"
    type {
      tensor_type {
        elem_type: 1
        shape {
          dim {
            dim_param: "batch"
          }
          dim {
            dim_value: 16
          }
        }
      }
    }
  }
  value_info {
    name: "v_Sin_15"
    type {
      tensor_type {
        elem_type: 1
        shape {
          dim {
            dim_param: "batch"
          }
          dim {
            dim_value: 16
          }
        }
      }
    }
  }
  value_info {
    name: "v_Concat_16"
    type {
      tensor_type {
        elem_type: 1
        shape {
          dim {
            dim_param: "batch"
          }
          dim {
            dim_value: 32
          }
        }
      }
    }
  }
  value_info {
    name: "v_adaln_single.linear_1.Transpose_17"
    type {
      tensor_type {
        elem_type: 1
        shape {
          dim {
            dim_value: 32
          }
          dim {
            dim_value: 32
          }
        }
      }
    }
  }
  value_info {
    name: "v_adaln_single.linear_1.MatMul_18"
    type {
      tensor_type {
        elem_type: 1
        shape {
          dim {
            dim_param: "batch"
          }
          dim {
            dim_value: 32
          }
        }
      }
    }
  }
  value_info {
    name: "v_adaln_single.linear_1.Add_19"
    type {
      tensor_type {
        elem_type: 1
        shape {
          dim {
            dim_param: "batch"
          }
          dim {
            dim_value: 32
          }
        }
      }
    }
  }
  value_info {
    name: "v_adaln_single._silu.Sigmoid_20"
    type {
      tensor_type {
        elem_type: 1
        shape {
          dim {
            dim_param: "batch"
          }
          dim {
            dim_value: 32
          }
        }
      }
    }
  }
  value_info {
    name: "v_adaln_single._silu.Mul_21"
    type {
      tensor_type {
        elem_type: 1
        shape {
          dim {
            dim_param: "batch"
          }
          dim {
            dim_value: 32
          }
        }
      }
    }
  }
  value_info {
    name: "v_adaln_single.linear_2.Transpose_22"
    type {
      tensor_type {
        elem_type: 1
        shape {
          dim {
            dim_value: 32
          }
          dim {
            dim_value: 32
          }
        }
      }
    }
  }
  value_info {
    name: "v_adaln_single.linear_2.MatMul_23"
    type {
      tensor_type {
        elem_type: 1
        shape {
          dim {
            dim_param: "batch"
          }
          dim {
            dim_value: 32
          }
        }
      }
    }
  }
  value_info {
    name: "v_adaln_single.linear_2.Add_24"
    type {
      tensor_type {
        elem_type: 1
        shape {
          dim {
            dim_param: "batch"
          }
          dim {
            dim_value: 32
          }
        }
      }
    }
  }
  value_info {
    name: "v_caption_projection.Transpose_25"
    type {
      tensor_type {
        elem_type: 1
        shape {
          dim {
            dim_value: 16
          }
          dim {
            dim_value: 32
          }
        }
      }
    }
  }
  value_info {
    name: "v_caption_projection.MatMul_26"
    type {
      tensor_type {
        elem_type: 1
        shape {
          dim {
            dim_param: "batch"
          }
          dim {
            dim_param: "sequence_length"
          }
          dim {
            dim_value: 32
          }
        }
      }
    }
  }
  value_info {
    name: "v_caption_projection.Add_27"
    type {
      tensor_type {
        elem_type: 1
        shape {
          dim {
            dim_param: "batch"
          }
          dim {
            dim_param: "sequence_length"
          }
          dim {
            dim_value: 32
          }
        }
      }
    }
  }
  value_info {
    name: "v_transformer_blocks.0.norm1._silu.Sigmoid_28"
    type {
      tensor_type {
        elem_type: 1
        shape {
          dim {
            dim_param: "batch"
          }
          dim {
            dim_value: 32
          }
        }
      }
    }
  }
  value_info {
    name: "v_transformer_blocks.0.norm1._silu.Mul_29"
    type {
      tensor_type {
        elem_type: 1
        shape {
          dim {
            dim_param: "batch"
          }
          dim {
            dim_value: 32
          }
        }
      }
    }
  }
  value_info {
    name: "v_transformer_blocks.0.norm1.linear.Transpose_30"
    type {
      tensor_type {
        elem_type: 1
        shape {
          dim {
            dim_value: 32
          }
          dim {
            dim_value: 192
          }
        }
      }
    }
  }
  value_info {
    name: "v_transformer_blocks.0.norm1.linear.MatMul_31"
    type {
      tensor_type {
        elem_type: 1
        shape {
          dim {
            dim_param: "batch"
          }
          dim {
            dim_value: 192
          }
        }
      }
    }
  }
  value_info {
    name: "v_transformer_blocks.0.norm1.linear.Add_32"
    type {
      tensor_type {
        elem_type: 1
        shape {
          dim {
            dim_param: "batch"
          }
          dim {
            dim_value: 192
          }
        }
      }
    }
  }
  value_info {
    name: "v_transformer_blocks.0.norm1.Split_33_0"
    type {
      tensor_type {
        elem_type: 1
        shape {
          dim {
            dim_param: "batch"
          }
          dim {
            dim_value: 32
          }
        }
      }
    }
  }
  value_info {
    name: "v_transformer_blocks.0.norm1.Split_33_1"
    type {
      tensor_type {
        elem_type: 1
        shape {
          dim {
            dim_param: "batch"
          }
          dim {
            dim_value: 32
          }
        }
      }
    }
  }
  value_info {
    name: "v_transformer_blocks.0.norm1.Split_33_2"
    type {
      tensor_type {
        elem_type: 1
        shape {
          dim {
            dim_param: "batch"
          }
          dim {
            dim_value: 32
          }
        }
      }
    }
  }
  value_info {
    name: "v_transformer_blocks.0.norm1.Split_33_3"
    type {
      tensor_type {
        elem_type: 1
        shape {
          dim {
            dim_param: "batch"
          }
          dim {
            dim_value: 32
          }
        }
      }
    }
  }
  value_info {
    name: "v_transformer_blocks.0.norm1.Split_33_4"
    type {
      tensor_type {
        elem_type: 1
        shape {
          dim {
            dim_param: "batch"
          }
          dim {
            dim_value: 32
          }
        }
      }
    }
  }
  value_info {
    name: "v_transformer_blocks.0.norm1.Split_33_5"
    type {
      tensor_type {
        elem_type: 1
        shape {
          dim {
            dim_param: "batch"
          }
          dim {
            dim_value: 32
          }
        }
      }
    }
  }
  value_info {
    name: "v_transformer_blocks.0.norm1.norm.LayerNormalization_34"
    type {
      tensor_type {
        elem_type: 1
        shape {
          dim {
            dim_param: "batch"
          }
          dim {
            dim_param: "floor(height/2)*floor(width/2)"
          }
          dim {
            dim_value: 32
          }
        }
      }
    }
  }
  value_info {
    name: "v_transformer_blocks.0.Unsqueeze_35"
    type {
      tensor_type {
        elem_type: 1
        shape {
          dim {
            dim_param: "batch"
          }
          dim {
            dim_value: 1
          }
          dim {
            dim_value: 32
          }
        }
      }
    }
  }
  value_info {
    name: "v_transformer_blocks.0.Add_36"
    type {
      tensor_type {
        elem_type: 1
        shape {
          dim {
            dim_param: "batch"
          }
          dim {
            dim_value: 1
          }
          dim {
            dim_value: 32
          }
        }
      }
    }
  }
  value_info {
    name: "v_transformer_blocks.0.Mul_37"
    type {
      tensor_type {
        elem_type: 1
        shape {
          dim {
            dim_param: "batch"
          }
          dim {
            dim_param: "floor(height/2)*floor(width/2)"
          }
          dim {
            dim_value: 32
          }
        }
      }
    }
  }
  value_info {
    name: "v_transformer_blocks.0.Unsqueeze_38"
    type {
      tensor_type {
        elem_type: 1
        shape {
          dim {
            dim_param: "batch"
          }
          dim {
            dim_value: 1
          }
          dim {
            dim_value: 32
          }
        }
      }
    }
  }
  value_info {
    name: "v_transformer_blocks.0.Add_39"
    type {
      tensor_type {
        elem_type: 1
        shape {
          dim {
            dim_param: "batch"
          }
          dim {
            dim_param: "floor(height/2)*floor(width/2)"
          }
          dim {
            dim_value: 32
          }
        }
      }
    }
  }
  value_info {
    name: "v_transformer_blocks.0.attn1.to_q.Transpose_40"
    type {
      tensor_type {
        elem_type: 1
        shape {
          dim {
            dim_value: 32
          }
          dim {
            dim_value: 32
          }
        }
      }
    }
  }
  value_info {
    name: "v_transformer_blocks.0.attn1.to_q.MatMul_41"
    type {
      tensor_type {
        elem_type: 1
        shape {
          dim {
            dim_param: "batch"
          }
          dim {
            dim_param: "floor(height/2)*floor(width/2)"
          }
          dim {
            dim_value: 32
          }
        }
      }
    }
  }
  value_info {
    name: "v_transformer_blocks.0.attn1.to_q.Add_42"
    type {
      tensor_type {
        elem_type: 1
        shape {
          dim {
            dim_param: "batch"
          }
          dim {
            dim_param: "floor(height/2)*floor(width/2)"
          }
          dim {
            dim_value: 32
          }
        }
      }
    }
  }
  value_info {
    name: "v_transformer_blocks.0.attn1.to_k.Transpose_43"
    type {
      tensor_type {
        elem_type: 1
        shape {
          dim {
            dim_value: 32
          }
          dim {
            dim_value: 32
          }
        }
      }
    }
  }
  value_info {
    name: "v_transformer_blocks.0.attn1.to_k.MatMul_44"
    type {
      tensor_type {
        elem_type: 1
        shape {
          dim {
            dim_param: "batch"
          }
          dim {
            dim_param: "floor(height/2)*floor(width/2)"
          }
          dim {
            dim_value: 32
          }
        }
      }
    }
  }
  value_info {
    name: "v_transformer_blocks.0.attn1.to_k.Add_45"
    type {
      tensor_type {
        elem_type: 1
        shape {
          dim {
            dim_param: "batch"
          }
          dim {
            dim_param: "floor(height/2)*floor(width/2)"
          }
          dim {
            dim_value: 32
          }
        }
      }
    }
  }
  value_info {
    name: "v_transformer_blocks.0.attn1.to_v.Transpose_46"
    type {
      tensor_type {
        elem_type: 1
        shape {
          dim {
            dim_value: 32
          }
          dim {
            dim_value: 32
          }
        }
      }
    }
  }
  value_info {
    name: "v_transformer_blocks.0.attn1.to_v.MatMul_47"
    type {
      tensor_type {
        elem_type: 1
        shape {
          dim {
            dim_param: "batch"
          }
          dim {
            dim_param: "floor(height/2)*floor(width/2)"
          }
          dim {
            dim_value: 32
          }
        }
      }
    }
  }
  value_info {
    name: "v_transformer_blocks.0.attn1.to_v.Add_48"
    type {
      tensor_type {
        elem_type: 1
        shape {
          dim {
            dim_param: "batch"
          }
          dim {
            dim_param: "floor(height/2)*floor(width/2)"
          }
          dim {
            dim_value: 32
          }
        }
      }
    }
  }
  value_info {
    name: "v_transformer_blocks.0.attn1.Attention_49"
    type {
      tensor_type {
        elem_type: 1
        shape {
          dim {
            dim_param: "batch"
          }
          dim {
            dim_param: "floor(height/2)*floor(width/2)"
          }
          dim {
            dim_value: 32
          }
        }
      }
    }
  }
  value_info {
    name: "v_transformer_blocks.0.attn1.to_out.0.Transpose_50"
    type {
      tensor_type {
        elem_type: 1
        shape {
          dim {
            dim_value: 32
          }
          dim {
            dim_value: 32
          }
        }
      }
    }
  }
  value_info {
    name: "v_transformer_blocks.0.attn1.to_out.0.MatMul_51"
    type {
      tensor_type {
        elem_type: 1
        shape {
          dim {
            dim_param: "batch"
          }
          dim {
            dim_param: "floor(height/2)*floor(width/2)"
          }
          dim {
            dim_value: 32
          }
        }
      }
    }
  }
  value_info {
    name: "v_transformer_blocks.0.attn1.to_out.0.Add_52"
    type {
      tensor_type {
        elem_type: 1
        shape {
          dim {
            dim_param: "batch"
          }
          dim {
            dim_param: "floor(height/2)*floor(width/2)"
          }
          dim {
            dim_value: 32
          }
        }
      }
    }
  }
  value_info {
    name: "v_transformer_blocks.0.Unsqueeze_53"
    type {
      tensor_type {
        elem_type: 1
        shape {
          dim {
            dim_param: "batch"
          }
          dim {
            dim_value: 1
          }
          dim {
            dim_value: 32
          }
        }
      }
    }
  }
  value_info {
    name: "v_transformer_blocks.0.Mul_54"
    type {
      tensor_type {
        elem_type: 1
        shape {
          dim {
            dim_param: "batch"
          }
          dim {
            dim_param: "floor(height/2)*floor(width/2)"
          }
          dim {
            dim_value: 32
          }
        }
      }
    }
  }
  value_info {
    name: "v_transformer_blocks.0.attn2.norm.LayerNormalization_56"
    type {
      tensor_type {
        elem_type: 1
        shape {
          dim {
            dim_param: "batch"
          }
          dim {
            dim_param: "floor(height/2)*floor(width/2)"
          }
          dim {
            dim_value: 32
          }
        }
      }
    }
  }
  value_info {
    name: "v_transformer_blocks.0.attn2.to_q.Transpose_57"
    type {
      tensor_type {
        elem_type: 1
        shape {
          dim {
            dim_value: 32
          }
          dim {
            dim_value: 32
          }
        }
      }
    }
  }
  value_info {
    name: "v_transformer_blocks.0.attn2.to_q.MatMul_58"
    type {
      tensor_type {
        elem_type: 1
        shape {
          dim {
            dim_param: "batch"
          }
          dim {
            dim_param: "floor(height/2)*floor(width/2)"
          }
          dim {
            dim_value: 32
          }
        }
      }
    }
  }
  value_info {
    name: "v_transformer_blocks.0.attn2.to_q.Add_59"
    type {
      tensor_type {
        elem_type: 1
        shape {
          dim {
            dim_param: "batch"
          }
          dim {
            dim_param: "floor(height/2)*floor(width/2)"
          }
          dim {
            dim_value: 32
          }
        }
      }
    }
  }
  value_info {
    name: "v_transformer_blocks.0.attn2.to_k.Transpose_60"
    type {
      tensor_type {
        elem_type: 1
        shape {
          dim {
            dim_value: 32
          }
          dim {
            dim_value: 32
          }
        }
      }
    }
  }
  value_info {
    name: "v_transformer_blocks.0.attn2.to_k.MatMul_61"
    type {
      tensor_type {
        elem_type: 1
        shape {
          dim {
            dim_param: "batch"
          }
          dim {
            dim_param: "sequence_length"
          }
          dim {
            dim_value: 32
          }
        }
      }
    }
  }
  value_info {
    name: "v_transformer_blocks.0.attn2.to_k.Add_62"
    type {
      tensor_type {
        elem_type: 1
        shape {
          dim {
            dim_param: "batch"
          }
          dim {
            dim_param: "sequence_length"
          }
          dim {
            dim_value: 32
          }
        }
      }
    }
  }
  value_info {
    name: "v_transformer_blocks.0.attn2.to_v.Transpose_63"
    type {
      tensor_type {
        elem_type: 1
        shape {
          dim {
            dim_value: 32
          }
          dim {
            dim_value: 32
          }
        }
      }
    }
  }
  value_info {
    name: "v_transformer_blocks.0.attn2.to_v.MatMul_64"
    type {
      tensor_type {
        elem_type: 1
        shape {
          dim {
            dim_param: "batch"
          }
          dim {
            dim_param: "sequence_length"
          }
          dim {
            dim_value: 32
          }
        }
      }
    }
  }
  value_info {
    name: "v_transformer_blocks.0.attn2.to_v.Add_65"
    type {
      tensor_type {
        elem_type: 1
        shape {
          dim {
            dim_param: "batch"
          }
          dim {
            dim_param: "sequence_length"
          }
          dim {
            dim_value: 32
          }
        }
      }
    }
  }
  value_info {
    name: "v_transformer_blocks.0.attn2.Attention_66"
    type {
      tensor_type {
        elem_type: 1
        shape {
          dim {
            dim_param: "batch"
          }
          dim {
            dim_param: "floor(height/2)*floor(width/2)"
          }
          dim {
            dim_value: 32
          }
        }
      }
    }
  }
  value_info {
    name: "v_transformer_blocks.0.attn2.to_out.0.Transpose_67"
    type {
      tensor_type {
        elem_type: 1
        shape {
          dim {
            dim_value: 32
          }
          dim {
            dim_value: 32
          }
        }
      }
    }
  }
  value_info {
    name: "v_transformer_blocks.0.attn2.to_out.0.MatMul_68"
    type {
      tensor_type {
        elem_type: 1
        shape {
          dim {
            dim_param: "batch"
          }
          dim {
            dim_param: "floor(height/2)*floor(width/2)"
          }
          dim {
            dim_value: 32
          }
        }
      }
    }
  }
  value_info {
    name: "v_transformer_blocks.0.attn2.to_out.0.Add_69"
    type {
      tensor_type {
        elem_type: 1
        shape {
          dim {
            dim_param: "batch"
          }
          dim {
            dim_param: "floor(height/2)*floor(width/2)"
          }
          dim {
            dim_value: 32
          }
        }
      }
    }
  }
  value_info {
    name: "v_transformer_blocks.0.LayerNormalization_71"
    type {
      tensor_type {
        elem_type: 1
        shape {
          dim {
            dim_param: "batch"
          }
          dim {
            dim_param: "floor(height/2)*floor(width/2)"
          }
          dim {
            dim_value: 32
          }
        }
      }
    }
  }
  value_info {
    name: "v_transformer_blocks.0.Unsqueeze_72"
    type {
      tensor_type {
        elem_type: 1
        shape {
          dim {
            dim_param: "batch"
          }
          dim {
            dim_value: 1
          }
          dim {
            dim_value: 32
          }
        }
      }
    }
  }
  value_info {
    name: "v_transformer_blocks.0.Add_73"
    type {
      tensor_type {
        elem_type: 1
        shape {
          dim {
            dim_param: "batch"
          }
          dim {
            dim_value: 1
          }
          dim {
            dim_value: 32
          }
        }
      }
    }
  }
  value_info {
    name: "v_transformer_blocks.0.Mul_74"
    type {
      tensor_type {
        elem_type: 1
        shape {
          dim {
            dim_param: "batch"
          }
          dim {
            dim_param: "floor(height/2)*floor(width/2)"
          }
          dim {
            dim_value: 32
          }
        }
      }
    }
  }
  value_info {
    name: "v_transformer_blocks.0.Unsqueeze_75"
    type {
      tensor_type {
        elem_type: 1
        shape {
          dim {
            dim_param: "batch"
          }
          dim {
            dim_value: 1
          }
          dim {
            dim_value: 32
          }
        }
      }
    }
  }
  value_info {
    name: "v_transformer_blocks.0.Add_76"
    type {
      tensor_type {
        elem_type: 1
        shape {
          dim {
            dim_param: "batch"
          }
          dim {
            dim_param: "floor(height/2)*floor(width/2)"
          }
          dim {
            dim_value: 32
          }
        }
      }
    }
  }
  value_info {
    name: "v_transformer_blocks.0.ff.linear_1.Transpose_77"
    type {
      tensor_type {
        elem_type: 1
        shape {
          dim {
            dim_value: 32
          }
          dim {
            dim_value: 128
          }
        }
      }
    }
  }
  value_info {
    name: "v_transformer_blocks.0.ff.linear_1.MatMul_78"
    type {
      tensor_type {
        elem_type: 1
        shape {
          dim {
            dim_param: "batch"
          }
          dim {
            dim_param: "floor(height/2)*floor(width/2)"
          }
          dim {
            dim_value: 128
          }
        }
      }
    }
  }
  value_info {
    name: "v_transformer_blocks.0.ff.linear_1.Add_79"
    type {
      tensor_type {
        elem_type: 1
        shape {
          dim {
            dim_param: "batch"
          }
          dim {
            dim_param: "floor(height/2)*floor(width/2)"
          }
          dim {
            dim_value: 128
          }
        }
      }
    }
  }
  value_info {
    name: "v_transformer_blocks.0.ff.Gelu_80"
    type {
      tensor_type {
        elem_type: 1
        shape {
          dim {
            dim_param: "batch"
          }
          dim {
            dim_param: "floor(height/2)*floor(width/2)"
          }
          dim {
            dim_value: 128
          }
        }
      }
    }
  }
  value_info {
    name: "v_transformer_blocks.0.ff.linear_2.Transpose_81"
    type {
      tensor_type {
        elem_type: 1
        shape {
          dim {
            dim_value: 128
          }
          dim {
            dim_value: 32
          }
        }
      }
    }
  }
  value_info {
    name: "v_transformer_blocks.0.ff.linear_2.MatMul_82"
    type {
      tensor_type {
        elem_type: 1
        shape {
          dim {
            dim_param: "batch"
          }
          dim {
            dim_param: "floor(height/2)*floor(width/2)"
          }
          dim {
            dim_value: 32
          }
        }
      }
    }
  }
  value_info {
    name: "v_transformer_blocks.0.ff.linear_2.Add_83"
    type {
      tensor_type {
        elem_type: 1
        shape {
          dim {
            dim_param: "batch"
          }
          dim {
            dim_param: "floor(height/2)*floor(width/2)"
          }
          dim {
            dim_value: 32
          }
        }
      }
    }
  }
  value_info {
    name: "v_transformer_blocks.0.Unsqueeze_84"
    type {
      tensor_type {
        elem_type: 1
        shape {
          dim {
            dim_param: "batch"
          }
          dim {
            dim_value: 1
          }
          dim {
            dim_value: 32
          }
        }
      }
    }
  }
  value_info {
    name: "v_transformer_blocks.0.Mul_85"
    type {
      tensor_type {
        elem_type: 1
        shape {
          dim {
            dim_param: "batch"
          }
          dim {
            dim_param: "floor(height/2)*floor(width/2)"
          }
          dim {
            dim_value: 32
          }
        }
      }
    }
  }
  value_info {
    name: "v_norm_out.linear.Transpose_89"
    type {
      tensor_type {
        elem_type: 1
        shape {
          dim {
            dim_value: 32
          }
          dim {
            dim_value: 64
          }
        }
      }
    }
  }
  value_info {
    name: "v_norm_out.linear.MatMul_90"
    type {
      tensor_type {
        elem_type: 1
        shape {
          dim {
            dim_param: "batch"
          }
          dim {
            dim_value: 64
          }
        }
      }
    }
  }
  value_info {
    name: "v_norm_out.linear.Add_91"
    type {
      tensor_type {
        elem_type: 1
        shape {
          dim {
            dim_param: "batch"
          }
          dim {
            dim_value: 64
          }
        }
      }
    }
  }
  value_info {
    name: "v_norm_out.Split_92_0"
    type {
      tensor_type {
        elem_type: 1
        shape {
          dim {
            dim_param: "batch"
          }
          dim {
            dim_value: 32
          }
        }
      }
    }
  }
  value_info {
    name: "v_norm_out.Split_92_1"
    type {
      tensor_type {
        elem_type: 1
        shape {
          dim {
            dim_param: "batch"
          }
          dim {
            dim_value: 32
          }
        }
      }
    }
  }
  value_info {
    name: "v_norm_out.norm.LayerNormalization_93"
    type {
      tensor_type {
        elem_type: 1
        shape {
          dim {
            dim_param: "batch"
          }
          dim {
            dim_param: "floor(height/2)*floor(width/2)"
          }
          dim {
            dim_value: 32
          }
        }
      }
    }
  }
  value_info {
    name: "v_norm_out.Unsqueeze_94"
    type {
      tensor_type {
        elem_type: 1
        shape {
          dim {
            dim_param: "batch"
          }
          dim {
            dim_value: 1
          }
          dim {
            dim_value: 32
          }
        }
      }
    }
  }
  value_info {
    name: "v_norm_out.Add_95"
    type {
      tensor_type {
        elem_type: 1
        shape {
          dim {
            dim_param: "batch"
          }
          dim {
            dim_value: 1
          }
          dim {
            dim_value: 32
          }
        }
      }
    }
  }
  value_info {
    name: "v_norm_out.Mul_96"
    type {
      tensor_type {
        elem_type: 1
        shape {
          dim {
            dim_param: "batch"
          }
          dim {
            dim_param: "floor(height/2)*floor(width/2)"
          }
          dim {
            dim_value: 32
          }
        }
      }
    }
  }
  value_info {
    name: "v_norm_out.Unsqueeze_97"
    type {
      tensor_type {
        elem_type: 1
        shape {
          dim {
            dim_param: "batch"
          }
          dim {
            dim_value: 1
          }
          dim {
            dim_value: 32
          }
        }
      }
    }
  }
  value_info {
    name: "v_norm_out.Add_98"
    type {
      tensor_type {
        elem_type: 1
        shape {
          dim {
            dim_param: "batch"
          }
          dim {
            dim_param: "floor(height/2)*floor(width/2)"
          }
          dim {
            dim_value: 32
          }
        }
      }
    }
  }
  value_info {
    name: "v_proj_out.Transpose_99"
    type {
      tensor_type {
        elem_type: 1
        shape {
          dim {
            dim_value: 32
          }
          dim {
            dim_value: 16
          }
        }
      }
    }
  }
  value_info {
    name: "v_proj_out.MatMul_100"
    type {
      tensor_type {
        elem_type: 1
        shape {
          dim {
            dim_param: "batch"
          }
          dim {
            dim_param: "floor(height/2)*floor(width/2)"
          }
          dim {
            dim_value: 16
          }
        }
      }
    }
  }
  value_info {
    name: "v_proj_out.Add_101"
    type {
      tensor_type {
        elem_type: 1
        shape {
          dim {
            dim_param: "batch"
          }
          dim {
            dim_param: "floor(height/2)*floor(width/2)"
          }
          dim {
            dim_value: 16
          }
        }
      }
    }
  }
  value_info {
    name: "v_Shape_102"
    type {
      tensor_type {
        elem_type: 7
        shape {
          dim {
            dim_value: 1
          }
        }
      }
    }
    metadata_props {
      key: "pkg.onnx_shape_inference.sym_data"
      value: "[\"batch\"]"
    }
  }
  value_info {
    name: "v_Shape_103"
    type {
      tensor_type {
        elem_type: 7
        shape {
          dim {
            dim_value: 1
          }
        }
      }
    }
    metadata_props {
      key: "pkg.onnx_shape_inference.sym_data"
      value: "[\"height\"]"
    }
  }
  value_info {
    name: "v_Shape_104"
    type {
      tensor_type {
        elem_type: 7
        shape {
          dim {
            dim_value: 1
          }
        }
      }
    }
    metadata_props {
      key: "pkg.onnx_shape_inference.sym_data"
      value: "[\"width\"]"
    }
  }
  value_info {
    name: "v_Constant_105"
    type {
      tensor_type {
        elem_type: 7
        shape {
          dim {
            dim_value: 1
          }
        }
      }
    }
  }
  value_info {
    name: "v_Div_106"
    type {
      tensor_type {
        elem_type: 7
        shape {
          dim {
            dim_value: 1
          }
        }
      }
    }
    metadata_props {
      key: "pkg.onnx_shape_inference.sym_data"
      value: "[\"floor(height/2)\"]"
    }
  }
  value_info {
    name: "v_Div_108"
    type {
      tensor_type {
        elem_type: 7
        shape {
          dim {
            dim_value: 1
          }
        }
      }
    }
    metadata_props {
      key: "pkg.onnx_shape_inference.sym_data"
      value: "[\"floor(width/2)\"]"
    }
  }
  value_info {
    name: "v_Constant_109"
    type {
      tensor_type {
        elem_type: 7
        shape {
          dim {
            dim_value: 3
          }
        }
      }
    }
  }
  value_info {
    name: "v_Concat_110"
    type {
      tensor_type {
        elem_type: 7
        shape {
          dim {
            dim_value: 6
          }
        }
      }
    }
    metadata_props {
      key: "pkg.onnx_shape_inference.sym_data"
      value: "[\"batch\", \"floor(height/2)\", \"floor(width/2)\", 2, 2, 4]"
    }
  }
  value_info {
    name: "v_Reshape_111"
    type {
      tensor_type {
        elem_type: 1
        shape {
          dim {
            dim_param: "batch"
          }
          dim {
            dim_param: "floor(height/2)"
          }
          dim {
            dim_param: "floor(width/2)"
          }
          dim {
            dim_value: 2
          }
          dim {
            dim_value: 2
          }
          dim {
            dim_value: 4
          }
        }
      }
    }
  }
  value_info {
    name: "v_Transpose_112"
    type {
      tensor_type {
        elem_type: 1
        shape {
          dim {
            dim_param: "batch"
          }
          dim {
            dim_value: 4
          }
          dim {
            dim_param: "floor(height/2)"
          }
          dim {
            dim_value: 2
          }
          dim {
            dim_param: "floor(width/2)"
          }
          dim {
            dim_value: 2
          }
        }
      }
    }
  }
  value_info {
    name: "v_Constant_113"
    type {
      tensor_type {
        elem_type: 7
        shape {
          dim {
            dim_value: 1
          }
        }
      }
    }
  }
  value_info {
    name: "v_Mul_115"
    type {
      tensor_type {
        elem_type: 7
        shape {
          dim {
            dim_value: 1
          }
        }
      }
    }
    metadata_props {
      key: "pkg.onnx_shape_inference.sym_data"
      value: "[\"2*floor(height/2)\"]"
    }
  }
  value_info {
    name: "v_Mul_117"
    type {
      tensor_type {
        elem_type: 7
        shape {
          dim {
            dim_value: 1
          }
        }
      }
    }
    metadata_props {
      key: "pkg.onnx_shape_inference.sym_data"
      value: "[\"2*floor(width/2)\"]"
    }
  }
  value_info {
    name: "v_Concat_118"
    type {
      tensor_type {
        elem_type: 7
        shape {
          dim {
            dim_value: 4
          }
        }
      }
    }
    metadata_props {
      key: "pkg.onnx_shape_inference.sym_data"
      value: "[\"batch\", 4, \"2*floor(height/2)\", \"2*floor(width/2)\"]"
    }
  }
}
opset_import {
  domain: ""
  version: 24
}
opset_import {
  domain: "com.microsoft"
  version: 1
}
functions {
  name: "SkipLayerNormalization"
  input: "input"
  input: "skip"
  input: "weight"
  input: "bias"
  output: "norm_out"
  output: "mean_out"
  output: "inv_std_out"
  output: "add_out"
  node {
    input: "input"
    input: "skip"
    output: "add_out"
    name: "Add_node_0"
    op_type: "Add"
    metadata_props {
      key: "namespace"
      value: ""
    }
    metadata_props {
      key: "pkg.onnxscript.class_hierarchy"
      value: "[]"
    }
    metadata_props {
      key: "pkg.onnxscript.name_scopes"
      value: "[]"
    }
    metadata_props {
      key: "pkg.onnxscript.shape_inference_error"
      value: "Type of input 0 value input of node Add_node_0 not known"
    }
  }
  node {
    input: "add_out"
    input: "weight"
    input: "bias"
    output: "norm_out"
    output: "mean_out"
    output: "inv_std_out"
    name: "LayerNormalization_node_1"
    op_type: "LayerNormalization"
    attribute {
      name: "epsilon"
      type: FLOAT
      ref_attr_name: "epsilon"
    }
    attribute {
      name: "axis"
      i: -1
      type: INT
    }
    metadata_props {
      key: "namespace"
      value: ""
    }
    metadata_props {
      key: "pkg.onnxscript.class_hierarchy"
      value: "[]"
    }
    metadata_props {
      key: "pkg.onnxscript.name_scopes"
      value: "[]"
    }
    metadata_props {
      key: "pkg.onnxscript.shape_inference_error"
      value: "Type of input 0 value v_Add_0 of node LayerNormalization_node_1 not known"
    }
  }
  opset_import {
    domain: ""
    version: 24
  }
  domain: "com.microsoft"
  attribute_proto {
    name: "epsilon"
    f: 1e-05
    type: FLOAT
  }
}
