ir_version: 11
producer_name: "mobius"
producer_version: "0.1.0"
graph {
  node {
    input: "transformer.wte.weight"
    input: "tokens"
    output: "v_transformer.wte.Gather_0"
    name: "transformer/wte/Gather_node_0"
    op_type: "Gather"
    metadata_props {
      key: "namespace"
      value: ": GPT2CausalLMModel/transformer: _GPT2TextModel/wte: Embedding"
    }
    metadata_props {
      key: "pkg.onnxscript.class_hierarchy"
      value: "[\'GPT2CausalLMModel\', \'_GPT2TextModel\', \'Embedding\']"
    }
    metadata_props {
      key: "pkg.onnxscript.name_scopes"
      value: "[\'\', \'transformer\', \'wte\']"
    }
  }
  node {
    input: "transformer.wpe.weight"
    input: "pos_port"
    output: "v_transformer.wpe.Gather_1"
    name: "transformer/wpe/Gather_node_1"
    op_type: "Gather"
    metadata_props {
      key: "namespace"
      value: ": GPT2CausalLMModel/transformer: _GPT2TextModel/wpe: Embedding"
    }
    metadata_props {
      key: "pkg.onnxscript.class_hierarchy"
      value: "[\'GPT2CausalLMModel\', \'_GPT2TextModel\', \'Embedding\']"
    }
    metadata_props {
      key: "pkg.onnxscript.name_scopes"
      value: "[\'\', \'transformer\', \'wpe\']"
    }
  }
  node {
    input: "attn_mask_port"
    output: "v_transformer.Cast_3"
    name: "transformer/Cast_node_3"
    op_type: "Cast"
    attribute {
      name: "to"
      i: 9
      type: INT
    }
    metadata_props {
      key: "namespace"
      value: ": GPT2CausalLMModel/transformer: _GPT2TextModel"
    }
    metadata_props {
      key: "pkg.onnxscript.class_hierarchy"
      value: "[\'GPT2CausalLMModel\', \'_GPT2TextModel\']"
    }
    metadata_props {
      key: "pkg.onnxscript.name_scopes"
      value: "[\'\', \'transformer\']"
    }
  }
  node {
    input: "v_transformer.Cast_3"
    input: "const_1d_0"
    output: "v_transformer.Unsqueeze_4"
    name: "transformer/Unsqueeze_node_4"
    op_type: "Unsqueeze"
    metadata_props {
      key: "namespace"
      value: ": GPT2CausalLMModel/transformer: _GPT2TextModel"
    }
    metadata_props {
      key: "pkg.onnxscript.class_hierarchy"
      value: "[\'GPT2CausalLMModel\', \'_GPT2TextModel\']"
    }
    metadata_props {
      key: "pkg.onnxscript.name_scopes"
      value: "[\'\', \'transformer\']"
    }
  }
  node {
    input: "tokens"
    output: "v_transformer.Shape_5"
    name: "transformer/Shape_node_5"
    op_type: "Shape"
    attribute {
      name: "end"
      i: 1
      type: INT
    }
    attribute {
      name: "start"
      i: 0
      type: INT
    }
    metadata_props {
      key: "namespace"
      value: ": GPT2CausalLMModel/transformer: _GPT2TextModel"
    }
    metadata_props {
      key: "pkg.onnxscript.class_hierarchy"
      value: "[\'GPT2CausalLMModel\', \'_GPT2TextModel\']"
    }
    metadata_props {
      key: "pkg.onnxscript.name_scopes"
      value: "[\'\', \'transformer\']"
    }
  }
  node {
    input: "tokens"
    output: "v_transformer.Shape_6"
    name: "transformer/Shape_node_6"
    op_type: "Shape"
    attribute {
      name: "end"
      i: 2
      type: INT
    }
    attribute {
      name: "start"
      i: 1
      type: INT
    }
    metadata_props {
      key: "namespace"
      value: ": GPT2CausalLMModel/transformer: _GPT2TextModel"
    }
    metadata_props {
      key: "pkg.onnxscript.class_hierarchy"
      value: "[\'GPT2CausalLMModel\', \'_GPT2TextModel\']"
    }
    metadata_props {
      key: "pkg.onnxscript.name_scopes"
      value: "[\'\', \'transformer\']"
    }
  }
  node {
    input: "attn_mask_port"
    output: "v_transformer.Shape_7"
    name: "transformer/Shape_node_7"
    op_type: "Shape"
    attribute {
      name: "end"
      i: 2
      type: INT
    }
    attribute {
      name: "start"
      i: 1
      type: INT
    }
    metadata_props {
      key: "namespace"
      value: ": GPT2CausalLMModel/transformer: _GPT2TextModel"
    }
    metadata_props {
      key: "pkg.onnxscript.class_hierarchy"
      value: "[\'GPT2CausalLMModel\', \'_GPT2TextModel\']"
    }
    metadata_props {
      key: "pkg.onnxscript.name_scopes"
      value: "[\'\', \'transformer\']"
    }
  }
  node {
    input: "v_transformer.Shape_5"
    input: "v_transformer.Shape_6"
    input: "v_transformer.Shape_7"
    output: "v_transformer.Concat_8"
    name: "transformer/Concat_node_8"
    op_type: "Concat"
    attribute {
      name: "axis"
      i: 0
      type: INT
    }
    metadata_props {
      key: "namespace"
      value: ": GPT2CausalLMModel/transformer: _GPT2TextModel"
    }
    metadata_props {
      key: "pkg.onnxscript.class_hierarchy"
      value: "[\'GPT2CausalLMModel\', \'_GPT2TextModel\']"
    }
    metadata_props {
      key: "pkg.onnxscript.name_scopes"
      value: "[\'\', \'transformer\']"
    }
  }
  node {
    input: "v_transformer.Unsqueeze_4"
    input: "v_transformer.Concat_8"
    output: "v_transformer.Expand_9"
    name: "transformer/Expand_node_9"
    op_type: "Expand"
    metadata_props {
      key: "namespace"
      value: ": GPT2CausalLMModel/transformer: _GPT2TextModel"
    }
    metadata_props {
      key: "pkg.onnxscript.class_hierarchy"
      value: "[\'GPT2CausalLMModel\', \'_GPT2TextModel\']"
    }
    metadata_props {
      key: "pkg.onnxscript.name_scopes"
      value: "[\'\', \'transformer\']"
    }
  }
  node {
    input: "v_transformer.Expand_9"
    input: "const_1d_0"
    output: "v_transformer.Unsqueeze_10"
    name: "transformer/Unsqueeze_node_10"
    op_type: "Unsqueeze"
    metadata_props {
      key: "namespace"
      value: ": GPT2CausalLMModel/transformer: _GPT2TextModel"
    }
    metadata_props {
      key: "pkg.onnxscript.class_hierarchy"
      value: "[\'GPT2CausalLMModel\', \'_GPT2TextModel\']"
    }
    metadata_props {
      key: "pkg.onnxscript.name_scopes"
      value: "[\'\', \'transformer\']"
    }
  }
  node {
    input: "v_transformer.wte.Gather_0"
    input: "v_transformer.wpe.Gather_1"
    input: "transformer.h.0.ln_1.weight"
    input: "transformer.h.0.ln_1.bias"
    output: "v_transformer.h.0.ln_1.LayerNormalization_11"
    output: "val_0"
    output: "val_1"
    output: "val_2"
    name: "node_SkipLayerNormalization_0"
    op_type: "SkipLayerNormalization"
    attribute {
      name: "epsilon"
      f: 1e-06
      type: FLOAT
    }
    domain: "com.microsoft"
    metadata_props {
      key: "namespace"
      value: ": GPT2CausalLMModel/transformer: _GPT2TextModel/h.0: _GPT2DecoderLayer/ln_1: LayerNorm"
    }
    metadata_props {
      key: "pkg.onnxscript.class_hierarchy"
      value: "[\'GPT2CausalLMModel\', \'_GPT2TextModel\', \'_GPT2DecoderLayer\', \'LayerNorm\']"
    }
    metadata_props {
      key: "pkg.onnxscript.name_scopes"
      value: "[\'\', \'transformer\', \'h.0\', \'ln_1\']"
    }
    metadata_props {
      key: "pkg.onnxscript.rewriter.rule_name"
      value: "AddLayerNormToSkipLayerNorm"
    }
  }
  node {
    input: "v_transformer.h.0.ln_1.LayerNormalization_11"
    input: "transformer.h.0.attn.q_proj.weight_t"
    output: "v_transformer.h.0.attn.q_proj.MatMul_13"
    name: "transformer/h.0/attn/q_proj/MatMul_node_13"
    op_type: "MatMul"
    metadata_props {
      key: "namespace"
      value: ": GPT2CausalLMModel/transformer: _GPT2TextModel/h.0: _GPT2DecoderLayer/attn: Attention/q_proj: Linear"
    }
    metadata_props {
      key: "pkg.onnxscript.class_hierarchy"
      value: "[\'GPT2CausalLMModel\', \'_GPT2TextModel\', \'_GPT2DecoderLayer\', \'Attention\', \'Linear\']"
    }
    metadata_props {
      key: "pkg.onnxscript.name_scopes"
      value: "[\'\', \'transformer\', \'h.0\', \'attn\', \'q_proj\']"
    }
  }
  node {
    input: "v_transformer.h.0.ln_1.LayerNormalization_11"
    input: "transformer.h.0.attn.k_proj.weight_t"
    output: "v_transformer.h.0.attn.k_proj.MatMul_15"
    name: "transformer/h.0/attn/k_proj/MatMul_node_15"
    op_type: "MatMul"
    metadata_props {
      key: "namespace"
      value: ": GPT2CausalLMModel/transformer: _GPT2TextModel/h.0: _GPT2DecoderLayer/attn: Attention/k_proj: Linear"
    }
    metadata_props {
      key: "pkg.onnxscript.class_hierarchy"
      value: "[\'GPT2CausalLMModel\', \'_GPT2TextModel\', \'_GPT2DecoderLayer\', \'Attention\', \'Linear\']"
    }
    metadata_props {
      key: "pkg.onnxscript.name_scopes"
      value: "[\'\', \'transformer\', \'h.0\', \'attn\', \'k_proj\']"
    }
  }
  node {
    input: "v_transformer.h.0.ln_1.LayerNormalization_11"
    input: "transformer.h.0.attn.v_proj.weight_t"
    output: "v_transformer.h.0.attn.v_proj.MatMul_17"
    name: "transformer/h.0/attn/v_proj/MatMul_node_17"
    op_type: "MatMul"
    metadata_props {
      key: "namespace"
      value: ": GPT2CausalLMModel/transformer: _GPT2TextModel/h.0: _GPT2DecoderLayer/attn: Attention/v_proj: Linear"
    }
    metadata_props {
      key: "pkg.onnxscript.class_hierarchy"
      value: "[\'GPT2CausalLMModel\', \'_GPT2TextModel\', \'_GPT2DecoderLayer\', \'Attention\', \'Linear\']"
    }
    metadata_props {
      key: "pkg.onnxscript.name_scopes"
      value: "[\'\', \'transformer\', \'h.0\', \'attn\', \'v_proj\']"
    }
  }
  node {
    input: "v_transformer.h.0.attn.q_proj.MatMul_13"
    input: "v_transformer.h.0.attn.k_proj.MatMul_15"
    input: "v_transformer.h.0.attn.v_proj.MatMul_17"
    input: "v_transformer.Unsqueeze_10"
    input: "cache_k_in.0"
    input: "cache_v_in.0"
    output: "v_transformer.h.0.attn.Attention_18_0"
    output: "cache_k_out.0"
    output: "cache_v_out.0"
    name: "transformer/h.0/attn/Attention_node_18"
    op_type: "Attention"
    attribute {
      name: "is_causal"
      i: 1
      type: INT
    }
    attribute {
      name: "kv_num_heads"
      i: 2
      type: INT
    }
    attribute {
      name: "q_num_heads"
      i: 2
      type: INT
    }
    attribute {
      name: "softcap"
      f: 0.0
      type: FLOAT
    }
    attribute {
      name: "scale"
      f: 0.35355338
      type: FLOAT
    }
    metadata_props {
      key: "namespace"
      value: ": GPT2CausalLMModel/transformer: _GPT2TextModel/h.0: _GPT2DecoderLayer/attn: Attention"
    }
    metadata_props {
      key: "pkg.onnxscript.class_hierarchy"
      value: "[\'GPT2CausalLMModel\', \'_GPT2TextModel\', \'_GPT2DecoderLayer\', \'Attention\']"
    }
    metadata_props {
      key: "pkg.onnxscript.name_scopes"
      value: "[\'\', \'transformer\', \'h.0\', \'attn\']"
    }
  }
  node {
    input: "v_transformer.h.0.attn.Attention_18_0"
    input: "transformer.h.0.attn.o_proj.weight_t"
    output: "v_transformer.h.0.attn.o_proj.MatMul_20"
    name: "transformer/h.0/attn/o_proj/MatMul_node_20"
    op_type: "MatMul"
    metadata_props {
      key: "namespace"
      value: ": GPT2CausalLMModel/transformer: _GPT2TextModel/h.0: _GPT2DecoderLayer/attn: Attention/o_proj: Linear"
    }
    metadata_props {
      key: "pkg.onnxscript.class_hierarchy"
      value: "[\'GPT2CausalLMModel\', \'_GPT2TextModel\', \'_GPT2DecoderLayer\', \'Attention\', \'Linear\']"
    }
    metadata_props {
      key: "pkg.onnxscript.name_scopes"
      value: "[\'\', \'transformer\', \'h.0\', \'attn\', \'o_proj\']"
    }
  }
  node {
    input: "val_2"
    input: "v_transformer.h.0.attn.o_proj.MatMul_20"
    input: "transformer.h.0.ln_2.weight"
    input: "transformer.h.0.ln_2.bias"
    output: "v_transformer.h.0.ln_2.LayerNormalization_22"
    output: "val_3"
    output: "val_4"
    output: "val_5"
    name: "node_SkipLayerNormalization_1"
    op_type: "SkipLayerNormalization"
    attribute {
      name: "epsilon"
      f: 1e-06
      type: FLOAT
    }
    domain: "com.microsoft"
    metadata_props {
      key: "namespace"
      value: ": GPT2CausalLMModel/transformer: _GPT2TextModel/h.0: _GPT2DecoderLayer/ln_2: LayerNorm"
    }
    metadata_props {
      key: "pkg.onnxscript.class_hierarchy"
      value: "[\'GPT2CausalLMModel\', \'_GPT2TextModel\', \'_GPT2DecoderLayer\', \'LayerNorm\']"
    }
    metadata_props {
      key: "pkg.onnxscript.name_scopes"
      value: "[\'\', \'transformer\', \'h.0\', \'ln_2\']"
    }
    metadata_props {
      key: "pkg.onnxscript.rewriter.rule_name"
      value: "AddLayerNormToSkipLayerNorm"
    }
  }
  node {
    input: "v_transformer.h.0.ln_2.LayerNormalization_22"
    input: "transformer.h.0.mlp.up_proj.weight_t"
    output: "v_transformer.h.0.mlp.up_proj.MatMul_24"
    name: "transformer/h.0/mlp/up_proj/MatMul_node_24"
    op_type: "MatMul"
    metadata_props {
      key: "namespace"
      value: ": GPT2CausalLMModel/transformer: _GPT2TextModel/h.0: _GPT2DecoderLayer/mlp: FCMLP/up_proj: Linear"
    }
    metadata_props {
      key: "pkg.onnxscript.class_hierarchy"
      value: "[\'GPT2CausalLMModel\', \'_GPT2TextModel\', \'_GPT2DecoderLayer\', \'FCMLP\', \'Linear\']"
    }
    metadata_props {
      key: "pkg.onnxscript.name_scopes"
      value: "[\'\', \'transformer\', \'h.0\', \'mlp\', \'up_proj\']"
    }
  }
  node {
    input: "v_transformer.h.0.mlp.up_proj.MatMul_24"
    input: "transformer.h.0.mlp.up_proj.bias"
    output: "v_transformer.h.0.mlp.up_proj.Add_25"
    name: "transformer/h.0/mlp/up_proj/Add_node_25"
    op_type: "Add"
    metadata_props {
      key: "namespace"
      value: ": GPT2CausalLMModel/transformer: _GPT2TextModel/h.0: _GPT2DecoderLayer/mlp: FCMLP/up_proj: Linear"
    }
    metadata_props {
      key: "pkg.onnxscript.class_hierarchy"
      value: "[\'GPT2CausalLMModel\', \'_GPT2TextModel\', \'_GPT2DecoderLayer\', \'FCMLP\', \'Linear\']"
    }
    metadata_props {
      key: "pkg.onnxscript.name_scopes"
      value: "[\'\', \'transformer\', \'h.0\', \'mlp\', \'up_proj\']"
    }
  }
  node {
    input: "v_transformer.h.0.mlp.up_proj.Add_25"
    output: "v_transformer.h.0.mlp.Gelu_26"
    name: "transformer/h.0/mlp/Gelu_node_26"
    op_type: "Gelu"
    metadata_props {
      key: "namespace"
      value: ": GPT2CausalLMModel/transformer: _GPT2TextModel/h.0: _GPT2DecoderLayer/mlp: FCMLP"
    }
    metadata_props {
      key: "pkg.onnxscript.class_hierarchy"
      value: "[\'GPT2CausalLMModel\', \'_GPT2TextModel\', \'_GPT2DecoderLayer\', \'FCMLP\']"
    }
    metadata_props {
      key: "pkg.onnxscript.name_scopes"
      value: "[\'\', \'transformer\', \'h.0\', \'mlp\']"
    }
  }
  node {
    input: "v_transformer.h.0.mlp.Gelu_26"
    input: "transformer.h.0.mlp.down_proj.weight_t"
    output: "v_transformer.h.0.mlp.down_proj.MatMul_28"
    name: "transformer/h.0/mlp/down_proj/MatMul_node_28"
    op_type: "MatMul"
    metadata_props {
      key: "namespace"
      value: ": GPT2CausalLMModel/transformer: _GPT2TextModel/h.0: _GPT2DecoderLayer/mlp: FCMLP/down_proj: Linear"
    }
    metadata_props {
      key: "pkg.onnxscript.class_hierarchy"
      value: "[\'GPT2CausalLMModel\', \'_GPT2TextModel\', \'_GPT2DecoderLayer\', \'FCMLP\', \'Linear\']"
    }
    metadata_props {
      key: "pkg.onnxscript.name_scopes"
      value: "[\'\', \'transformer\', \'h.0\', \'mlp\', \'down_proj\']"
    }
  }
  node {
    input: "v_transformer.h.0.mlp.down_proj.MatMul_28"
    input: "transformer.h.0.mlp.down_proj.bias"
    output: "v_transformer.h.0.mlp.down_proj.Add_29"
    name: "transformer/h.0/mlp/down_proj/Add_node_29"
    op_type: "Add"
    metadata_props {
      key: "namespace"
      value: ": GPT2CausalLMModel/transformer: _GPT2TextModel/h.0: _GPT2DecoderLayer/mlp: FCMLP/down_proj: Linear"
    }
    metadata_props {
      key: "pkg.onnxscript.class_hierarchy"
      value: "[\'GPT2CausalLMModel\', \'_GPT2TextModel\', \'_GPT2DecoderLayer\', \'FCMLP\', \'Linear\']"
    }
    metadata_props {
      key: "pkg.onnxscript.name_scopes"
      value: "[\'\', \'transformer\', \'h.0\', \'mlp\', \'down_proj\']"
    }
  }
  node {
    input: "val_5"
    input: "v_transformer.h.0.mlp.down_proj.Add_29"
    input: "transformer.ln_f.weight"
    input: "transformer.ln_f.bias"
    output: "v_transformer.ln_f.LayerNormalization_31"
    output: "val_6"
    output: "val_7"
    output: "val_8"
    name: "node_SkipLayerNormalization_2"
    op_type: "SkipLayerNormalization"
    attribute {
      name: "epsilon"
      f: 1e-06
      type: FLOAT
    }
    domain: "com.microsoft"
    metadata_props {
      key: "namespace"
      value: ": GPT2CausalLMModel/transformer: _GPT2TextModel/ln_f: LayerNorm"
    }
    metadata_props {
      key: "pkg.onnxscript.class_hierarchy"
      value: "[\'GPT2CausalLMModel\', \'_GPT2TextModel\', \'LayerNorm\']"
    }
    metadata_props {
      key: "pkg.onnxscript.name_scopes"
      value: "[\'\', \'transformer\', \'ln_f\']"
    }
    metadata_props {
      key: "pkg.onnxscript.rewriter.rule_name"
      value: "AddLayerNormToSkipLayerNorm"
    }
  }
  node {
    input: "v_transformer.ln_f.LayerNormalization_31"
    input: "lm_head.weight_t"
    output: "out_logits"
    name: "lm_head/MatMul_node_33"
    op_type: "MatMul"
    metadata_props {
      key: "namespace"
      value: ": GPT2CausalLMModel/lm_head: Linear"
    }
    metadata_props {
      key: "pkg.onnxscript.class_hierarchy"
      value: "[\'GPT2CausalLMModel\', \'Linear\']"
    }
    metadata_props {
      key: "pkg.onnxscript.name_scopes"
      value: "[\'\', \'lm_head\']"
    }
  }
  name: "main_graph"
  initializer {
    dims: 32
    dims: 16
    data_type: 1
    name: "transformer.wte.weight"
    raw_data: "…"
  }
  initializer {
    dims: 16
    dims: 16
    data_type: 1
    name: "transformer.wpe.weight"
    raw_data: "…"
  }
  initializer {
    dims: 1
    data_type: 7
    name: "const_1d_0"
    raw_data: "\000\000\000\000\000\000\000\000"
  }
  initializer {
    dims: 16
    data_type: 1
    name: "transformer.h.0.ln_1.weight"
    raw_data: "…"
  }
  initializer {
    dims: 16
    data_type: 1
    name: "transformer.h.0.ln_1.bias"
    raw_data: "…"
  }
  initializer {
    dims: 16
    data_type: 1
    name: "transformer.h.0.ln_2.weight"
    raw_data: "…"
  }
  initializer {
    dims: 16
    data_type: 1
    name: "transformer.h.0.ln_2.bias"
    raw_data: "…"
  }
  initializer {
    dims: 32
    data_type: 1
    name: "transformer.h.0.mlp.up_proj.bias"
    raw_data: "…"
  }
  initializer {
    dims: 16
    data_type: 1
    name: "transformer.h.0.mlp.down_proj.bias"
    raw_data: "…"
  }
  initializer {
    dims: 16
    data_type: 1
    name: "transformer.ln_f.weight"
    raw_data: "…"
  }
  initializer {
    dims: 16
    data_type: 1
    name: "transformer.ln_f.bias"
    raw_data: "…"
  }
  initializer {
    dims: 16
    dims: 16
    data_type: 1
    name: "transformer.h.0.attn.q_proj.weight_t"
    raw_data: "…"
  }
  initializer {
    dims: 16
    dims: 16
    data_type: 1
    name: "transformer.h.0.attn.k_proj.weight_t"
    raw_data: "…"
  }
  initializer {
    dims: 16
    dims: 16
    data_type: 1
    name: "transformer.h.0.attn.v_proj.weight_t"
    raw_data: "…"
  }
  initializer {
    dims: 16
    dims: 16
    data_type: 1
    name: "transformer.h.0.attn.o_proj.weight_t"
    raw_data: "…"
  }
  initializer {
    dims: 16
    dims: 32
    data_type: 1
    name: "transformer.h.0.mlp.up_proj.weight_t"
    raw_data: "…"
  }
  initializer {
    dims: 32
    dims: 16
    data_type: 1
    name: "transformer.h.0.mlp.down_proj.weight_t"
    raw_data: "…"
  }
  initializer {
    dims: 16
    dims: 32
    data_type: 1
    name: "lm_head.weight_t"
    raw_data: "…"
  }
  input {
    name: "tokens"
    type {
      tensor_type {
        elem_type: 7
        shape {
          dim {
            dim_param: "batch"
          }
          dim {
            dim_param: "sequence_len"
          }
        }
      }
    }
  }
  input {
    name: "attn_mask_port"
    type {
      tensor_type {
        elem_type: 7
        shape {
          dim {
            dim_param: "batch"
          }
          dim {
            dim_param: "past_seq_len + seq_len"
          }
        }
      }
    }
  }
  input {
    name: "pos_port"
    type {
      tensor_type {
        elem_type: 7
        shape {
          dim {
            dim_param: "batch"
          }
          dim {
            dim_param: "sequence_len"
          }
        }
      }
    }
  }
  input {
    name: "cache_k_in.0"
    type {
      tensor_type {
        elem_type: 1
        shape {
          dim {
            dim_param: "batch"
          }
          dim {
            dim_value: 2
          }
          dim {
            dim_param: "past_sequence_len"
          }
          dim {
            dim_value: 8
          }
        }
      }
    }
  }
  input {
    name: "cache_v_in.0"
    type {
      tensor_type {
        elem_type: 1
        shape {
          dim {
            dim_param: "batch"
          }
          dim {
            dim_value: 2
          }
          dim {
            dim_param: "past_sequence_len"
          }
          dim {
            dim_value: 8
          }
        }
      }
    }
  }
  output {
    name: "out_logits"
    type {
      tensor_type {
        elem_type: 1
        shape {
          dim {
            dim_param: "batch"
          }
          dim {
            dim_param: "sequence_len"
          }
          dim {
            dim_value: 32
          }
        }
      }
    }
  }
  output {
    name: "cache_k_out.0"
    type {
      tensor_type {
        elem_type: 1
        shape {
          dim {
            dim_param: "batch"
          }
          dim {
            dim_value: 2
          }
          dim {
            dim_param: "past_sequence_len + sequence_len"
          }
          dim {
            dim_value: 8
          }
        }
      }
    }
  }
  output {
    name: "cache_v_out.0"
    type {
      tensor_type {
        elem_type: 1
        shape {
          dim {
            dim_param: "batch"
          }
          dim {
            dim_value: 2
          }
          dim {
            dim_param: "past_sequence_len + sequence_len"
          }
          dim {
            dim_value: 8
          }
        }
      }
    }
  }
  value_info {
    name: "transformer.wte.weight"
    type {
      tensor_type {
        elem_type: 1
        shape {
          dim {
            dim_value: 32
          }
          dim {
            dim_value: 16
          }
        }
      }
    }
  }
  value_info {
    name: "transformer.wpe.weight"
    type {
      tensor_type {
        elem_type: 1
        shape {
          dim {
            dim_value: 16
          }
          dim {
            dim_value: 16
          }
        }
      }
    }
  }
  value_info {
    name: "const_1d_0"
    type {
      tensor_type {
        elem_type: 7
        shape {
          dim {
            dim_value: 1
          }
        }
      }
    }
  }
  value_info {
    name: "transformer.h.0.ln_1.weight"
    type {
      tensor_type {
        elem_type: 1
        shape {
          dim {
            dim_value: 16
          }
        }
      }
    }
  }
  value_info {
    name: "transformer.h.0.ln_1.bias"
    type {
      tensor_type {
        elem_type: 1
        shape {
          dim {
            dim_value: 16
          }
        }
      }
    }
  }
  value_info {
    name: "transformer.h.0.ln_2.weight"
    type {
      tensor_type {
        elem_type: 1
        shape {
          dim {
            dim_value: 16
          }
        }
      }
    }
  }
  value_info {
    name: "transformer.h.0.ln_2.bias"
    type {
      tensor_type {
        elem_type: 1
        shape {
          dim {
            dim_value: 16
          }
        }
      }
    }
  }
  value_info {
    name: "transformer.h.0.mlp.up_proj.bias"
    type {
      tensor_type {
        elem_type: 1
        shape {
          dim {
            dim_value: 32
          }
        }
      }
    }
  }
  value_info {
    name: "transformer.h.0.mlp.down_proj.bias"
    type {
      tensor_type {
        elem_type: 1
        shape {
          dim {
            dim_value: 16
          }
        }
      }
    }
  }
  value_info {
    name: "transformer.ln_f.weight"
    type {
      tensor_type {
        elem_type: 1
        shape {
          dim {
            dim_value: 16
          }
        }
      }
    }
  }
  value_info {
    name: "transformer.ln_f.bias"
    type {
      tensor_type {
        elem_type: 1
        shape {
          dim {
            dim_value: 16
          }
        }
      }
    }
  }
  value_info {
    name: "transformer.h.0.attn.q_proj.weight_t"
    type {
      tensor_type {
        elem_type: 1
        shape {
          dim {
            dim_value: 16
          }
          dim {
            dim_value: 16
          }
        }
      }
    }
  }
  value_info {
    name: "transformer.h.0.attn.k_proj.weight_t"
    type {
      tensor_type {
        elem_type: 1
        shape {
          dim {
            dim_value: 16
          }
          dim {
            dim_value: 16
          }
        }
      }
    }
  }
  value_info {
    name: "transformer.h.0.attn.v_proj.weight_t"
    type {
      tensor_type {
        elem_type: 1
        shape {
          dim {
            dim_value: 16
          }
          dim {
            dim_value: 16
          }
        }
      }
    }
  }
  value_info {
    name: "transformer.h.0.attn.o_proj.weight_t"
    type {
      tensor_type {
        elem_type: 1
        shape {
          dim {
            dim_value: 16
          }
          dim {
            dim_value: 16
          }
        }
      }
    }
  }
  value_info {
    name: "transformer.h.0.mlp.up_proj.weight_t"
    type {
      tensor_type {
        elem_type: 1
        shape {
          dim {
            dim_value: 16
          }
          dim {
            dim_value: 32
          }
        }
      }
    }
  }
  value_info {
    name: "transformer.h.0.mlp.down_proj.weight_t"
    type {
      tensor_type {
        elem_type: 1
        shape {
          dim {
            dim_value: 32
          }
          dim {
            dim_value: 16
          }
        }
      }
    }
  }
  value_info {
    name: "lm_head.weight_t"
    type {
      tensor_type {
        elem_type: 1
        shape {
          dim {
            dim_value: 16
          }
          dim {
            dim_value: 32
          }
        }
      }
    }
  }
  value_info {
    name: "v_transformer.wte.Gather_0"
    type {
      tensor_type {
        elem_type: 1
        shape {
          dim {
            dim_param: "batch"
          }
          dim {
            dim_param: "sequence_len"
          }
          dim {
            dim_value: 16
          }
        }
      }
    }
  }
  value_info {
    name: "v_transformer.wpe.Gather_1"
    type {
      tensor_type {
        elem_type: 1
        shape {
          dim {
            dim_param: "batch"
          }
          dim {
            dim_param: "sequence_len"
          }
          dim {
            dim_value: 16
          }
        }
      }
    }
  }
  value_info {
    name: "v_transformer.Cast_3"
    type {
      tensor_type {
        elem_type: 9
        shape {
          dim {
            dim_param: "batch"
          }
          dim {
            dim_param: "past_seq_len + seq_len"
          }
        }
      }
    }
  }
  value_info {
    name: "v_transformer.Unsqueeze_4"
    type {
      tensor_type {
        elem_type: 9
        shape {
          dim {
            dim_param: "batch"
          }
          dim {
            dim_value: 1
          }
          dim {
            dim_param: "past_seq_len + seq_len"
          }
        }
      }
    }
  }
  value_info {
    name: "v_transformer.Shape_5"
    type {
      tensor_type {
        elem_type: 7
        shape {
          dim {
            dim_value: 1
          }
        }
      }
    }
    metadata_props {
      key: "pkg.onnx_shape_inference.sym_data"
      value: "[\"batch\"]"
    }
  }
  value_info {
    name: "v_transformer.Shape_6"
    type {
      tensor_type {
        elem_type: 7
        shape {
          dim {
            dim_value: 1
          }
        }
      }
    }
    metadata_props {
      key: "pkg.onnx_shape_inference.sym_data"
      value: "[\"sequence_len\"]"
    }
  }
  value_info {
    name: "v_transformer.Shape_7"
    type {
      tensor_type {
        elem_type: 7
        shape {
          dim {
            dim_value: 1
          }
        }
      }
    }
    metadata_props {
      key: "pkg.onnx_shape_inference.sym_data"
      value: "[\"past_seq_len + seq_len\"]"
    }
  }
  value_info {
    name: "v_transformer.Concat_8"
    type {
      tensor_type {
        elem_type: 7
        shape {
          dim {
            dim_value: 3
          }
        }
      }
    }
    metadata_props {
      key: "pkg.onnx_shape_inference.sym_data"
      value: "[\"batch\", \"sequence_len\", \"past_seq_len + seq_len\"]"
    }
  }
  value_info {
    name: "v_transformer.Expand_9"
    type {
      tensor_type {
        elem_type: 9
        shape {
          dim {
            dim_param: "batch"
          }
          dim {
            dim_param: "sequence_len"
          }
          dim {
            dim_param: "past_seq_len + seq_len"
          }
        }
      }
    }
  }
  value_info {
    name: "v_transformer.Unsqueeze_10"
    type {
      tensor_type {
        elem_type: 9
        shape {
          dim {
            dim_param: "batch"
          }
          dim {
            dim_value: 1
          }
          dim {
            dim_param: "sequence_len"
          }
          dim {
            dim_param: "past_seq_len + seq_len"
          }
        }
      }
    }
  }
  value_info {
    name: "v_transformer.h.0.ln_1.LayerNormalization_11"
    type {
      tensor_type {
        elem_type: 1
        shape {
          dim {
            dim_param: "batch"
          }
          dim {
            dim_param: "sequence_len"
          }
          dim {
            dim_value: 16
          }
        }
      }
    }
  }
  value_info {
    name: "v_transformer.h.0.attn.q_proj.MatMul_13"
    type {
      tensor_type {
        elem_type: 1
        shape {
          dim {
            dim_param: "batch"
          }
          dim {
            dim_param: "sequence_len"
          }
          dim {
            dim_value: 16
          }
        }
      }
    }
  }
  value_info {
    name: "v_transformer.h.0.attn.k_proj.MatMul_15"
    type {
      tensor_type {
        elem_type: 1
        shape {
          dim {
            dim_param: "batch"
          }
          dim {
            dim_param: "sequence_len"
          }
          dim {
            dim_value: 16
          }
        }
      }
    }
  }
  value_info {
    name: "v_transformer.h.0.attn.v_proj.MatMul_17"
    type {
      tensor_type {
        elem_type: 1
        shape {
          dim {
            dim_param: "batch"
          }
          dim {
            dim_param: "sequence_len"
          }
          dim {
            dim_value: 16
          }
        }
      }
    }
  }
  value_info {
    name: "v_transformer.h.0.attn.Attention_18_0"
    type {
      tensor_type {
        elem_type: 1
        shape {
          dim {
            dim_param: "batch"
          }
          dim {
            dim_param: "sequence_len"
          }
          dim {
            dim_value: 16
          }
        }
      }
    }
  }
  value_info {
    name: "v_transformer.h.0.attn.o_proj.MatMul_20"
    type {
      tensor_type {
        elem_type: 1
        shape {
          dim {
            dim_param: "batch"
          }
          dim {
            dim_param: "sequence_len"
          }
          dim {
            dim_value: 16
          }
        }
      }
    }
  }
  value_info {
    name: "v_transformer.h.0.ln_2.LayerNormalization_22"
    type {
      tensor_type {
        elem_type: 1
        shape {
          dim {
            dim_param: "batch"
          }
          dim {
            dim_param: "sequence_len"
          }
          dim {
            dim_value: 16
          }
        }
      }
    }
  }
  value_info {
    name: "v_transformer.h.0.mlp.up_proj.MatMul_24"
    type {
      tensor_type {
        elem_type: 1
        shape {
          dim {
            dim_param: "batch"
          }
          dim {
            dim_param: "sequence_len"
          }
          dim {
            dim_value: 32
          }
        }
      }
    }
  }
  value_info {
    name: "v_transformer.h.0.mlp.up_proj.Add_25"
    type {
      tensor_type {
        elem_type: 1
        shape {
          dim {
            dim_param: "batch"
          }
          dim {
            dim_param: "sequence_len"
          }
          dim {
            dim_value: 32
          }
        }
      }
    }
  }
  value_info {
    name: "v_transformer.h.0.mlp.Gelu_26"
    type {
      tensor_type {
        elem_type: 1
        shape {
          dim {
            dim_param: "batch"
          }
          dim {
            dim_param: "sequence_len"
          }
          dim {
            dim_value: 32
          }
        }
      }
    }
  }
  value_info {
    name: "v_transformer.h.0.mlp.down_proj.MatMul_28"
    type {
      tensor_type {
        elem_type: 1
        shape {
          dim {
            dim_param: "batch"
          }
          dim {
            dim_param: "sequence_len"
          }
          dim {
            dim_value: 16
          }
        }
      }
    }
  }
  value_info {
    name: "v_transformer.h.0.mlp.down_proj.Add_29"
    type {
      tensor_type {
        elem_type: 1
        shape {
          dim {
            dim_param: "batch"
          }
          dim {
            dim_param: "sequence_len"
          }
          dim {
            dim_value: 16
          }
        }
      }
    }
  }
  value_info {
    name: "v_transformer.ln_f.LayerNormalization_31"
    type {
      tensor_type {
        elem_type: 1
        shape {
          dim {
            dim_param: "batch"
          }
          dim {
            dim_param: "sequence_len"
          }
          dim {
            dim_value: 16
          }
        }
      }
    }
  }
}
opset_import {
  domain: ""
  version: 24
}
opset_import {
  domain: "com.microsoft"
  version: 1
}
functions {
  name: "SkipLayerNormalization"
  input: "input"
  input: "skip"
  input: "weight"
  input: "bias"
  output: "norm_out"
  output: "mean_out"
  output: "inv_std_out"
  output: "add_out"
  node {
    input: "input"
    input: "skip"
    output: "add_out"
    name: "Add_node_0"
    op_type: "Add"
    metadata_props {
      key: "namespace"
      value: ""
    }
    metadata_props {
      key: "pkg.onnxscript.class_hierarchy"
      value: "[]"
    }
    metadata_props {
      key: "pkg.onnxscript.name_scopes"
      value: "[]"
    }
    metadata_props {
      key: "pkg.onnxscript.shape_inference_error"
      value: "Type of input 0 value input of node Add_node_0 not known"
    }
  }
  node {
    input: "add_out"
    input: "weight"
    input: "bias"
    output: "norm_out"
    output: "mean_out"
    output: "inv_std_out"
    name: "LayerNormalization_node_1"
    op_type: "LayerNormalization"
    attribute {
      name: "epsilon"
      type: FLOAT
      ref_attr_name: "epsilon"
    }
    attribute {
      name: "axis"
      i: -1
      type: INT
    }
    metadata_props {
      key: "namespace"
      value: ""
    }
    metadata_props {
      key: "pkg.onnxscript.class_hierarchy"
      value: "[]"
    }
    metadata_props {
      key: "pkg.onnxscript.name_scopes"
      value: "[]"
    }
    metadata_props {
      key: "pkg.onnxscript.shape_inference_error"
      value: "Type of input 0 value v_Add_0 of node LayerNormalization_node_1 not known"
    }
  }
  opset_import {
    domain: ""
    version: 24
  }
  domain: "com.microsoft"
  attribute_proto {
    name: "epsilon"
    f: 1e-05
    type: FLOAT
  }
}
