ir_version: 11
producer_name: "onnx-genai-tests"
graph {
  node {
    input: "inputs_embeds"
    input: "slice_starts"
    input: "slice_ends"
    input: "slice_axes"
    output: "cur_state"
    name: "slice_cur"
    op_type: "Slice"
  }
  node {
    input: "cur_state"
    output: "projected_state"
    name: "projected_state"
    op_type: "Identity"
  }
  node {
    input: "cur_state"
    input: "assistant_w"
    output: "base_logits"
    name: "assistant_matmul"
    op_type: "MatMul"
  }
  node {
    input: "shared_kv.sliding_attention.key"
    output: "shared_reduce_0"
    name: "shared_reduce_0"
    op_type: "ReduceSum"
    attribute {
      name: "keepdims"
      i: 0
      type: INT
    }
  }
  node {
    input: "shared_kv.sliding_attention.value"
    output: "shared_reduce_1"
    name: "shared_reduce_1"
    op_type: "ReduceSum"
    attribute {
      name: "keepdims"
      i: 0
      type: INT
    }
  }
  node {
    input: "shared_reduce_0"
    input: "shared_reduce_1"
    output: "shared_acc_1"
    name: "shared_acc_1"
    op_type: "Add"
  }
  node {
    input: "shared_kv.full_attention.key"
    output: "shared_reduce_2"
    name: "shared_reduce_2"
    op_type: "ReduceSum"
    attribute {
      name: "keepdims"
      i: 0
      type: INT
    }
  }
  node {
    input: "shared_acc_1"
    input: "shared_reduce_2"
    output: "shared_acc_2"
    name: "shared_acc_2"
    op_type: "Add"
  }
  node {
    input: "shared_kv.full_attention.value"
    output: "shared_reduce_3"
    name: "shared_reduce_3"
    op_type: "ReduceSum"
    attribute {
      name: "keepdims"
      i: 0
      type: INT
    }
  }
  node {
    input: "shared_acc_2"
    input: "shared_reduce_3"
    output: "shared_acc_3"
    name: "shared_acc_3"
    op_type: "Add"
  }
  node {
    input: "shared_acc_3"
    input: "assist_zero"
    output: "shared_zero_term"
    name: "shared_zero_term"
    op_type: "Mul"
  }
  node {
    input: "base_logits"
    input: "shared_zero_term"
    output: "logits"
    name: "assistant_logits"
    op_type: "Add"
  }
  name: "tiny_gemma4_assistant_mixed"
  initializer {
    dims: 16
    dims: 32
    data_type: 1
    name: "assistant_w"
    raw_data: "…"
  }
  initializer {
    dims: 1
    data_type: 7
    name: "slice_starts"
    raw_data: "\020\000\000\000\000\000\000\000"
  }
  initializer {
    dims: 1
    data_type: 7
    name: "slice_ends"
    raw_data: " \000\000\000\000\000\000\000"
  }
  initializer {
    dims: 1
    data_type: 7
    name: "slice_axes"
    raw_data: "\002\000\000\000\000\000\000\000"
  }
  initializer {
    data_type: 1
    name: "assist_zero"
    raw_data: "\000\000\000\000"
  }
  input {
    name: "inputs_embeds"
    type {
      tensor_type {
        elem_type: 1
        shape {
          dim {
            dim_param: "batch"
          }
          dim {
            dim_param: "q"
          }
          dim {
            dim_value: 32
          }
        }
      }
    }
  }
  input {
    name: "position_ids"
    type {
      tensor_type {
        elem_type: 7
        shape {
          dim {
            dim_param: "batch"
          }
          dim {
            dim_param: "q"
          }
        }
      }
    }
  }
  input {
    name: "attention_mask"
    type {
      tensor_type {
        elem_type: 7
        shape {
          dim {
            dim_param: "batch"
          }
          dim {
            dim_param: "kv_len"
          }
        }
      }
    }
  }
  input {
    name: "shared_kv.sliding_attention.key"
    type {
      tensor_type {
        elem_type: 1
        shape {
          dim {
            dim_param: "batch"
          }
          dim {
            dim_value: 2
          }
          dim {
            dim_param: "kv_len"
          }
          dim {
            dim_value: 8
          }
        }
      }
    }
  }
  input {
    name: "shared_kv.sliding_attention.value"
    type {
      tensor_type {
        elem_type: 1
        shape {
          dim {
            dim_param: "batch"
          }
          dim {
            dim_value: 2
          }
          dim {
            dim_param: "kv_len"
          }
          dim {
            dim_value: 8
          }
        }
      }
    }
  }
  input {
    name: "shared_kv.full_attention.key"
    type {
      tensor_type {
        elem_type: 1
        shape {
          dim {
            dim_param: "batch"
          }
          dim {
            dim_value: 2
          }
          dim {
            dim_param: "kv_len"
          }
          dim {
            dim_value: 16
          }
        }
      }
    }
  }
  input {
    name: "shared_kv.full_attention.value"
    type {
      tensor_type {
        elem_type: 1
        shape {
          dim {
            dim_param: "batch"
          }
          dim {
            dim_value: 2
          }
          dim {
            dim_param: "kv_len"
          }
          dim {
            dim_value: 16
          }
        }
      }
    }
  }
  output {
    name: "logits"
    type {
      tensor_type {
        elem_type: 1
        shape {
          dim {
            dim_param: "batch"
          }
          dim {
            dim_param: "q"
          }
          dim {
            dim_value: 32
          }
        }
      }
    }
  }
  output {
    name: "projected_state"
    type {
      tensor_type {
        elem_type: 1
        shape {
          dim {
            dim_param: "batch"
          }
          dim {
            dim_param: "q"
          }
          dim {
            dim_value: 16
          }
        }
      }
    }
  }
  value_info {
    name: "cur_state"
    type {
      tensor_type {
        elem_type: 1
        shape {
          dim {
            dim_param: "batch"
          }
          dim {
            dim_param: "q"
          }
          dim {
            dim_value: 16
          }
        }
      }
    }
  }
  value_info {
    name: "base_logits"
    type {
      tensor_type {
        elem_type: 1
        shape {
          dim {
            dim_param: "batch"
          }
          dim {
            dim_param: "q"
          }
          dim {
            dim_value: 32
          }
        }
      }
    }
  }
  value_info {
    name: "shared_reduce_0"
    type {
      tensor_type {
        elem_type: 1
        shape {
        }
      }
    }
  }
  value_info {
    name: "shared_reduce_1"
    type {
      tensor_type {
        elem_type: 1
        shape {
        }
      }
    }
  }
  value_info {
    name: "shared_acc_1"
    type {
      tensor_type {
        elem_type: 1
        shape {
        }
      }
    }
  }
  value_info {
    name: "shared_reduce_2"
    type {
      tensor_type {
        elem_type: 1
        shape {
        }
      }
    }
  }
  value_info {
    name: "shared_acc_2"
    type {
      tensor_type {
        elem_type: 1
        shape {
        }
      }
    }
  }
  value_info {
    name: "shared_reduce_3"
    type {
      tensor_type {
        elem_type: 1
        shape {
        }
      }
    }
  }
  value_info {
    name: "shared_acc_3"
    type {
      tensor_type {
        elem_type: 1
        shape {
        }
      }
    }
  }
  value_info {
    name: "shared_zero_term"
    type {
      tensor_type {
        elem_type: 1
        shape {
        }
      }
    }
  }
}
opset_import {
  domain: ""
  version: 24
}
