ir_version: 11
producer_name: "mobius"
producer_version: "0.1.0"
graph {
  node {
    input: "fused_hidden"
    input: "fc.weight_t"
    output: "v_fc.MatMul_1"
    name: "fc/MatMul_node_1"
    op_type: "MatMul"
    metadata_props {
      key: "namespace"
      value: ": Eagle3DraftModel/fc: Linear"
    }
    metadata_props {
      key: "pkg.onnxscript.class_hierarchy"
      value: "[\'Eagle3DraftModel\', \'Linear\']"
    }
    metadata_props {
      key: "pkg.onnxscript.name_scopes"
      value: "[\'\', \'fc\']"
    }
  }
  node {
    input: "inputs_embeds"
    input: "input_layernorm.weight"
    output: "v_input_layernorm.RMSNormalization_3"
    name: "input_layernorm/RMSNormalization_node_3"
    op_type: "RMSNormalization"
    attribute {
      name: "epsilon"
      f: 1e-06
      type: FLOAT
    }
    attribute {
      name: "axis"
      i: -1
      type: INT
    }
    metadata_props {
      key: "namespace"
      value: ": Eagle3DraftModel/input_layernorm: RMSNorm"
    }
    metadata_props {
      key: "pkg.onnxscript.class_hierarchy"
      value: "[\'Eagle3DraftModel\', \'RMSNorm\']"
    }
    metadata_props {
      key: "pkg.onnxscript.name_scopes"
      value: "[\'\', \'input_layernorm\']"
    }
  }
  node {
    input: "v_fc.MatMul_1"
    input: "recycled_hidden"
    input: "hidden_norm.weight"
    output: "v_hidden_norm.RMSNormalization_4"
    output: "val_0"
    output: "val_1"
    output: "val_2"
    name: "node_SkipSimplifiedLayerNormalization_1"
    op_type: "SkipSimplifiedLayerNormalization"
    attribute {
      name: "epsilon"
      f: 1e-06
      type: FLOAT
    }
    domain: "com.microsoft"
    metadata_props {
      key: "namespace"
      value: ": Eagle3DraftModel/hidden_norm: RMSNorm"
    }
    metadata_props {
      key: "pkg.onnxscript.class_hierarchy"
      value: "[\'Eagle3DraftModel\', \'RMSNorm\']"
    }
    metadata_props {
      key: "pkg.onnxscript.name_scopes"
      value: "[\'\', \'hidden_norm\']"
    }
    metadata_props {
      key: "pkg.onnxscript.rewriter.rule_name"
      value: "AddRMSNormToSkipNorm"
    }
  }
  node {
    input: "v_input_layernorm.RMSNormalization_3"
    input: "v_hidden_norm.RMSNormalization_4"
    output: "v_Concat_5"
    name: "Concat_node_5"
    op_type: "Concat"
    attribute {
      name: "axis"
      i: -1
      type: INT
    }
    metadata_props {
      key: "namespace"
      value: ": Eagle3DraftModel"
    }
    metadata_props {
      key: "pkg.onnxscript.class_hierarchy"
      value: "[\'Eagle3DraftModel\']"
    }
    metadata_props {
      key: "pkg.onnxscript.name_scopes"
      value: "[\'\']"
    }
  }
  node {
    input: "rotary_emb.cos_cache"
    input: "position_ids"
    output: "v_rotary_emb.Gather_6"
    name: "rotary_emb/Gather_node_6"
    op_type: "Gather"
    metadata_props {
      key: "namespace"
      value: ": Eagle3DraftModel/rotary_emb: DefaultRope"
    }
    metadata_props {
      key: "pkg.onnxscript.class_hierarchy"
      value: "[\'Eagle3DraftModel\', \'DefaultRope\']"
    }
    metadata_props {
      key: "pkg.onnxscript.name_scopes"
      value: "[\'\', \'rotary_emb\']"
    }
  }
  node {
    input: "rotary_emb.sin_cache"
    input: "position_ids"
    output: "v_rotary_emb.Gather_7"
    name: "rotary_emb/Gather_node_7"
    op_type: "Gather"
    metadata_props {
      key: "namespace"
      value: ": Eagle3DraftModel/rotary_emb: DefaultRope"
    }
    metadata_props {
      key: "pkg.onnxscript.class_hierarchy"
      value: "[\'Eagle3DraftModel\', \'DefaultRope\']"
    }
    metadata_props {
      key: "pkg.onnxscript.name_scopes"
      value: "[\'\', \'rotary_emb\']"
    }
  }
  node {
    input: "attention_mask"
    input: "const_1_i64"
    output: "v_CumSum_8"
    name: "CumSum_node_8"
    op_type: "CumSum"
    metadata_props {
      key: "namespace"
      value: ": Eagle3DraftModel"
    }
    metadata_props {
      key: "pkg.onnxscript.class_hierarchy"
      value: "[\'Eagle3DraftModel\']"
    }
    metadata_props {
      key: "pkg.onnxscript.name_scopes"
      value: "[\'\']"
    }
  }
  node {
    input: "v_CumSum_8"
    input: "const_1d_1"
    output: "v_Unsqueeze_9"
    name: "Unsqueeze_node_9"
    op_type: "Unsqueeze"
    metadata_props {
      key: "namespace"
      value: ": Eagle3DraftModel"
    }
    metadata_props {
      key: "pkg.onnxscript.class_hierarchy"
      value: "[\'Eagle3DraftModel\']"
    }
    metadata_props {
      key: "pkg.onnxscript.name_scopes"
      value: "[\'\']"
    }
  }
  node {
    input: "inputs_embeds"
    output: "v_Shape_10"
    name: "Shape_node_10"
    op_type: "Shape"
    attribute {
      name: "end"
      i: 2
      type: INT
    }
    attribute {
      name: "start"
      i: 1
      type: INT
    }
    metadata_props {
      key: "namespace"
      value: ": Eagle3DraftModel"
    }
    metadata_props {
      key: "pkg.onnxscript.class_hierarchy"
      value: "[\'Eagle3DraftModel\']"
    }
    metadata_props {
      key: "pkg.onnxscript.name_scopes"
      value: "[\'\']"
    }
  }
  node {
    input: "attention_mask"
    output: "v_Shape_11"
    name: "Shape_node_11"
    op_type: "Shape"
    attribute {
      name: "end"
      i: 2
      type: INT
    }
    attribute {
      name: "start"
      i: 1
      type: INT
    }
    metadata_props {
      key: "namespace"
      value: ": Eagle3DraftModel"
    }
    metadata_props {
      key: "pkg.onnxscript.class_hierarchy"
      value: "[\'Eagle3DraftModel\']"
    }
    metadata_props {
      key: "pkg.onnxscript.name_scopes"
      value: "[\'\']"
    }
  }
  node {
    input: "v_Shape_11"
    input: "v_Shape_10"
    output: "v_Sub_12"
    name: "Sub_node_12"
    op_type: "Sub"
    metadata_props {
      key: "namespace"
      value: ": Eagle3DraftModel"
    }
    metadata_props {
      key: "pkg.onnxscript.class_hierarchy"
      value: "[\'Eagle3DraftModel\']"
    }
    metadata_props {
      key: "pkg.onnxscript.name_scopes"
      value: "[\'\']"
    }
  }
  node {
    input: "v_CumSum_8"
    input: "v_Sub_12"
    input: "v_Shape_11"
    input: "const_1d_1"
    output: "v_Slice_13"
    name: "Slice_node_13"
    op_type: "Slice"
    metadata_props {
      key: "namespace"
      value: ": Eagle3DraftModel"
    }
    metadata_props {
      key: "pkg.onnxscript.class_hierarchy"
      value: "[\'Eagle3DraftModel\']"
    }
    metadata_props {
      key: "pkg.onnxscript.name_scopes"
      value: "[\'\']"
    }
  }
  node {
    input: "v_Slice_13"
    input: "const_1d_2"
    output: "v_Unsqueeze_14"
    name: "Unsqueeze_node_14"
    op_type: "Unsqueeze"
    metadata_props {
      key: "namespace"
      value: ": Eagle3DraftModel"
    }
    metadata_props {
      key: "pkg.onnxscript.class_hierarchy"
      value: "[\'Eagle3DraftModel\']"
    }
    metadata_props {
      key: "pkg.onnxscript.name_scopes"
      value: "[\'\']"
    }
  }
  node {
    input: "v_Unsqueeze_14"
    input: "v_Unsqueeze_9"
    output: "v_GreaterOrEqual_15"
    name: "GreaterOrEqual_node_15"
    op_type: "GreaterOrEqual"
    metadata_props {
      key: "namespace"
      value: ": Eagle3DraftModel"
    }
    metadata_props {
      key: "pkg.onnxscript.class_hierarchy"
      value: "[\'Eagle3DraftModel\']"
    }
    metadata_props {
      key: "pkg.onnxscript.name_scopes"
      value: "[\'\']"
    }
  }
  node {
    input: "attention_mask"
    input: "const_1d_1"
    output: "v_Unsqueeze_16"
    name: "Unsqueeze_node_16"
    op_type: "Unsqueeze"
    metadata_props {
      key: "namespace"
      value: ": Eagle3DraftModel"
    }
    metadata_props {
      key: "pkg.onnxscript.class_hierarchy"
      value: "[\'Eagle3DraftModel\']"
    }
    metadata_props {
      key: "pkg.onnxscript.name_scopes"
      value: "[\'\']"
    }
  }
  node {
    input: "v_Unsqueeze_16"
    output: "v_Cast_17"
    name: "Cast_node_17"
    op_type: "Cast"
    attribute {
      name: "to"
      i: 9
      type: INT
    }
    metadata_props {
      key: "namespace"
      value: ": Eagle3DraftModel"
    }
    metadata_props {
      key: "pkg.onnxscript.class_hierarchy"
      value: "[\'Eagle3DraftModel\']"
    }
    metadata_props {
      key: "pkg.onnxscript.name_scopes"
      value: "[\'\']"
    }
  }
  node {
    input: "v_Cast_17"
    input: "v_GreaterOrEqual_15"
    output: "v_And_18"
    name: "And_node_18"
    op_type: "And"
    metadata_props {
      key: "namespace"
      value: ": Eagle3DraftModel"
    }
    metadata_props {
      key: "pkg.onnxscript.class_hierarchy"
      value: "[\'Eagle3DraftModel\']"
    }
    metadata_props {
      key: "pkg.onnxscript.name_scopes"
      value: "[\'\']"
    }
  }
  node {
    input: "v_And_18"
    input: "const_0.0_f32"
    input: "const_-3.4028234663852886e+38_f32"
    output: "v_Where_19"
    name: "Where_node_19"
    op_type: "Where"
    metadata_props {
      key: "namespace"
      value: ": Eagle3DraftModel"
    }
    metadata_props {
      key: "pkg.onnxscript.class_hierarchy"
      value: "[\'Eagle3DraftModel\']"
    }
    metadata_props {
      key: "pkg.onnxscript.name_scopes"
      value: "[\'\']"
    }
  }
  node {
    input: "v_Where_19"
    input: "const_1d_1"
    output: "v_Unsqueeze_21"
    name: "Unsqueeze_node_21"
    op_type: "Unsqueeze"
    metadata_props {
      key: "namespace"
      value: ": Eagle3DraftModel"
    }
    metadata_props {
      key: "pkg.onnxscript.class_hierarchy"
      value: "[\'Eagle3DraftModel\']"
    }
    metadata_props {
      key: "pkg.onnxscript.name_scopes"
      value: "[\'\']"
    }
  }
  node {
    input: "v_Concat_5"
    input: "self_attn.q_proj.weight_t"
    output: "v_self_attn.q_proj.MatMul_23"
    name: "self_attn/q_proj/MatMul_node_23"
    op_type: "MatMul"
    metadata_props {
      key: "namespace"
      value: ": Eagle3DraftModel/self_attn: Eagle3Attention/q_proj: Linear"
    }
    metadata_props {
      key: "pkg.onnxscript.class_hierarchy"
      value: "[\'Eagle3DraftModel\', \'Eagle3Attention\', \'Linear\']"
    }
    metadata_props {
      key: "pkg.onnxscript.name_scopes"
      value: "[\'\', \'self_attn\', \'q_proj\']"
    }
  }
  node {
    input: "v_Concat_5"
    input: "self_attn.k_proj.weight_t"
    output: "v_self_attn.k_proj.MatMul_25"
    name: "self_attn/k_proj/MatMul_node_25"
    op_type: "MatMul"
    metadata_props {
      key: "namespace"
      value: ": Eagle3DraftModel/self_attn: Eagle3Attention/k_proj: Linear"
    }
    metadata_props {
      key: "pkg.onnxscript.class_hierarchy"
      value: "[\'Eagle3DraftModel\', \'Eagle3Attention\', \'Linear\']"
    }
    metadata_props {
      key: "pkg.onnxscript.name_scopes"
      value: "[\'\', \'self_attn\', \'k_proj\']"
    }
  }
  node {
    input: "v_Concat_5"
    input: "self_attn.v_proj.weight_t"
    output: "v_self_attn.v_proj.MatMul_27"
    name: "self_attn/v_proj/MatMul_node_27"
    op_type: "MatMul"
    metadata_props {
      key: "namespace"
      value: ": Eagle3DraftModel/self_attn: Eagle3Attention/v_proj: Linear"
    }
    metadata_props {
      key: "pkg.onnxscript.class_hierarchy"
      value: "[\'Eagle3DraftModel\', \'Eagle3Attention\', \'Linear\']"
    }
    metadata_props {
      key: "pkg.onnxscript.name_scopes"
      value: "[\'\', \'self_attn\', \'v_proj\']"
    }
  }
  node {
    input: "v_self_attn.q_proj.MatMul_23"
    input: "v_rotary_emb.Gather_6"
    input: "v_rotary_emb.Gather_7"
    output: "v_self_attn.RotaryEmbedding_28"
    name: "self_attn/RotaryEmbedding_node_28"
    op_type: "RotaryEmbedding"
    attribute {
      name: "num_heads"
      i: 2
      type: INT
    }
    attribute {
      name: "rotary_embedding_dim"
      i: 0
      type: INT
    }
    attribute {
      name: "interleaved"
      i: 0
      type: INT
    }
    metadata_props {
      key: "namespace"
      value: ": Eagle3DraftModel/self_attn: Eagle3Attention"
    }
    metadata_props {
      key: "pkg.onnxscript.class_hierarchy"
      value: "[\'Eagle3DraftModel\', \'Eagle3Attention\']"
    }
    metadata_props {
      key: "pkg.onnxscript.name_scopes"
      value: "[\'\', \'self_attn\']"
    }
  }
  node {
    input: "v_self_attn.k_proj.MatMul_25"
    input: "v_rotary_emb.Gather_6"
    input: "v_rotary_emb.Gather_7"
    output: "v_self_attn.RotaryEmbedding_29"
    name: "self_attn/RotaryEmbedding_node_29"
    op_type: "RotaryEmbedding"
    attribute {
      name: "num_heads"
      i: 1
      type: INT
    }
    attribute {
      name: "rotary_embedding_dim"
      i: 0
      type: INT
    }
    attribute {
      name: "interleaved"
      i: 0
      type: INT
    }
    metadata_props {
      key: "namespace"
      value: ": Eagle3DraftModel/self_attn: Eagle3Attention"
    }
    metadata_props {
      key: "pkg.onnxscript.class_hierarchy"
      value: "[\'Eagle3DraftModel\', \'Eagle3Attention\']"
    }
    metadata_props {
      key: "pkg.onnxscript.name_scopes"
      value: "[\'\', \'self_attn\']"
    }
  }
  node {
    input: "v_self_attn.RotaryEmbedding_28"
    input: "v_self_attn.RotaryEmbedding_29"
    input: "v_self_attn.v_proj.MatMul_27"
    input: "v_Unsqueeze_21"
    input: "past_key_values.0.key"
    input: "past_key_values.0.value"
    output: "v_self_attn.Attention_30_0"
    output: "present.0.key"
    output: "present.0.value"
    name: "self_attn/Attention_node_30"
    op_type: "Attention"
    attribute {
      name: "is_causal"
      i: 1
      type: INT
    }
    attribute {
      name: "kv_num_heads"
      i: 1
      type: INT
    }
    attribute {
      name: "q_num_heads"
      i: 2
      type: INT
    }
    attribute {
      name: "softcap"
      f: 0.0
      type: FLOAT
    }
    attribute {
      name: "scale"
      f: 0.35355338
      type: FLOAT
    }
    metadata_props {
      key: "namespace"
      value: ": Eagle3DraftModel/self_attn: Eagle3Attention"
    }
    metadata_props {
      key: "pkg.onnxscript.class_hierarchy"
      value: "[\'Eagle3DraftModel\', \'Eagle3Attention\']"
    }
    metadata_props {
      key: "pkg.onnxscript.name_scopes"
      value: "[\'\', \'self_attn\']"
    }
  }
  node {
    input: "v_self_attn.Attention_30_0"
    input: "self_attn.o_proj.weight_t"
    output: "v_self_attn.o_proj.MatMul_32"
    name: "self_attn/o_proj/MatMul_node_32"
    op_type: "MatMul"
    metadata_props {
      key: "namespace"
      value: ": Eagle3DraftModel/self_attn: Eagle3Attention/o_proj: Linear"
    }
    metadata_props {
      key: "pkg.onnxscript.class_hierarchy"
      value: "[\'Eagle3DraftModel\', \'Eagle3Attention\', \'Linear\']"
    }
    metadata_props {
      key: "pkg.onnxscript.name_scopes"
      value: "[\'\', \'self_attn\', \'o_proj\']"
    }
  }
  node {
    input: "v_self_attn.o_proj.MatMul_32"
    input: "val_2"
    input: "post_attention_layernorm.weight"
    output: "v_post_attention_layernorm.RMSNormalization_34"
    output: "val_3"
    output: "val_4"
    output: "val_5"
    name: "node_SkipSimplifiedLayerNormalization_2"
    op_type: "SkipSimplifiedLayerNormalization"
    attribute {
      name: "epsilon"
      f: 1e-06
      type: FLOAT
    }
    domain: "com.microsoft"
    metadata_props {
      key: "namespace"
      value: ": Eagle3DraftModel/post_attention_layernorm: RMSNorm"
    }
    metadata_props {
      key: "pkg.onnxscript.class_hierarchy"
      value: "[\'Eagle3DraftModel\', \'RMSNorm\']"
    }
    metadata_props {
      key: "pkg.onnxscript.name_scopes"
      value: "[\'\', \'post_attention_layernorm\']"
    }
    metadata_props {
      key: "pkg.onnxscript.rewriter.rule_name"
      value: "AddRMSNormToSkipNorm"
    }
  }
  node {
    input: "v_post_attention_layernorm.RMSNormalization_34"
    input: "mlp.gate_proj.weight_t"
    output: "v_mlp.gate_proj.MatMul_36"
    name: "mlp/gate_proj/MatMul_node_36"
    op_type: "MatMul"
    metadata_props {
      key: "namespace"
      value: ": Eagle3DraftModel/mlp: MLP/gate_proj: Linear"
    }
    metadata_props {
      key: "pkg.onnxscript.class_hierarchy"
      value: "[\'Eagle3DraftModel\', \'MLP\', \'Linear\']"
    }
    metadata_props {
      key: "pkg.onnxscript.name_scopes"
      value: "[\'\', \'mlp\', \'gate_proj\']"
    }
  }
  node {
    input: "v_mlp.gate_proj.MatMul_36"
    output: "v_mlp.Sigmoid_37"
    name: "mlp/Sigmoid_node_37"
    op_type: "Sigmoid"
    metadata_props {
      key: "namespace"
      value: ": Eagle3DraftModel/mlp: MLP"
    }
    metadata_props {
      key: "pkg.onnxscript.class_hierarchy"
      value: "[\'Eagle3DraftModel\', \'MLP\']"
    }
    metadata_props {
      key: "pkg.onnxscript.name_scopes"
      value: "[\'\', \'mlp\']"
    }
  }
  node {
    input: "v_mlp.gate_proj.MatMul_36"
    input: "v_mlp.Sigmoid_37"
    output: "v_mlp.Mul_38"
    name: "mlp/Mul_node_38"
    op_type: "Mul"
    metadata_props {
      key: "namespace"
      value: ": Eagle3DraftModel/mlp: MLP"
    }
    metadata_props {
      key: "pkg.onnxscript.class_hierarchy"
      value: "[\'Eagle3DraftModel\', \'MLP\']"
    }
    metadata_props {
      key: "pkg.onnxscript.name_scopes"
      value: "[\'\', \'mlp\']"
    }
  }
  node {
    input: "v_post_attention_layernorm.RMSNormalization_34"
    input: "mlp.up_proj.weight_t"
    output: "v_mlp.up_proj.MatMul_40"
    name: "mlp/up_proj/MatMul_node_40"
    op_type: "MatMul"
    metadata_props {
      key: "namespace"
      value: ": Eagle3DraftModel/mlp: MLP/up_proj: Linear"
    }
    metadata_props {
      key: "pkg.onnxscript.class_hierarchy"
      value: "[\'Eagle3DraftModel\', \'MLP\', \'Linear\']"
    }
    metadata_props {
      key: "pkg.onnxscript.name_scopes"
      value: "[\'\', \'mlp\', \'up_proj\']"
    }
  }
  node {
    input: "v_mlp.Mul_38"
    input: "v_mlp.up_proj.MatMul_40"
    output: "v_mlp.Mul_41"
    name: "mlp/Mul_node_41"
    op_type: "Mul"
    metadata_props {
      key: "namespace"
      value: ": Eagle3DraftModel/mlp: MLP"
    }
    metadata_props {
      key: "pkg.onnxscript.class_hierarchy"
      value: "[\'Eagle3DraftModel\', \'MLP\']"
    }
    metadata_props {
      key: "pkg.onnxscript.name_scopes"
      value: "[\'\', \'mlp\']"
    }
  }
  node {
    input: "v_mlp.Mul_41"
    input: "mlp.down_proj.weight_t"
    output: "v_mlp.down_proj.MatMul_43"
    name: "mlp/down_proj/MatMul_node_43"
    op_type: "MatMul"
    metadata_props {
      key: "namespace"
      value: ": Eagle3DraftModel/mlp: MLP/down_proj: Linear"
    }
    metadata_props {
      key: "pkg.onnxscript.class_hierarchy"
      value: "[\'Eagle3DraftModel\', \'MLP\', \'Linear\']"
    }
    metadata_props {
      key: "pkg.onnxscript.name_scopes"
      value: "[\'\', \'mlp\', \'down_proj\']"
    }
  }
  node {
    input: "v_mlp.down_proj.MatMul_43"
    input: "val_5"
    output: "next_hidden"
    name: "Add_node_44"
    op_type: "Add"
    metadata_props {
      key: "namespace"
      value: ": Eagle3DraftModel"
    }
    metadata_props {
      key: "pkg.onnxscript.class_hierarchy"
      value: "[\'Eagle3DraftModel\']"
    }
    metadata_props {
      key: "pkg.onnxscript.name_scopes"
      value: "[\'\']"
    }
  }
  node {
    input: "next_hidden"
    input: "norm.weight"
    output: "v_norm.RMSNormalization_45"
    name: "norm/RMSNormalization_node_45"
    op_type: "RMSNormalization"
    attribute {
      name: "epsilon"
      f: 1e-06
      type: FLOAT
    }
    attribute {
      name: "axis"
      i: -1
      type: INT
    }
    metadata_props {
      key: "namespace"
      value: ": Eagle3DraftModel/norm: RMSNorm"
    }
    metadata_props {
      key: "pkg.onnxscript.class_hierarchy"
      value: "[\'Eagle3DraftModel\', \'RMSNorm\']"
    }
    metadata_props {
      key: "pkg.onnxscript.name_scopes"
      value: "[\'\', \'norm\']"
    }
  }
  node {
    input: "v_norm.RMSNormalization_45"
    input: "lm_head.weight_t"
    output: "draft_logits"
    name: "lm_head/MatMul_node_47"
    op_type: "MatMul"
    metadata_props {
      key: "namespace"
      value: ": Eagle3DraftModel/lm_head: Linear"
    }
    metadata_props {
      key: "pkg.onnxscript.class_hierarchy"
      value: "[\'Eagle3DraftModel\', \'Linear\']"
    }
    metadata_props {
      key: "pkg.onnxscript.name_scopes"
      value: "[\'\', \'lm_head\']"
    }
  }
  name: "main_graph"
  initializer {
    dims: 16
    data_type: 1
    name: "input_layernorm.weight"
    raw_data: "…"
  }
  initializer {
    dims: 16
    data_type: 1
    name: "hidden_norm.weight"
    raw_data: "…"
  }
  initializer {
    dims: 16
    dims: 4
    data_type: 1
    name: "rotary_emb.cos_cache"
    raw_data: "…"
  }
  initializer {
    dims: 16
    dims: 4
    data_type: 1
    name: "rotary_emb.sin_cache"
    raw_data: "…"
  }
  initializer {
    data_type: 7
    name: "const_1_i64"
    raw_data: "\000\000\000\000\000\000\000\000"
  }
  initializer {
    dims: 1
    data_type: 7
    name: "const_1d_1"
    raw_data: "\000\000\000\000\000\000\000\000"
  }
  initializer {
    dims: 1
    data_type: 7
    name: "const_1d_2"
    raw_data: "\000\000\000\000\000\000\000\000"
  }
  initializer {
    data_type: 1
    name: "const_0.0_f32"
    raw_data: "\010H\020\275"
  }
  initializer {
    data_type: 1
    name: "const_-3.4028234663852886e+38_f32"
    raw_data: "~}\256<"
  }
  initializer {
    dims: 16
    data_type: 1
    name: "post_attention_layernorm.weight"
    raw_data: "…"
  }
  initializer {
    dims: 16
    data_type: 1
    name: "norm.weight"
    raw_data: "…"
  }
  initializer {
    dims: 48
    dims: 16
    data_type: 1
    name: "fc.weight_t"
    raw_data: "…"
  }
  initializer {
    dims: 32
    dims: 16
    data_type: 1
    name: "self_attn.q_proj.weight_t"
    raw_data: "…"
  }
  initializer {
    dims: 32
    dims: 8
    data_type: 1
    name: "self_attn.k_proj.weight_t"
    raw_data: "…"
  }
  initializer {
    dims: 32
    dims: 8
    data_type: 1
    name: "self_attn.v_proj.weight_t"
    raw_data: "…"
  }
  initializer {
    dims: 16
    dims: 16
    data_type: 1
    name: "self_attn.o_proj.weight_t"
    raw_data: "…"
  }
  initializer {
    dims: 16
    dims: 32
    data_type: 1
    name: "mlp.gate_proj.weight_t"
    raw_data: "…"
  }
  initializer {
    dims: 16
    dims: 32
    data_type: 1
    name: "mlp.up_proj.weight_t"
    raw_data: "…"
  }
  initializer {
    dims: 32
    dims: 16
    data_type: 1
    name: "mlp.down_proj.weight_t"
    raw_data: "…"
  }
  initializer {
    dims: 16
    dims: 16
    data_type: 1
    name: "lm_head.weight_t"
    raw_data: "…"
  }
  input {
    name: "inputs_embeds"
    type {
      tensor_type {
        elem_type: 1
        shape {
          dim {
            dim_param: "batch"
          }
          dim {
            dim_param: "sequence_len"
          }
          dim {
            dim_value: 16
          }
        }
      }
    }
  }
  input {
    name: "fused_hidden"
    type {
      tensor_type {
        elem_type: 1
        shape {
          dim {
            dim_param: "batch"
          }
          dim {
            dim_param: "sequence_len"
          }
          dim {
            dim_value: 48
          }
        }
      }
    }
  }
  input {
    name: "recycled_hidden"
    type {
      tensor_type {
        elem_type: 1
        shape {
          dim {
            dim_param: "batch"
          }
          dim {
            dim_param: "sequence_len"
          }
          dim {
            dim_value: 16
          }
        }
      }
    }
  }
  input {
    name: "attention_mask"
    type {
      tensor_type {
        elem_type: 7
        shape {
          dim {
            dim_param: "batch"
          }
          dim {
            dim_param: "past_seq_len + seq_len"
          }
        }
      }
    }
  }
  input {
    name: "position_ids"
    type {
      tensor_type {
        elem_type: 7
        shape {
          dim {
            dim_param: "batch"
          }
          dim {
            dim_param: "sequence_len"
          }
        }
      }
    }
  }
  input {
    name: "past_key_values.0.key"
    type {
      tensor_type {
        elem_type: 1
        shape {
          dim {
            dim_param: "batch"
          }
          dim {
            dim_value: 1
          }
          dim {
            dim_param: "past_sequence_len"
          }
          dim {
            dim_value: 8
          }
        }
      }
    }
  }
  input {
    name: "past_key_values.0.value"
    type {
      tensor_type {
        elem_type: 1
        shape {
          dim {
            dim_param: "batch"
          }
          dim {
            dim_value: 1
          }
          dim {
            dim_param: "past_sequence_len"
          }
          dim {
            dim_value: 8
          }
        }
      }
    }
  }
  output {
    name: "draft_logits"
    type {
      tensor_type {
        elem_type: 1
        shape {
          dim {
            dim_param: "batch"
          }
          dim {
            dim_param: "sequence_len"
          }
          dim {
            dim_value: 16
          }
        }
      }
    }
  }
  output {
    name: "next_hidden"
    type {
      tensor_type {
        elem_type: 1
        shape {
          dim {
            dim_param: "batch"
          }
          dim {
            dim_param: "sequence_len"
          }
          dim {
            dim_value: 16
          }
        }
      }
    }
  }
  output {
    name: "present.0.key"
    type {
      tensor_type {
        elem_type: 1
        shape {
          dim {
            dim_param: "batch"
          }
          dim {
            dim_value: 1
          }
          dim {
            dim_param: "past_sequence_len + sequence_len"
          }
          dim {
            dim_value: 8
          }
        }
      }
    }
  }
  output {
    name: "present.0.value"
    type {
      tensor_type {
        elem_type: 1
        shape {
          dim {
            dim_param: "batch"
          }
          dim {
            dim_value: 1
          }
          dim {
            dim_param: "past_sequence_len + sequence_len"
          }
          dim {
            dim_value: 8
          }
        }
      }
    }
  }
  value_info {
    name: "input_layernorm.weight"
    type {
      tensor_type {
        elem_type: 1
        shape {
          dim {
            dim_value: 16
          }
        }
      }
    }
  }
  value_info {
    name: "hidden_norm.weight"
    type {
      tensor_type {
        elem_type: 1
        shape {
          dim {
            dim_value: 16
          }
        }
      }
    }
  }
  value_info {
    name: "rotary_emb.cos_cache"
    type {
      tensor_type {
        elem_type: 1
        shape {
          dim {
            dim_value: 16
          }
          dim {
            dim_value: 4
          }
        }
      }
    }
  }
  value_info {
    name: "rotary_emb.sin_cache"
    type {
      tensor_type {
        elem_type: 1
        shape {
          dim {
            dim_value: 16
          }
          dim {
            dim_value: 4
          }
        }
      }
    }
  }
  value_info {
    name: "const_1_i64"
    type {
      tensor_type {
        elem_type: 7
        shape {
        }
      }
    }
  }
  value_info {
    name: "const_1d_1"
    type {
      tensor_type {
        elem_type: 7
        shape {
          dim {
            dim_value: 1
          }
        }
      }
    }
  }
  value_info {
    name: "const_1d_2"
    type {
      tensor_type {
        elem_type: 7
        shape {
          dim {
            dim_value: 1
          }
        }
      }
    }
  }
  value_info {
    name: "const_0.0_f32"
    type {
      tensor_type {
        elem_type: 1
        shape {
        }
      }
    }
  }
  value_info {
    name: "const_-3.4028234663852886e+38_f32"
    type {
      tensor_type {
        elem_type: 1
        shape {
        }
      }
    }
  }
  value_info {
    name: "post_attention_layernorm.weight"
    type {
      tensor_type {
        elem_type: 1
        shape {
          dim {
            dim_value: 16
          }
        }
      }
    }
  }
  value_info {
    name: "norm.weight"
    type {
      tensor_type {
        elem_type: 1
        shape {
          dim {
            dim_value: 16
          }
        }
      }
    }
  }
  value_info {
    name: "fc.weight_t"
    type {
      tensor_type {
        elem_type: 1
        shape {
          dim {
            dim_value: 48
          }
          dim {
            dim_value: 16
          }
        }
      }
    }
  }
  value_info {
    name: "self_attn.q_proj.weight_t"
    type {
      tensor_type {
        elem_type: 1
        shape {
          dim {
            dim_value: 32
          }
          dim {
            dim_value: 16
          }
        }
      }
    }
  }
  value_info {
    name: "self_attn.k_proj.weight_t"
    type {
      tensor_type {
        elem_type: 1
        shape {
          dim {
            dim_value: 32
          }
          dim {
            dim_value: 8
          }
        }
      }
    }
  }
  value_info {
    name: "self_attn.v_proj.weight_t"
    type {
      tensor_type {
        elem_type: 1
        shape {
          dim {
            dim_value: 32
          }
          dim {
            dim_value: 8
          }
        }
      }
    }
  }
  value_info {
    name: "self_attn.o_proj.weight_t"
    type {
      tensor_type {
        elem_type: 1
        shape {
          dim {
            dim_value: 16
          }
          dim {
            dim_value: 16
          }
        }
      }
    }
  }
  value_info {
    name: "mlp.gate_proj.weight_t"
    type {
      tensor_type {
        elem_type: 1
        shape {
          dim {
            dim_value: 16
          }
          dim {
            dim_value: 32
          }
        }
      }
    }
  }
  value_info {
    name: "mlp.up_proj.weight_t"
    type {
      tensor_type {
        elem_type: 1
        shape {
          dim {
            dim_value: 16
          }
          dim {
            dim_value: 32
          }
        }
      }
    }
  }
  value_info {
    name: "mlp.down_proj.weight_t"
    type {
      tensor_type {
        elem_type: 1
        shape {
          dim {
            dim_value: 32
          }
          dim {
            dim_value: 16
          }
        }
      }
    }
  }
  value_info {
    name: "lm_head.weight_t"
    type {
      tensor_type {
        elem_type: 1
        shape {
          dim {
            dim_value: 16
          }
          dim {
            dim_value: 16
          }
        }
      }
    }
  }
  value_info {
    name: "v_fc.MatMul_1"
    type {
      tensor_type {
        elem_type: 1
        shape {
          dim {
            dim_param: "batch"
          }
          dim {
            dim_param: "sequence_len"
          }
          dim {
            dim_value: 16
          }
        }
      }
    }
  }
  value_info {
    name: "v_input_layernorm.RMSNormalization_3"
    type {
      tensor_type {
        elem_type: 1
        shape {
          dim {
            dim_param: "batch"
          }
          dim {
            dim_param: "sequence_len"
          }
          dim {
            dim_value: 16
          }
        }
      }
    }
  }
  value_info {
    name: "v_hidden_norm.RMSNormalization_4"
    type {
      tensor_type {
        elem_type: 1
        shape {
          dim {
            dim_param: "batch"
          }
          dim {
            dim_param: "sequence_len"
          }
          dim {
            dim_value: 16
          }
        }
      }
    }
  }
  value_info {
    name: "v_Concat_5"
    type {
      tensor_type {
        elem_type: 1
        shape {
          dim {
            dim_param: "batch"
          }
          dim {
            dim_param: "sequence_len"
          }
          dim {
            dim_value: 32
          }
        }
      }
    }
  }
  value_info {
    name: "v_rotary_emb.Gather_6"
    type {
      tensor_type {
        elem_type: 1
        shape {
          dim {
            dim_param: "batch"
          }
          dim {
            dim_param: "sequence_len"
          }
          dim {
            dim_value: 4
          }
        }
      }
    }
  }
  value_info {
    name: "v_rotary_emb.Gather_7"
    type {
      tensor_type {
        elem_type: 1
        shape {
          dim {
            dim_param: "batch"
          }
          dim {
            dim_param: "sequence_len"
          }
          dim {
            dim_value: 4
          }
        }
      }
    }
  }
  value_info {
    name: "v_CumSum_8"
    type {
      tensor_type {
        elem_type: 7
        shape {
          dim {
            dim_param: "batch"
          }
          dim {
            dim_param: "past_seq_len + seq_len"
          }
        }
      }
    }
  }
  value_info {
    name: "v_Unsqueeze_9"
    type {
      tensor_type {
        elem_type: 7
        shape {
          dim {
            dim_param: "batch"
          }
          dim {
            dim_value: 1
          }
          dim {
            dim_param: "past_seq_len + seq_len"
          }
        }
      }
    }
  }
  value_info {
    name: "v_Shape_10"
    type {
      tensor_type {
        elem_type: 7
        shape {
          dim {
            dim_value: 1
          }
        }
      }
    }
    metadata_props {
      key: "pkg.onnx_shape_inference.sym_data"
      value: "[\"sequence_len\"]"
    }
  }
  value_info {
    name: "v_Shape_11"
    type {
      tensor_type {
        elem_type: 7
        shape {
          dim {
            dim_value: 1
          }
        }
      }
    }
    metadata_props {
      key: "pkg.onnx_shape_inference.sym_data"
      value: "[\"past_seq_len + seq_len\"]"
    }
  }
  value_info {
    name: "v_Sub_12"
    type {
      tensor_type {
        elem_type: 7
        shape {
          dim {
            dim_value: 1
          }
        }
      }
    }
    metadata_props {
      key: "pkg.onnx_shape_inference.sym_data"
      value: "[\"past_seq_len + seq_len - sequence_len\"]"
    }
  }
  value_info {
    name: "v_Slice_13"
    type {
      tensor_type {
        elem_type: 7
        shape {
          dim {
            dim_param: "_d0"
          }
          dim {
            dim_param: "_d1"
          }
        }
      }
    }
  }
  value_info {
    name: "v_Unsqueeze_14"
    type {
      tensor_type {
        elem_type: 7
        shape {
          dim {
            dim_param: "_d0"
          }
          dim {
            dim_param: "_d1"
          }
          dim {
            dim_value: 1
          }
        }
      }
    }
  }
  value_info {
    name: "v_GreaterOrEqual_15"
    type {
      tensor_type {
        elem_type: 9
        shape {
          dim {
            dim_param: "_d0"
          }
          dim {
            dim_param: "_d1"
          }
          dim {
            dim_param: "past_seq_len + seq_len"
          }
        }
      }
    }
  }
  value_info {
    name: "v_Unsqueeze_16"
    type {
      tensor_type {
        elem_type: 7
        shape {
          dim {
            dim_param: "batch"
          }
          dim {
            dim_value: 1
          }
          dim {
            dim_param: "past_seq_len + seq_len"
          }
        }
      }
    }
  }
  value_info {
    name: "v_Cast_17"
    type {
      tensor_type {
        elem_type: 9
        shape {
          dim {
            dim_param: "batch"
          }
          dim {
            dim_value: 1
          }
          dim {
            dim_param: "past_seq_len + seq_len"
          }
        }
      }
    }
  }
  value_info {
    name: "v_And_18"
    type {
      tensor_type {
        elem_type: 9
        shape {
          dim {
            dim_param: "batch"
          }
          dim {
            dim_param: "_d1"
          }
          dim {
            dim_param: "past_seq_len + seq_len"
          }
        }
      }
    }
  }
  value_info {
    name: "v_Where_19"
    type {
      tensor_type {
        elem_type: 1
        shape {
          dim {
            dim_param: "batch"
          }
          dim {
            dim_param: "_d1"
          }
          dim {
            dim_param: "past_seq_len + seq_len"
          }
        }
      }
    }
  }
  value_info {
    name: "v_Unsqueeze_21"
    type {
      tensor_type {
        elem_type: 1
        shape {
          dim {
            dim_param: "batch"
          }
          dim {
            dim_value: 1
          }
          dim {
            dim_param: "_d1"
          }
          dim {
            dim_param: "past_seq_len + seq_len"
          }
        }
      }
    }
  }
  value_info {
    name: "v_self_attn.q_proj.MatMul_23"
    type {
      tensor_type {
        elem_type: 1
        shape {
          dim {
            dim_param: "batch"
          }
          dim {
            dim_param: "sequence_len"
          }
          dim {
            dim_value: 16
          }
        }
      }
    }
  }
  value_info {
    name: "v_self_attn.k_proj.MatMul_25"
    type {
      tensor_type {
        elem_type: 1
        shape {
          dim {
            dim_param: "batch"
          }
          dim {
            dim_param: "sequence_len"
          }
          dim {
            dim_value: 8
          }
        }
      }
    }
  }
  value_info {
    name: "v_self_attn.v_proj.MatMul_27"
    type {
      tensor_type {
        elem_type: 1
        shape {
          dim {
            dim_param: "batch"
          }
          dim {
            dim_param: "sequence_len"
          }
          dim {
            dim_value: 8
          }
        }
      }
    }
  }
  value_info {
    name: "v_self_attn.RotaryEmbedding_28"
    type {
      tensor_type {
        elem_type: 1
        shape {
          dim {
            dim_param: "batch"
          }
          dim {
            dim_param: "sequence_len"
          }
          dim {
            dim_value: 16
          }
        }
      }
    }
  }
  value_info {
    name: "v_self_attn.RotaryEmbedding_29"
    type {
      tensor_type {
        elem_type: 1
        shape {
          dim {
            dim_param: "batch"
          }
          dim {
            dim_param: "sequence_len"
          }
          dim {
            dim_value: 8
          }
        }
      }
    }
  }
  value_info {
    name: "v_self_attn.Attention_30_0"
    type {
      tensor_type {
        elem_type: 1
        shape {
          dim {
            dim_param: "batch"
          }
          dim {
            dim_param: "sequence_len"
          }
          dim {
            dim_value: 16
          }
        }
      }
    }
  }
  value_info {
    name: "v_self_attn.o_proj.MatMul_32"
    type {
      tensor_type {
        elem_type: 1
        shape {
          dim {
            dim_param: "batch"
          }
          dim {
            dim_param: "sequence_len"
          }
          dim {
            dim_value: 16
          }
        }
      }
    }
  }
  value_info {
    name: "v_post_attention_layernorm.RMSNormalization_34"
    type {
      tensor_type {
        elem_type: 1
        shape {
          dim {
            dim_param: "batch"
          }
          dim {
            dim_param: "sequence_len"
          }
          dim {
            dim_value: 16
          }
        }
      }
    }
  }
  value_info {
    name: "v_mlp.gate_proj.MatMul_36"
    type {
      tensor_type {
        elem_type: 1
        shape {
          dim {
            dim_param: "batch"
          }
          dim {
            dim_param: "sequence_len"
          }
          dim {
            dim_value: 32
          }
        }
      }
    }
  }
  value_info {
    name: "v_mlp.Sigmoid_37"
    type {
      tensor_type {
        elem_type: 1
        shape {
          dim {
            dim_param: "batch"
          }
          dim {
            dim_param: "sequence_len"
          }
          dim {
            dim_value: 32
          }
        }
      }
    }
  }
  value_info {
    name: "v_mlp.Mul_38"
    type {
      tensor_type {
        elem_type: 1
        shape {
          dim {
            dim_param: "batch"
          }
          dim {
            dim_param: "sequence_len"
          }
          dim {
            dim_value: 32
          }
        }
      }
    }
  }
  value_info {
    name: "v_mlp.up_proj.MatMul_40"
    type {
      tensor_type {
        elem_type: 1
        shape {
          dim {
            dim_param: "batch"
          }
          dim {
            dim_param: "sequence_len"
          }
          dim {
            dim_value: 32
          }
        }
      }
    }
  }
  value_info {
    name: "v_mlp.Mul_41"
    type {
      tensor_type {
        elem_type: 1
        shape {
          dim {
            dim_param: "batch"
          }
          dim {
            dim_param: "sequence_len"
          }
          dim {
            dim_value: 32
          }
        }
      }
    }
  }
  value_info {
    name: "v_mlp.down_proj.MatMul_43"
    type {
      tensor_type {
        elem_type: 1
        shape {
          dim {
            dim_param: "batch"
          }
          dim {
            dim_param: "sequence_len"
          }
          dim {
            dim_value: 16
          }
        }
      }
    }
  }
  value_info {
    name: "v_norm.RMSNormalization_45"
    type {
      tensor_type {
        elem_type: 1
        shape {
          dim {
            dim_param: "batch"
          }
          dim {
            dim_param: "sequence_len"
          }
          dim {
            dim_value: 16
          }
        }
      }
    }
  }
}
opset_import {
  domain: ""
  version: 24
}
opset_import {
  domain: "com.microsoft"
  version: 1
}
functions {
  name: "SkipSimplifiedLayerNormalization"
  input: "input"
  input: "skip"
  input: "weight"
  output: "norm_out"
  output: "mean"
  output: "inv_std_var"
  output: "add_out"
  node {
    input: "input"
    input: "skip"
    output: "add_out"
    name: "Add_node_0"
    op_type: "Add"
    metadata_props {
      key: "namespace"
      value: ""
    }
    metadata_props {
      key: "pkg.onnxscript.class_hierarchy"
      value: "[]"
    }
    metadata_props {
      key: "pkg.onnxscript.name_scopes"
      value: "[]"
    }
    metadata_props {
      key: "pkg.onnxscript.shape_inference_error"
      value: "Type of input 0 value input of node Add_node_0 not known"
    }
  }
  node {
    input: "add_out"
    input: "weight"
    output: "norm_out"
    name: "RMSNormalization_node_1"
    op_type: "RMSNormalization"
    attribute {
      name: "epsilon"
      type: FLOAT
      ref_attr_name: "epsilon"
    }
    metadata_props {
      key: "namespace"
      value: ""
    }
    metadata_props {
      key: "pkg.onnxscript.class_hierarchy"
      value: "[]"
    }
    metadata_props {
      key: "pkg.onnxscript.name_scopes"
      value: "[]"
    }
    metadata_props {
      key: "pkg.onnxscript.shape_inference_error"
      value: "Type of input 0 value v_Add_0 of node RMSNormalization_node_1 not known"
    }
  }
  node {
    output: "mean"
    name: "Constant_node_2"
    op_type: "Constant"
    attribute {
      name: "value_floats"
      floats: 0.0
      type: FLOATS
    }
    metadata_props {
      key: "namespace"
      value: ""
    }
    metadata_props {
      key: "pkg.onnxscript.class_hierarchy"
      value: "[]"
    }
    metadata_props {
      key: "pkg.onnxscript.name_scopes"
      value: "[]"
    }
  }
  node {
    output: "inv_std_var"
    name: "Constant_node_3"
    op_type: "Constant"
    attribute {
      name: "value_floats"
      floats: 0.0
      type: FLOATS
    }
    metadata_props {
      key: "namespace"
      value: ""
    }
    metadata_props {
      key: "pkg.onnxscript.class_hierarchy"
      value: "[]"
    }
    metadata_props {
      key: "pkg.onnxscript.name_scopes"
      value: "[]"
    }
  }
  opset_import {
    domain: ""
    version: 24
  }
  domain: "com.microsoft"
  attribute_proto {
    name: "epsilon"
    f: 1e-05
    type: FLOAT
  }
  value_info {
    name: "mean"
    type {
      tensor_type {
        elem_type: 1
        shape {
          dim {
            dim_value: 1
          }
        }
      }
    }
  }
  value_info {
    name: "inv_std_var"
    type {
      tensor_type {
        elem_type: 1
        shape {
          dim {
            dim_value: 1
          }
        }
      }
    }
  }
}
