ir_version: 11
producer_name: "onnx-genai-tests"
graph {
  node {
    input: "lm_table"
    input: "input_ids"
    output: "logits"
    name: "target_logits"
    op_type: "Gather"
    attribute {
      name: "axis"
      i: 0
      type: INT
    }
  }
  node {
    input: "hidden_table"
    input: "input_ids"
    output: "hidden_states.0"
    name: "target_hidden"
    op_type: "Gather"
    attribute {
      name: "axis"
      i: 0
      type: INT
    }
  }
  node {
    input: "input_ids"
    output: "ids_shape"
    name: "ids_shape"
    op_type: "Shape"
  }
  node {
    input: "ids_shape"
    input: "idx0"
    output: "batch_dim"
    name: "batch_dim"
    op_type: "Gather"
    attribute {
      name: "axis"
      i: 0
      type: INT
    }
  }
  node {
    input: "ids_shape"
    input: "idx1"
    output: "seq_dim"
    name: "seq_dim"
    op_type: "Gather"
    attribute {
      name: "axis"
      i: 0
      type: INT
    }
  }
  node {
    input: "batch_dim"
    input: "kv_heads_const"
    input: "seq_dim"
    input: "head_dim_const"
    output: "new_kv_shape"
    name: "new_kv_shape"
    op_type: "Concat"
    attribute {
      name: "axis"
      i: 0
      type: INT
    }
  }
  node {
    input: "new_kv_shape"
    output: "new_kv_zeros"
    name: "new_kv_zeros"
    op_type: "ConstantOfShape"
    attribute {
      name: "value"
      t {
        dims: 1
        data_type: 1
        name: "new_kv_fill"
        raw_data: "\000\000\000\000"
      }
      type: TENSOR
    }
  }
  node {
    input: "past_key_values.0.key"
    input: "new_kv_zeros"
    output: "present.0.key"
    name: "present_0_key"
    op_type: "Concat"
    attribute {
      name: "axis"
      i: 2
      type: INT
    }
  }
  node {
    input: "past_key_values.0.value"
    input: "new_kv_zeros"
    output: "present.0.value"
    name: "present_0_value"
    op_type: "Concat"
    attribute {
      name: "axis"
      i: 2
      type: INT
    }
  }
  node {
    input: "past_key_values.1.key"
    input: "new_kv_zeros"
    output: "present.1.key"
    name: "present_1_key"
    op_type: "Concat"
    attribute {
      name: "axis"
      i: 2
      type: INT
    }
  }
  node {
    input: "past_key_values.1.value"
    input: "new_kv_zeros"
    output: "present.1.value"
    name: "present_1_value"
    op_type: "Concat"
    attribute {
      name: "axis"
      i: 2
      type: INT
    }
  }
  name: "tiny_gemma4_target"
  initializer {
    dims: 32
    dims: 32
    data_type: 1
    name: "lm_table"
    raw_data: "…"
  }
  initializer {
    dims: 32
    dims: 16
    data_type: 1
    name: "hidden_table"
    raw_data: "…"
  }
  initializer {
    dims: 1
    data_type: 7
    name: "kv_heads_const"
    raw_data: "\002\000\000\000\000\000\000\000"
  }
  initializer {
    dims: 1
    data_type: 7
    name: "head_dim_const"
    raw_data: "\010\000\000\000\000\000\000\000"
  }
  initializer {
    dims: 1
    data_type: 7
    name: "idx0"
    raw_data: "\000\000\000\000\000\000\000\000"
  }
  initializer {
    dims: 1
    data_type: 7
    name: "idx1"
    raw_data: "\001\000\000\000\000\000\000\000"
  }
  input {
    name: "input_ids"
    type {
      tensor_type {
        elem_type: 7
        shape {
          dim {
            dim_param: "batch"
          }
          dim {
            dim_param: "sequence_len"
          }
        }
      }
    }
  }
  input {
    name: "attention_mask"
    type {
      tensor_type {
        elem_type: 7
        shape {
          dim {
            dim_param: "batch"
          }
          dim {
            dim_param: "total_seq_len"
          }
        }
      }
    }
  }
  input {
    name: "position_ids"
    type {
      tensor_type {
        elem_type: 7
        shape {
          dim {
            dim_param: "batch"
          }
          dim {
            dim_param: "sequence_len"
          }
        }
      }
    }
  }
  input {
    name: "past_key_values.0.key"
    type {
      tensor_type {
        elem_type: 1
        shape {
          dim {
            dim_param: "batch"
          }
          dim {
            dim_value: 2
          }
          dim {
            dim_param: "past_seq"
          }
          dim {
            dim_value: 8
          }
        }
      }
    }
  }
  input {
    name: "past_key_values.0.value"
    type {
      tensor_type {
        elem_type: 1
        shape {
          dim {
            dim_param: "batch"
          }
          dim {
            dim_value: 2
          }
          dim {
            dim_param: "past_seq"
          }
          dim {
            dim_value: 8
          }
        }
      }
    }
  }
  input {
    name: "past_key_values.1.key"
    type {
      tensor_type {
        elem_type: 1
        shape {
          dim {
            dim_param: "batch"
          }
          dim {
            dim_value: 2
          }
          dim {
            dim_param: "past_seq"
          }
          dim {
            dim_value: 8
          }
        }
      }
    }
  }
  input {
    name: "past_key_values.1.value"
    type {
      tensor_type {
        elem_type: 1
        shape {
          dim {
            dim_param: "batch"
          }
          dim {
            dim_value: 2
          }
          dim {
            dim_param: "past_seq"
          }
          dim {
            dim_value: 8
          }
        }
      }
    }
  }
  output {
    name: "logits"
    type {
      tensor_type {
        elem_type: 1
        shape {
          dim {
            dim_param: "batch"
          }
          dim {
            dim_param: "sequence_len"
          }
          dim {
            dim_value: 32
          }
        }
      }
    }
  }
  output {
    name: "present.0.key"
    type {
      tensor_type {
        elem_type: 1
        shape {
          dim {
            dim_param: "batch"
          }
          dim {
            dim_value: 2
          }
          dim {
            dim_param: "total_seq_len"
          }
          dim {
            dim_value: 8
          }
        }
      }
    }
  }
  output {
    name: "present.0.value"
    type {
      tensor_type {
        elem_type: 1
        shape {
          dim {
            dim_param: "batch"
          }
          dim {
            dim_value: 2
          }
          dim {
            dim_param: "total_seq_len"
          }
          dim {
            dim_value: 8
          }
        }
      }
    }
  }
  output {
    name: "present.1.key"
    type {
      tensor_type {
        elem_type: 1
        shape {
          dim {
            dim_param: "batch"
          }
          dim {
            dim_value: 2
          }
          dim {
            dim_param: "total_seq_len"
          }
          dim {
            dim_value: 8
          }
        }
      }
    }
  }
  output {
    name: "present.1.value"
    type {
      tensor_type {
        elem_type: 1
        shape {
          dim {
            dim_param: "batch"
          }
          dim {
            dim_value: 2
          }
          dim {
            dim_param: "total_seq_len"
          }
          dim {
            dim_value: 8
          }
        }
      }
    }
  }
  output {
    name: "hidden_states.0"
    type {
      tensor_type {
        elem_type: 1
        shape {
          dim {
            dim_param: "batch"
          }
          dim {
            dim_param: "sequence_len"
          }
          dim {
            dim_value: 16
          }
        }
      }
    }
  }
  value_info {
    name: "lm_table"
    type {
      tensor_type {
        elem_type: 1
        shape {
          dim {
            dim_value: 32
          }
          dim {
            dim_value: 32
          }
        }
      }
    }
  }
  value_info {
    name: "hidden_table"
    type {
      tensor_type {
        elem_type: 1
        shape {
          dim {
            dim_value: 32
          }
          dim {
            dim_value: 16
          }
        }
      }
    }
  }
  value_info {
    name: "kv_heads_const"
    type {
      tensor_type {
        elem_type: 7
        shape {
          dim {
            dim_value: 1
          }
        }
      }
    }
  }
  value_info {
    name: "head_dim_const"
    type {
      tensor_type {
        elem_type: 7
        shape {
          dim {
            dim_value: 1
          }
        }
      }
    }
  }
  value_info {
    name: "idx0"
    type {
      tensor_type {
        elem_type: 7
        shape {
          dim {
            dim_value: 1
          }
        }
      }
    }
  }
  value_info {
    name: "idx1"
    type {
      tensor_type {
        elem_type: 7
        shape {
          dim {
            dim_value: 1
          }
        }
      }
    }
  }
  value_info {
    name: "ids_shape"
    type {
      tensor_type {
        elem_type: 7
        shape {
          dim {
            dim_value: 2
          }
        }
      }
    }
  }
  value_info {
    name: "batch_dim"
    type {
      tensor_type {
        elem_type: 7
        shape {
          dim {
            dim_value: 1
          }
        }
      }
    }
  }
  value_info {
    name: "seq_dim"
    type {
      tensor_type {
        elem_type: 7
        shape {
          dim {
            dim_value: 1
          }
        }
      }
    }
  }
  value_info {
    name: "new_kv_shape"
    type {
      tensor_type {
        elem_type: 7
        shape {
          dim {
            dim_value: 4
          }
        }
      }
    }
  }
  value_info {
    name: "new_kv_zeros"
    type {
      tensor_type {
        elem_type: 1
        shape {
          dim {
            dim_param: "batch"
          }
          dim {
            dim_value: 2
          }
          dim {
            dim_param: "sequence_len"
          }
          dim {
            dim_value: 8
          }
        }
      }
    }
  }
}
opset_import {
  domain: ""
  version: 24
}
