ir_version: 11
producer_name: "mobius"
producer_version: "0.1.0"
graph {
  node {
    input: "model.embed_tokens.weight"
    input: "input_ids"
    output: "v_model.embed_tokens.Gather_0"
    name: "model/embed_tokens/Gather_node_0"
    op_type: "Gather"
    metadata_props {
      key: "namespace"
      value: ": QwenCausalLMModel/model: TextModel/embed_tokens: Embedding"
    }
    metadata_props {
      key: "pkg.onnxscript.class_hierarchy"
      value: "[\'QwenCausalLMModel\', \'TextModel\', \'Embedding\']"
    }
    metadata_props {
      key: "pkg.onnxscript.name_scopes"
      value: "[\'\', \'model\', \'embed_tokens\']"
    }
  }
  node {
    input: "v_model.embed_tokens.Gather_0"
    input: "model.layers.0.input_layernorm.weight"
    output: "v_model.layers.0.input_layernorm.RMSNormalization_1"
    name: "model/layers.0/input_layernorm/RMSNormalization_node_1"
    op_type: "RMSNormalization"
    attribute {
      name: "epsilon"
      f: 1e-06
      type: FLOAT
    }
    attribute {
      name: "axis"
      i: -1
      type: INT
    }
    metadata_props {
      key: "namespace"
      value: ": QwenCausalLMModel/model: TextModel/layers.0: DecoderLayer/input_layernorm: RMSNorm"
    }
    metadata_props {
      key: "pkg.onnxscript.class_hierarchy"
      value: "[\'QwenCausalLMModel\', \'TextModel\', \'DecoderLayer\', \'RMSNorm\']"
    }
    metadata_props {
      key: "pkg.onnxscript.name_scopes"
      value: "[\'\', \'model\', \'layers.0\', \'input_layernorm\']"
    }
  }
  node {
    input: "v_model.layers.0.input_layernorm.RMSNormalization_1"
    input: "model.layers.0.self_attn.q_proj.weight_t"
    output: "v_model.layers.0.self_attn.q_proj.MatMul_3"
    name: "model/layers.0/self_attn/q_proj/MatMul_node_3"
    op_type: "MatMul"
    metadata_props {
      key: "namespace"
      value: ": QwenCausalLMModel/model: TextModel/layers.0: DecoderLayer/self_attn: Attention/q_proj: Linear"
    }
    metadata_props {
      key: "pkg.onnxscript.class_hierarchy"
      value: "[\'QwenCausalLMModel\', \'TextModel\', \'DecoderLayer\', \'Attention\', \'Linear\']"
    }
    metadata_props {
      key: "pkg.onnxscript.name_scopes"
      value: "[\'\', \'model\', \'layers.0\', \'self_attn\', \'q_proj\']"
    }
  }
  node {
    input: "v_model.layers.0.input_layernorm.RMSNormalization_1"
    input: "model.layers.0.self_attn.k_proj.weight_t"
    output: "v_model.layers.0.self_attn.k_proj.MatMul_5"
    name: "model/layers.0/self_attn/k_proj/MatMul_node_5"
    op_type: "MatMul"
    metadata_props {
      key: "namespace"
      value: ": QwenCausalLMModel/model: TextModel/layers.0: DecoderLayer/self_attn: Attention/k_proj: Linear"
    }
    metadata_props {
      key: "pkg.onnxscript.class_hierarchy"
      value: "[\'QwenCausalLMModel\', \'TextModel\', \'DecoderLayer\', \'Attention\', \'Linear\']"
    }
    metadata_props {
      key: "pkg.onnxscript.name_scopes"
      value: "[\'\', \'model\', \'layers.0\', \'self_attn\', \'k_proj\']"
    }
  }
  node {
    input: "v_model.layers.0.input_layernorm.RMSNormalization_1"
    input: "model.layers.0.self_attn.v_proj.weight_t"
    output: "v_model.layers.0.self_attn.v_proj.MatMul_7"
    name: "model/layers.0/self_attn/v_proj/MatMul_node_7"
    op_type: "MatMul"
    metadata_props {
      key: "namespace"
      value: ": QwenCausalLMModel/model: TextModel/layers.0: DecoderLayer/self_attn: Attention/v_proj: Linear"
    }
    metadata_props {
      key: "pkg.onnxscript.class_hierarchy"
      value: "[\'QwenCausalLMModel\', \'TextModel\', \'DecoderLayer\', \'Attention\', \'Linear\']"
    }
    metadata_props {
      key: "pkg.onnxscript.name_scopes"
      value: "[\'\', \'model\', \'layers.0\', \'self_attn\', \'v_proj\']"
    }
  }
  node {
    input: "key_cache.0"
    input: "v_model.layers.0.self_attn.k_proj.MatMul_5"
    input: "write_indices"
    output: "updated_key_cache.0"
    name: "model/layers.0/self_attn/TensorScatter_node_8"
    op_type: "TensorScatter"
    attribute {
      name: "axis"
      i: 1
      type: INT
    }
    metadata_props {
      key: "namespace"
      value: ": QwenCausalLMModel/model: TextModel/layers.0: DecoderLayer/self_attn: Attention"
    }
    metadata_props {
      key: "pkg.onnxscript.class_hierarchy"
      value: "[\'QwenCausalLMModel\', \'TextModel\', \'DecoderLayer\', \'Attention\']"
    }
    metadata_props {
      key: "pkg.onnxscript.name_scopes"
      value: "[\'\', \'model\', \'layers.0\', \'self_attn\']"
    }
  }
  node {
    input: "value_cache.0"
    input: "v_model.layers.0.self_attn.v_proj.MatMul_7"
    input: "write_indices"
    output: "updated_value_cache.0"
    name: "model/layers.0/self_attn/TensorScatter_node_9"
    op_type: "TensorScatter"
    attribute {
      name: "axis"
      i: 1
      type: INT
    }
    metadata_props {
      key: "namespace"
      value: ": QwenCausalLMModel/model: TextModel/layers.0: DecoderLayer/self_attn: Attention"
    }
    metadata_props {
      key: "pkg.onnxscript.class_hierarchy"
      value: "[\'QwenCausalLMModel\', \'TextModel\', \'DecoderLayer\', \'Attention\']"
    }
    metadata_props {
      key: "pkg.onnxscript.name_scopes"
      value: "[\'\', \'model\', \'layers.0\', \'self_attn\']"
    }
  }
  node {
    input: "v_model.layers.0.self_attn.q_proj.MatMul_3"
    input: "updated_key_cache.0"
    input: "updated_value_cache.0"
    input: ""
    input: ""
    input: ""
    input: "nonpad_kv_seqlen"
    output: "v_model.layers.0.self_attn.Attention_10_0"
    name: "model/layers.0/self_attn/Attention_node_10"
    op_type: "Attention"
    attribute {
      name: "is_causal"
      i: 1
      type: INT
    }
    attribute {
      name: "kv_num_heads"
      i: 2
      type: INT
    }
    attribute {
      name: "q_num_heads"
      i: 2
      type: INT
    }
    attribute {
      name: "softcap"
      f: 0.0
      type: FLOAT
    }
    attribute {
      name: "scale"
      f: 0.35355338
      type: FLOAT
    }
    metadata_props {
      key: "namespace"
      value: ": QwenCausalLMModel/model: TextModel/layers.0: DecoderLayer/self_attn: Attention"
    }
    metadata_props {
      key: "pkg.onnxscript.class_hierarchy"
      value: "[\'QwenCausalLMModel\', \'TextModel\', \'DecoderLayer\', \'Attention\']"
    }
    metadata_props {
      key: "pkg.onnxscript.name_scopes"
      value: "[\'\', \'model\', \'layers.0\', \'self_attn\']"
    }
  }
  node {
    input: "v_model.layers.0.self_attn.Attention_10_0"
    input: "model.layers.0.self_attn.o_proj.weight_t"
    output: "v_model.layers.0.self_attn.o_proj.MatMul_12"
    name: "model/layers.0/self_attn/o_proj/MatMul_node_12"
    op_type: "MatMul"
    metadata_props {
      key: "namespace"
      value: ": QwenCausalLMModel/model: TextModel/layers.0: DecoderLayer/self_attn: Attention/o_proj: Linear"
    }
    metadata_props {
      key: "pkg.onnxscript.class_hierarchy"
      value: "[\'QwenCausalLMModel\', \'TextModel\', \'DecoderLayer\', \'Attention\', \'Linear\']"
    }
    metadata_props {
      key: "pkg.onnxscript.name_scopes"
      value: "[\'\', \'model\', \'layers.0\', \'self_attn\', \'o_proj\']"
    }
  }
  node {
    input: "v_model.embed_tokens.Gather_0"
    input: "v_model.layers.0.self_attn.o_proj.MatMul_12"
    input: "model.layers.0.post_attention_layernorm.weight"
    output: "v_model.layers.0.post_attention_layernorm.RMSNormalization_14"
    output: "val_0"
    output: "val_1"
    output: "val_2"
    name: "node_SkipSimplifiedLayerNormalization_0"
    op_type: "SkipSimplifiedLayerNormalization"
    attribute {
      name: "epsilon"
      f: 1e-06
      type: FLOAT
    }
    domain: "com.microsoft"
    metadata_props {
      key: "namespace"
      value: ": QwenCausalLMModel/model: TextModel/layers.0: DecoderLayer/post_attention_layernorm: RMSNorm"
    }
    metadata_props {
      key: "pkg.onnxscript.class_hierarchy"
      value: "[\'QwenCausalLMModel\', \'TextModel\', \'DecoderLayer\', \'RMSNorm\']"
    }
    metadata_props {
      key: "pkg.onnxscript.name_scopes"
      value: "[\'\', \'model\', \'layers.0\', \'post_attention_layernorm\']"
    }
    metadata_props {
      key: "pkg.onnxscript.rewriter.rule_name"
      value: "AddRMSNormToSkipNorm"
    }
  }
  node {
    input: "v_model.layers.0.post_attention_layernorm.RMSNormalization_14"
    input: "model.layers.0.mlp.gate_proj.weight_t"
    output: "v_model.layers.0.mlp.gate_proj.MatMul_16"
    name: "model/layers.0/mlp/gate_proj/MatMul_node_16"
    op_type: "MatMul"
    metadata_props {
      key: "namespace"
      value: ": QwenCausalLMModel/model: TextModel/layers.0: DecoderLayer/mlp: MLP/gate_proj: Linear"
    }
    metadata_props {
      key: "pkg.onnxscript.class_hierarchy"
      value: "[\'QwenCausalLMModel\', \'TextModel\', \'DecoderLayer\', \'MLP\', \'Linear\']"
    }
    metadata_props {
      key: "pkg.onnxscript.name_scopes"
      value: "[\'\', \'model\', \'layers.0\', \'mlp\', \'gate_proj\']"
    }
  }
  node {
    input: "v_model.layers.0.mlp.gate_proj.MatMul_16"
    output: "v_model.layers.0.mlp.Sigmoid_17"
    name: "model/layers.0/mlp/Sigmoid_node_17"
    op_type: "Sigmoid"
    metadata_props {
      key: "namespace"
      value: ": QwenCausalLMModel/model: TextModel/layers.0: DecoderLayer/mlp: MLP"
    }
    metadata_props {
      key: "pkg.onnxscript.class_hierarchy"
      value: "[\'QwenCausalLMModel\', \'TextModel\', \'DecoderLayer\', \'MLP\']"
    }
    metadata_props {
      key: "pkg.onnxscript.name_scopes"
      value: "[\'\', \'model\', \'layers.0\', \'mlp\']"
    }
  }
  node {
    input: "v_model.layers.0.mlp.gate_proj.MatMul_16"
    input: "v_model.layers.0.mlp.Sigmoid_17"
    output: "v_model.layers.0.mlp.Mul_18"
    name: "model/layers.0/mlp/Mul_node_18"
    op_type: "Mul"
    metadata_props {
      key: "namespace"
      value: ": QwenCausalLMModel/model: TextModel/layers.0: DecoderLayer/mlp: MLP"
    }
    metadata_props {
      key: "pkg.onnxscript.class_hierarchy"
      value: "[\'QwenCausalLMModel\', \'TextModel\', \'DecoderLayer\', \'MLP\']"
    }
    metadata_props {
      key: "pkg.onnxscript.name_scopes"
      value: "[\'\', \'model\', \'layers.0\', \'mlp\']"
    }
  }
  node {
    input: "v_model.layers.0.post_attention_layernorm.RMSNormalization_14"
    input: "model.layers.0.mlp.up_proj.weight_t"
    output: "v_model.layers.0.mlp.up_proj.MatMul_20"
    name: "model/layers.0/mlp/up_proj/MatMul_node_20"
    op_type: "MatMul"
    metadata_props {
      key: "namespace"
      value: ": QwenCausalLMModel/model: TextModel/layers.0: DecoderLayer/mlp: MLP/up_proj: Linear"
    }
    metadata_props {
      key: "pkg.onnxscript.class_hierarchy"
      value: "[\'QwenCausalLMModel\', \'TextModel\', \'DecoderLayer\', \'MLP\', \'Linear\']"
    }
    metadata_props {
      key: "pkg.onnxscript.name_scopes"
      value: "[\'\', \'model\', \'layers.0\', \'mlp\', \'up_proj\']"
    }
  }
  node {
    input: "v_model.layers.0.mlp.Mul_18"
    input: "v_model.layers.0.mlp.up_proj.MatMul_20"
    output: "v_model.layers.0.mlp.Mul_21"
    name: "model/layers.0/mlp/Mul_node_21"
    op_type: "Mul"
    metadata_props {
      key: "namespace"
      value: ": QwenCausalLMModel/model: TextModel/layers.0: DecoderLayer/mlp: MLP"
    }
    metadata_props {
      key: "pkg.onnxscript.class_hierarchy"
      value: "[\'QwenCausalLMModel\', \'TextModel\', \'DecoderLayer\', \'MLP\']"
    }
    metadata_props {
      key: "pkg.onnxscript.name_scopes"
      value: "[\'\', \'model\', \'layers.0\', \'mlp\']"
    }
  }
  node {
    input: "v_model.layers.0.mlp.Mul_21"
    input: "model.layers.0.mlp.down_proj.weight_t"
    output: "v_model.layers.0.mlp.down_proj.MatMul_23"
    name: "model/layers.0/mlp/down_proj/MatMul_node_23"
    op_type: "MatMul"
    metadata_props {
      key: "namespace"
      value: ": QwenCausalLMModel/model: TextModel/layers.0: DecoderLayer/mlp: MLP/down_proj: Linear"
    }
    metadata_props {
      key: "pkg.onnxscript.class_hierarchy"
      value: "[\'QwenCausalLMModel\', \'TextModel\', \'DecoderLayer\', \'MLP\', \'Linear\']"
    }
    metadata_props {
      key: "pkg.onnxscript.name_scopes"
      value: "[\'\', \'model\', \'layers.0\', \'mlp\', \'down_proj\']"
    }
  }
  node {
    input: "val_2"
    input: "v_model.layers.0.mlp.down_proj.MatMul_23"
    input: "model.norm.weight"
    output: "v_model.norm.RMSNormalization_25"
    output: "val_3"
    output: "val_4"
    output: "val_5"
    name: "node_SkipSimplifiedLayerNormalization_1"
    op_type: "SkipSimplifiedLayerNormalization"
    attribute {
      name: "epsilon"
      f: 1e-06
      type: FLOAT
    }
    domain: "com.microsoft"
    metadata_props {
      key: "namespace"
      value: ": QwenCausalLMModel/model: TextModel/norm: RMSNorm"
    }
    metadata_props {
      key: "pkg.onnxscript.class_hierarchy"
      value: "[\'QwenCausalLMModel\', \'TextModel\', \'RMSNorm\']"
    }
    metadata_props {
      key: "pkg.onnxscript.name_scopes"
      value: "[\'\', \'model\', \'norm\']"
    }
    metadata_props {
      key: "pkg.onnxscript.rewriter.rule_name"
      value: "AddRMSNormToSkipNorm"
    }
  }
  node {
    input: "v_model.norm.RMSNormalization_25"
    input: "lm_head.weight_t"
    output: "logits"
    name: "lm_head/MatMul_node_27"
    op_type: "MatMul"
    metadata_props {
      key: "namespace"
      value: ": QwenCausalLMModel/lm_head: Linear"
    }
    metadata_props {
      key: "pkg.onnxscript.class_hierarchy"
      value: "[\'QwenCausalLMModel\', \'Linear\']"
    }
    metadata_props {
      key: "pkg.onnxscript.name_scopes"
      value: "[\'\', \'lm_head\']"
    }
  }
  name: "main_graph"
  initializer {
    dims: 32
    dims: 16
    data_type: 1
    name: "model.embed_tokens.weight"
    raw_data: "…"
  }
  initializer {
    dims: 16
    data_type: 1
    name: "model.layers.0.input_layernorm.weight"
    raw_data: "…"
  }
  initializer {
    dims: 16
    data_type: 1
    name: "model.layers.0.post_attention_layernorm.weight"
    raw_data: "…"
  }
  initializer {
    dims: 16
    data_type: 1
    name: "model.norm.weight"
    raw_data: "…"
  }
  initializer {
    dims: 16
    dims: 16
    data_type: 1
    name: "model.layers.0.self_attn.q_proj.weight_t"
    raw_data: "…"
  }
  initializer {
    dims: 16
    dims: 16
    data_type: 1
    name: "model.layers.0.self_attn.k_proj.weight_t"
    raw_data: "…"
  }
  initializer {
    dims: 16
    dims: 16
    data_type: 1
    name: "model.layers.0.self_attn.v_proj.weight_t"
    raw_data: "…"
  }
  initializer {
    dims: 16
    dims: 16
    data_type: 1
    name: "model.layers.0.self_attn.o_proj.weight_t"
    raw_data: "…"
  }
  initializer {
    dims: 16
    dims: 32
    data_type: 1
    name: "model.layers.0.mlp.gate_proj.weight_t"
    raw_data: "…"
  }
  initializer {
    dims: 16
    dims: 32
    data_type: 1
    name: "model.layers.0.mlp.up_proj.weight_t"
    raw_data: "…"
  }
  initializer {
    dims: 32
    dims: 16
    data_type: 1
    name: "model.layers.0.mlp.down_proj.weight_t"
    raw_data: "…"
  }
  initializer {
    dims: 16
    dims: 32
    data_type: 1
    name: "lm_head.weight_t"
    raw_data: "…"
  }
  input {
    name: "input_ids"
    type {
      tensor_type {
        elem_type: 7
        shape {
          dim {
            dim_param: "batch"
          }
          dim {
            dim_param: "sequence_len"
          }
        }
      }
    }
  }
  input {
    name: "key_cache.0"
    type {
      tensor_type {
        elem_type: 1
        shape {
          dim {
            dim_param: "batch"
          }
          dim {
            dim_value: 16
          }
          dim {
            dim_value: 16
          }
        }
      }
    }
  }
  input {
    name: "value_cache.0"
    type {
      tensor_type {
        elem_type: 1
        shape {
          dim {
            dim_param: "batch"
          }
          dim {
            dim_value: 16
          }
          dim {
            dim_value: 16
          }
        }
      }
    }
  }
  input {
    name: "write_indices"
    type {
      tensor_type {
        elem_type: 7
        shape {
          dim {
            dim_param: "batch"
          }
        }
      }
    }
  }
  input {
    name: "nonpad_kv_seqlen"
    type {
      tensor_type {
        elem_type: 7
        shape {
          dim {
            dim_param: "batch"
          }
        }
      }
    }
  }
  output {
    name: "logits"
    type {
      tensor_type {
        elem_type: 1
        shape {
          dim {
            dim_param: "batch"
          }
          dim {
            dim_param: "sequence_len"
          }
          dim {
            dim_value: 32
          }
        }
      }
    }
  }
  output {
    name: "updated_key_cache.0"
    type {
      tensor_type {
        elem_type: 1
        shape {
          dim {
            dim_param: "batch"
          }
          dim {
            dim_value: 16
          }
          dim {
            dim_value: 16
          }
        }
      }
    }
  }
  output {
    name: "updated_value_cache.0"
    type {
      tensor_type {
        elem_type: 1
        shape {
          dim {
            dim_param: "batch"
          }
          dim {
            dim_value: 16
          }
          dim {
            dim_value: 16
          }
        }
      }
    }
  }
  value_info {
    name: "model.embed_tokens.weight"
    type {
      tensor_type {
        elem_type: 1
        shape {
          dim {
            dim_value: 32
          }
          dim {
            dim_value: 16
          }
        }
      }
    }
  }
  value_info {
    name: "model.layers.0.input_layernorm.weight"
    type {
      tensor_type {
        elem_type: 1
        shape {
          dim {
            dim_value: 16
          }
        }
      }
    }
  }
  value_info {
    name: "model.layers.0.post_attention_layernorm.weight"
    type {
      tensor_type {
        elem_type: 1
        shape {
          dim {
            dim_value: 16
          }
        }
      }
    }
  }
  value_info {
    name: "model.norm.weight"
    type {
      tensor_type {
        elem_type: 1
        shape {
          dim {
            dim_value: 16
          }
        }
      }
    }
  }
  value_info {
    name: "model.layers.0.self_attn.q_proj.weight_t"
    type {
      tensor_type {
        elem_type: 1
        shape {
          dim {
            dim_value: 16
          }
          dim {
            dim_value: 16
          }
        }
      }
    }
  }
  value_info {
    name: "model.layers.0.self_attn.k_proj.weight_t"
    type {
      tensor_type {
        elem_type: 1
        shape {
          dim {
            dim_value: 16
          }
          dim {
            dim_value: 16
          }
        }
      }
    }
  }
  value_info {
    name: "model.layers.0.self_attn.v_proj.weight_t"
    type {
      tensor_type {
        elem_type: 1
        shape {
          dim {
            dim_value: 16
          }
          dim {
            dim_value: 16
          }
        }
      }
    }
  }
  value_info {
    name: "model.layers.0.self_attn.o_proj.weight_t"
    type {
      tensor_type {
        elem_type: 1
        shape {
          dim {
            dim_value: 16
          }
          dim {
            dim_value: 16
          }
        }
      }
    }
  }
  value_info {
    name: "model.layers.0.mlp.gate_proj.weight_t"
    type {
      tensor_type {
        elem_type: 1
        shape {
          dim {
            dim_value: 16
          }
          dim {
            dim_value: 32
          }
        }
      }
    }
  }
  value_info {
    name: "model.layers.0.mlp.up_proj.weight_t"
    type {
      tensor_type {
        elem_type: 1
        shape {
          dim {
            dim_value: 16
          }
          dim {
            dim_value: 32
          }
        }
      }
    }
  }
  value_info {
    name: "model.layers.0.mlp.down_proj.weight_t"
    type {
      tensor_type {
        elem_type: 1
        shape {
          dim {
            dim_value: 32
          }
          dim {
            dim_value: 16
          }
        }
      }
    }
  }
  value_info {
    name: "lm_head.weight_t"
    type {
      tensor_type {
        elem_type: 1
        shape {
          dim {
            dim_value: 16
          }
          dim {
            dim_value: 32
          }
        }
      }
    }
  }
  value_info {
    name: "v_model.embed_tokens.Gather_0"
    type {
      tensor_type {
        elem_type: 1
        shape {
          dim {
            dim_param: "batch"
          }
          dim {
            dim_param: "sequence_len"
          }
          dim {
            dim_value: 16
          }
        }
      }
    }
  }
  value_info {
    name: "v_model.layers.0.input_layernorm.RMSNormalization_1"
    type {
      tensor_type {
        elem_type: 1
        shape {
          dim {
            dim_param: "batch"
          }
          dim {
            dim_param: "sequence_len"
          }
          dim {
            dim_value: 16
          }
        }
      }
    }
  }
  value_info {
    name: "v_model.layers.0.self_attn.q_proj.MatMul_3"
    type {
      tensor_type {
        elem_type: 1
        shape {
          dim {
            dim_param: "batch"
          }
          dim {
            dim_param: "sequence_len"
          }
          dim {
            dim_value: 16
          }
        }
      }
    }
  }
  value_info {
    name: "v_model.layers.0.self_attn.k_proj.MatMul_5"
    type {
      tensor_type {
        elem_type: 1
        shape {
          dim {
            dim_param: "batch"
          }
          dim {
            dim_param: "sequence_len"
          }
          dim {
            dim_value: 16
          }
        }
      }
    }
  }
  value_info {
    name: "v_model.layers.0.self_attn.v_proj.MatMul_7"
    type {
      tensor_type {
        elem_type: 1
        shape {
          dim {
            dim_param: "batch"
          }
          dim {
            dim_param: "sequence_len"
          }
          dim {
            dim_value: 16
          }
        }
      }
    }
  }
  value_info {
    name: "v_model.layers.0.self_attn.Attention_10_0"
    type {
      tensor_type {
        elem_type: 1
        shape {
          dim {
            dim_param: "batch"
          }
          dim {
            dim_param: "sequence_len"
          }
          dim {
            dim_value: 16
          }
        }
      }
    }
  }
  value_info {
    name: "v_model.layers.0.self_attn.o_proj.MatMul_12"
    type {
      tensor_type {
        elem_type: 1
        shape {
          dim {
            dim_param: "batch"
          }
          dim {
            dim_param: "sequence_len"
          }
          dim {
            dim_value: 16
          }
        }
      }
    }
  }
  value_info {
    name: "v_model.layers.0.post_attention_layernorm.RMSNormalization_14"
    type {
      tensor_type {
        elem_type: 1
        shape {
          dim {
            dim_param: "batch"
          }
          dim {
            dim_param: "sequence_len"
          }
          dim {
            dim_value: 16
          }
        }
      }
    }
  }
  value_info {
    name: "v_model.layers.0.mlp.gate_proj.MatMul_16"
    type {
      tensor_type {
        elem_type: 1
        shape {
          dim {
            dim_param: "batch"
          }
          dim {
            dim_param: "sequence_len"
          }
          dim {
            dim_value: 32
          }
        }
      }
    }
  }
  value_info {
    name: "v_model.layers.0.mlp.Sigmoid_17"
    type {
      tensor_type {
        elem_type: 1
        shape {
          dim {
            dim_param: "batch"
          }
          dim {
            dim_param: "sequence_len"
          }
          dim {
            dim_value: 32
          }
        }
      }
    }
  }
  value_info {
    name: "v_model.layers.0.mlp.Mul_18"
    type {
      tensor_type {
        elem_type: 1
        shape {
          dim {
            dim_param: "batch"
          }
          dim {
            dim_param: "sequence_len"
          }
          dim {
            dim_value: 32
          }
        }
      }
    }
  }
  value_info {
    name: "v_model.layers.0.mlp.up_proj.MatMul_20"
    type {
      tensor_type {
        elem_type: 1
        shape {
          dim {
            dim_param: "batch"
          }
          dim {
            dim_param: "sequence_len"
          }
          dim {
            dim_value: 32
          }
        }
      }
    }
  }
  value_info {
    name: "v_model.layers.0.mlp.Mul_21"
    type {
      tensor_type {
        elem_type: 1
        shape {
          dim {
            dim_param: "batch"
          }
          dim {
            dim_param: "sequence_len"
          }
          dim {
            dim_value: 32
          }
        }
      }
    }
  }
  value_info {
    name: "v_model.layers.0.mlp.down_proj.MatMul_23"
    type {
      tensor_type {
        elem_type: 1
        shape {
          dim {
            dim_param: "batch"
          }
          dim {
            dim_param: "sequence_len"
          }
          dim {
            dim_value: 16
          }
        }
      }
    }
  }
  value_info {
    name: "v_model.norm.RMSNormalization_25"
    type {
      tensor_type {
        elem_type: 1
        shape {
          dim {
            dim_param: "batch"
          }
          dim {
            dim_param: "sequence_len"
          }
          dim {
            dim_value: 16
          }
        }
      }
    }
  }
}
opset_import {
  domain: ""
  version: 24
}
opset_import {
  domain: "com.microsoft"
  version: 1
}
functions {
  name: "SkipSimplifiedLayerNormalization"
  input: "input"
  input: "skip"
  input: "weight"
  output: "norm_out"
  output: "mean"
  output: "inv_std_var"
  output: "add_out"
  node {
    input: "input"
    input: "skip"
    output: "add_out"
    name: "Add_node_0"
    op_type: "Add"
    metadata_props {
      key: "namespace"
      value: ""
    }
    metadata_props {
      key: "pkg.onnxscript.class_hierarchy"
      value: "[]"
    }
    metadata_props {
      key: "pkg.onnxscript.name_scopes"
      value: "[]"
    }
    metadata_props {
      key: "pkg.onnxscript.shape_inference_error"
      value: "Type of input 0 value input of node Add_node_0 not known"
    }
  }
  node {
    input: "add_out"
    input: "weight"
    output: "norm_out"
    name: "RMSNormalization_node_1"
    op_type: "RMSNormalization"
    attribute {
      name: "epsilon"
      type: FLOAT
      ref_attr_name: "epsilon"
    }
    metadata_props {
      key: "namespace"
      value: ""
    }
    metadata_props {
      key: "pkg.onnxscript.class_hierarchy"
      value: "[]"
    }
    metadata_props {
      key: "pkg.onnxscript.name_scopes"
      value: "[]"
    }
    metadata_props {
      key: "pkg.onnxscript.shape_inference_error"
      value: "Type of input 0 value v_Add_0 of node RMSNormalization_node_1 not known"
    }
  }
  node {
    output: "mean"
    name: "Constant_node_2"
    op_type: "Constant"
    attribute {
      name: "value_floats"
      floats: 0.0
      type: FLOATS
    }
    metadata_props {
      key: "namespace"
      value: ""
    }
    metadata_props {
      key: "pkg.onnxscript.class_hierarchy"
      value: "[]"
    }
    metadata_props {
      key: "pkg.onnxscript.name_scopes"
      value: "[]"
    }
  }
  node {
    output: "inv_std_var"
    name: "Constant_node_3"
    op_type: "Constant"
    attribute {
      name: "value_floats"
      floats: 0.0
      type: FLOATS
    }
    metadata_props {
      key: "namespace"
      value: ""
    }
    metadata_props {
      key: "pkg.onnxscript.class_hierarchy"
      value: "[]"
    }
    metadata_props {
      key: "pkg.onnxscript.name_scopes"
      value: "[]"
    }
  }
  opset_import {
    domain: ""
    version: 24
  }
  domain: "com.microsoft"
  attribute_proto {
    name: "epsilon"
    f: 1e-05
    type: FLOAT
  }
  value_info {
    name: "mean"
    type {
      tensor_type {
        elem_type: 1
        shape {
          dim {
            dim_value: 1
          }
        }
      }
    }
  }
  value_info {
    name: "inv_std_var"
    type {
      tensor_type {
        elem_type: 1
        shape {
          dim {
            dim_value: 1
          }
        }
      }
    }
  }
}
